log/ppo/ppo_1-car_4-frames_lr1e-4_700-steps-per-collect_penalties.pth (torch, 816232 bytes, 32 tensors)

actor.sigma_param f4 [3, 1]
0	0xbecaf558	-0.39640307
1	0xbe05a715	-0.13052018
2	0xbf872241	-1.0557328

actor.preprocess.net.0.weight f4 [32, 12, 8, 8]
0	0x3c264aac	0.010149639
1	0x3b397204	0.0028296718
2	0xbb982247	-0.004642758
3	0xbd11fe00	-0.035642624
4	0xbd996ca7	-0.07491427
5	0xbdcede7a	-0.10101028
6	0xbc89afa6	-0.016807389
7	0x3d3c6f39	0.046004508
8	0xbd06dd76	-0.032926045
9	0xbc1d64cd	-0.009606552
10	0xbb389a67	-0.0028168203
11	0xbd377ec1	-0.044798616
12	0xbd79e324	-0.061007634
13	0xbdb45a62	-0.08806302
14	0xbd88785e	-0.06663583
15	0x3b6e6ddc	0.00363814
16	0xbc8afc9a	-0.016966153
17	0xbdc5ef8b	-0.0966483
18	0xbd5249ef	-0.05134004
19	0xbd3744a6	-0.044743203
20	0xbd350bc1	-0.044200663
21	0xbdb107be	-0.08644055
22	0xbd228c94	-0.039684847
23	0xbbf54596	-0.007485102
24	0x3ca87c6e	0.020567145
25	0xbdb8fa5f	-0.090321295
26	0xbcab90e8	-0.02094312
27	0xbb5e8dbb	-0.003395899
28	0xbdac89aa	-0.08424695
29	0xbd1319f9	-0.03591344
30	0xbd7ff2e5	-0.0624875
31	0xbc6f189e	-0.014593272
32	0xbd75f798	-0.060050577
33	0xbdadccc0	-0.084863186
34	0xbd9fada5	-0.07796792
35	0xbc23a93e	-0.009989081
36	0xbd9803bb	-0.074225865
37	0x3cd301c8	0.025757685
38	0xbd5edf06	-0.05441191
39	0xbc881be5	-0.016614864
40	0xbd71925e	-0.058977477
41	0xbd8badf9	-0.06820292
42	0xbdbc8bf3	-0.09206381
43	0xbce16a76	-0.027516585
44	0xbd4cd4f0	-0.05000776
45	0x3b43c10b	0.0029869701
46	0xbdaf7515	-0.085672535
47	0xbc0ed235	-0.008717109
48	0xbd647ba1	-0.055781964
49	0x3a962d29	0.001145755
50	0xbd87070b	-0.0659314
51	0xbd922b3e	-0.07137154
52	0xbc016524	-0.007897649
53	0x3cfe3983	0.031033283
54	0xbd1022c5	-0.03518941
55	0xbd2c7c87	-0.042110946
56	0xbe132c7d	-0.1437244
57	0xbceb5ac5	-0.028729806
58	0xbdf94781	-0.121718414
59	0xbd422129	-0.047394905
60	0xbc4abb61	-0.012373776
61	0xba9c3721	-0.0011918285
62	0x3c3e599b	0.011618043
63	0x3be53fa9	0.0069961143
64	0x3c8d3320	0.017236292
65	0x3cbc21e6	0.022965383
66	0x3d330e92	0.043715067
67	0xbd86577a	-0.065596536
68	0xbc835891	-0.016033443
69	0xbdf2b99d	-0.11851809
70	0xbd7610d4	-0.060074642
71	0x3c449983	0.011999491
72	0xbd31d650	-0.043417275
73	0xbd17651e	-0.036961667
74	0xbb851322	-0.0040611187
75	0xbd54d9c7	-0.0519655
76	0x3c8da9ca	0.017292876
77	0xbdaf168e	-0.08549224
78	0xbc97dbb2	-0.018537376
79	0x3cda3a6c	0.026639186
80	0xbc88a40f	-0.016679792
81	0xbd54811f	-0.051880952
82	0xbd861d29	-0.065485306
83	0xbc702e9b	-0.014659549
84	0xbd942b58	-0.0723483
85	0xbd818332	-0.06323852
86	0xbd7fa447	-0.062412526
87	0xbbf7b86f	-0.007559828
88	0xbba7ac37	-0.005116965
89	0xbe0a97e6	-0.13534507
90	0xbd890013	-0.06689467
91	0xbc9f2eeb	-0.019431552
92	0xbd83f2a7	-0.06442767
93	0x3d1b9ac7	0.037989404
94	0xbd4d84b3	-0.05017538
95	0x38ed01f6	0.00011301406
96	0xbd0efc3b	-0.034908514
97	0xbdf74415	-0.120735325
98	0xbdac822d	-0.084232666
99	0xbcd6562d	-0.026164139
100	0xbd2e8d67	-0.04261532
101	0x3c5ef931	0.013609217
102	0xbd90255e	-0.07038377
103	0xbbe8f927	-0.0071097794
104	0xbd8a6ce4	-0.067590505
105	0xbd349752	-0.044089623
106	0xbd91771c	-0.071027964
107	0xbd63ad75	-0.055585343
108	0xbd47077b	-0.04859112
109	0x3cfa81b2	0.030579422
110	0xbdb2591a	-0.08708401
111	0x3b729cd8	0.0037019756
112	0xbd4e17d4	-0.050315693
113	0xbd1ca605	-0.038244266
114	0xbde30148	-0.11084229
115	0xbd745fd6	-0.05966171
116	0xbd2c7616	-0.042104803
117	0x3d33a7c6	0.043861173
118	0xbba11339	-0.0049156216
119	0xbd1e9533	-0.038716506
120	0xbdcb6bec	-0.09932694
121	0x3bab7dc5	0.0052334988
122	0xbe02d3be	-0.12776086
123	0xbd7bcee4	-0.061476603
124	0xbc54c70e	-0.012986911
125	0xbb45dd41	-0.0030191692
126	0xbbd260be	-0.006420224
127	0xbd5588a4	-0.052132264
128	0xbd03d20b	-0.032182734
129	0xbbc2f96a	-0.0059501426
130	0x3cb93e72	0.022612784
131	0xbc07055c	-0.008241024
132	0x3c06d131	0.008228586
133	0xbd6c5c89	-0.057705436
134	0xbd5bd14f	-0.05366641
135	0x3b94cbf9	0.004540917
136	0xbcc42e2c	-0.023947798
137	0x3d171f23	0.03689493
138	0x3cf095c2	0.029368285
139	0x3c460146	0.012085265
140	0x3d623eb4	0.05523558
141	0xbdbd4f03	-0.09243586
142	0xbc18fb83	-0.009337309
143	0x3d145786	0.03621628
144	0xbc873288	-0.016503587
145	0xbde6ca8f	-0.11269104
146	0xbc540ab0	-0.012942001
147	0xbd2db4e8	-0.042408854
148	0xbd01e625	-0.031713624
149	0x3d1c5e61	0.038175944
150	0xbcf48310	-0.029847652
151	0x3d24c1e5	0.040223975
152	0x3d28a506	0.041173004
153	0xbdbbb0fd	-0.09164617
154	0xbd50011c	-0.050782308
155	0x3c37c537	0.011216453
156	0xbcfb3c09	-0.030668275
157	0x3c0acf4c	0.008472275
158	0xbc6c3631	-0.014417217
159	0x3a224117	0.0006189509
160	0xbd0555ba	-0.03255246
161	0xbdb56944	-0.088579684
162	0xbdfb0900	-0.12257576
163	0xbbdf8ee3	-0.0068224533
164	0xbd0329bd	-0.032022227
165	0x3d750546	0.059819482
166	0xbc99aa59	-0.018757986
167	0x3cdacab3	0.026707983
168	0xbcd9fd6f	-0.026610104
169	0xbdc48038	-0.09594768
170	0xbde753ab	-0.11295255
171	0xbd572035	-0.05252095
172	0xbc6ab09e	-0.014324335
173	0x3d878ef7	0.06619065
174	0xbca8a717	-0.020587487
175	0x3d117bba	0.035518385
176	0xbd8c59ad	-0.06853042
177	0xbd251041	-0.040298704
178	0xbda0da9a	-0.07854195
179	0xbccdb3e1	-0.025110187
180	0x3c06c6af	0.008226081
181	0x3cf6ec0c	0.030141853
182	0x3d27197e	0.040795796
183	0x3bb79837	0.005602862
184	0xbe1f42b2	-0.15552786
185	0xbd5048ae	-0.050850563
186	0xbe108346	-0.14112577
187	0xbd8f1ec2	-0.069882885
188	0x3b5a66d9	0.0033325462
189	0x3a139eaa	0.0005631248
190	0x3d1be018	0.03805551
191	0xbc93247c	-0.017961733
192	0x3cb4424e	0.022004273
193	0x3d8f5886	0.069993064
194	0x3e1ac5cc	0.15114516
195	0xbd468d4b	-0.04847459
196	0x3bb5d780	0.0055493712
197	0xbdbebf50	-0.09313834
198	0xbdc4b518	-0.096048534
199	0xbd14435f	-0.036197063
200	0xbc9f6ba4	-0.019460507
201	0x3cc0aaeb	0.023519
202	0x3d9e259e	0.07722019
203	0xbcb752ca	-0.022378344
204	0xba8f5642	-0.0010935741
205	0xbd056be6	-0.032573603
206	0xbda6cc09	-0.08144385
207	0xbce15c10	-0.02750972
208	0x3c294d7a	0.010333413
209	0xbd9a1264	-0.07523039
210	0x3c80d1e8	0.015725091
211	0xbc0afba9	-0.008482852
212	0xbca58ac2	-0.020207766
213	0x3cae2466	0.02125759
214	0xbd1dea33	-0.038553428
215	0x3c94e402	0.018175129
216	0x3bd39177	0.0064565497
217	0xbdc5dbb1	-0.096610434
218	0xbd98e6be	-0.074658856
219	0xbd3dcee6	-0.04633989
220	0xbccd4c8e	-0.025060918
221	0x3cade5f9	0.021227824
222	0xbd709464	-0.058735266
223	0x3d627968	0.055291563
224	0x3bbe514a	0.0058080303
225	0xbdaf5361	-0.08560825
226	0xbdbb1983	-0.09135725
227	0xbd836c3f	-0.06417131
228	0xbd109a64	-0.03530349
229	0x395d8e22	0.00021129151
230	0xbdea0309	-0.1142636
231	0x3d6028e1	0.054726485
232	0xbd4e97e9	-0.05043784
233	0xbd2b92c4	-0.041888013
234	0xbdecf00b	-0.11569222
235	0xbcbe2710	-0.023211986
236	0xbce39ad0	-0.027783781
237	0xbc2fd330	-0.010731503
238	0x3c2820e2	0.010261746
239	0x3d87196d	0.065966465
240	0xbd4aa378	-0.049472302
241	0xbd16e9ce	-0.036844067
242	0xbe115b69	-0.14195026
243	0xbca6bdc6	-0.020354163
244	0xbcd7c366	-0.02633829
245	0x3d687e25	0.056760926
246	0x3d007f69	0.031371508
247	0x3c57507d	0.0131417485
248	0xbdfc1800	-0.12309265
249	0xbd8004e9	-0.062509365
250	0xbe1eb581	-0.15498926
251	0x3c310b82	0.010805966
252	0xbcffd808	-0.031230941
253	0x3d891de0	0.06695151
254	0x3e279392	0.16364887
255	0xbd4ad2f8	-0.0495176

actor.preprocess.net.0.bias f4 [32]
0	0xbd7aff8e	-0.061278872
1	0x3d13f329	0.036120567
2	0xbd3b4c6d	-0.045727182
3	0xbd61e962	-0.05515421
4	0xbd477db8	-0.04870388
5	0x3d77f8e5	0.0605401
6	0xbcf028b8	-0.029316291
7	0xbcd48861	-0.025943937
8	0xbcdce1fc	-0.026963226
9	0xbc707c54	-0.01467808
10	0xbcbc0b0f	-0.022954492
11	0x3d209d46	0.039212488
12	0x3d822905	0.0635548
13	0x3db65302	0.08902551
14	0x3d648d0d	0.05579858
15	0x3b84bed6	0.0040510697
16	0xbd43ce26	-0.04780402
17	0xbc163d6c	-0.009169918
18	0x3d8bfd69	0.068354435
19	0xbc81d2d0	-0.015847594
20	0x3d54d1f0	0.051958025
21	0xbcc83521	-0.024439396
22	0xbc37eb52	-0.011225538
23	0xbc88a977	-0.01668237
24	0x3d3f5992	0.04671628
25	0x3d1587f0	0.036506593
26	0x3d4fd1c1	0.050737146
27	0x3d0c3772	0.034232564
28	0x3d572410	0.052524626
29	0x3d04b77f	0.032401558
30	0x3d00c42a	0.031437077
31	0xbd26ac9b	-0.040691953

actor.preprocess.net.2.weight f4 [64, 32, 4, 4]
0	0xbd50c0fe	-0.0509653
1	0x3d2ac36b	0.04169027
2	0xbdaaeaee	-0.083455905
3	0xbd601201	-0.05470467
4	0xbcb491bd	-0.02204215
5	0xbcac3b7e	-0.021024462
6	0x3d043f92	0.032287188
7	0x3cc96797	0.024585528
8	0xbc7bcc2a	-0.015368501
9	0xbd2d96bb	-0.042380076
10	0xbbde7160	-0.0067884177
11	0xbc8f7862	-0.017513458
12	0x3c960e4a	0.01831736
13	0x3cb835ed	0.022486651
14	0xbd934328	-0.071905434
15	0xbd238577	-0.039922204
16	0x3d4a8655	0.049444515
17	0x3d427db2	0.047483154
18	0x3cc738da	0.024319101
19	0x3c608d16	0.0137055125
20	0x3d82a8a7	0.06379824
21	0xba07c72a	-0.0005179519
22	0x3cc7eeb0	0.024405807
23	0x3bc79887	0.0060911807
24	0x3cd170b4	0.025566436
25	0x3d33471d	0.04376899
26	0x3ba0ddac	0.004909238
27	0x3d3469b0	0.044046104
28	0x3d0f2348	0.034945756
29	0x3d7b9a0e	0.061426215
30	0xbd0fa463	-0.03506888
31	0xbbe3b702	-0.0069493065
32	0xbd44602c	-0.04794328
33	0x3d217bf3	0.039424848
34	0xbc5b3ea9	-0.013381639
35	0xbd35c389	-0.04437593
36	0x3b5d2cce	0.003374863
37	0xbc0ac53d	-0.008469877
38	0x3c057fca	0.008148143
39	0xbcaa642b	-0.020799717
40	0xbd0d67ab	-0.034522694
41	0xba4fc13c	-0.00079252175
42	0x3d31bfb7	0.043395724
43	0xbd2f4187	-0.0427871
44	0x3bc80eb1	0.006105267
45	0x3cd2c4a2	0.025728527
46	0xbd1e32d9	-0.03862271
47	0xbd1bbd43	-0.03802229
48	0xbd3818bb	-0.04494546
49	0xbdc75b15	-0.097341694
50	0xbd30c276	-0.043154202
51	0xbddae913	-0.10688987
52	0xbc55911e	-0.013035087
53	0x3ac1ab33	0.0014775753
54	0x3d12ab15	0.035807688
55	0xbd91b422	-0.07114436
56	0xbd95ac51	-0.07308257
57	0xbdab3ae8	-0.08360845
58	0x3c47e3be	0.012200294
59	0xbda5ba1f	-0.080921404
60	0xbdda1601	-0.10648728
61	0xbd26f544	-0.040761247
62	0xbd867406	-0.065650985
63	0xbd18e1bb	-0.03732465
64	0xbb40775a	-0.0029368014
65	0x3cc84150	0.024445206
66	0xbd7b0f0c	-0.061293647
67	0xbca62924	-0.02028329
68	0x3c0ca800	0.008584976
69	0xb9c96267	-0.00038411023
70	0xbb10f13f	-0.002211645
71	0x3c4c1612	0.012456434
72	0xbd3cd0c9	-0.04609755
73	0xb8cd7b70	-9.798154e-05
74	0xbd50f16f	-0.0510115
75	0xbd210575	-0.039311845
76	0xbd650918	-0.055916876
77	0x3c2d7bb1	0.010588572
78	0xbd229f67	-0.0397028
79	0xbd77cae9	-0.060496245
80	0x3b946f80	0.0045298934
81	0x3cb463cd	0.022020245
82	0x3d1ff2e1	0.039049987
83	0xbc269ea1	-0.010169656
84	0x3d59a6a2	0.05313743
85	0x3d10920b	0.035295527
86	0xb818d898	-3.6441343e-05
87	0x3c6e7ea8	0.014556564
88	0x3c9109cd	0.017704869
89	0x3cc62d29	0.024191456
90	0xbd21ad97	-0.03947219
91	0x3d703abe	0.05864977
92	0x3d2215a6	0.039571427
93	0x3d9c7b94	0.07640758
94	0x3c49adff	0.01230955
95	0x3d9495ab	0.072551094
96	0xbcd562d3	-0.0260481
97	0xbc778ef8	-0.01510977
98	0xbcfd3df2	-0.030913327
99	0xbd1c1275	-0.03810354
100	0xbcedc30c	-0.02902367
101	0xbc32becc	-0.010909747
102	0xbcb694af	-0.022287695
103	0x3b9dc722	0.0048149982
104	0xbd8ec9a3	-0.06972053
105	0xbd72f59c	-0.059316263
106	0x3cb46c7a	0.022024382
107	0xbd94311f	-0.072359316
108	0x3c88910b	0.016670724
109	0xbcdbb488	-0.026819482
110	0xbc3b86a6	-0.011445677
111	0xbc3ed8a4	-0.011648331
112	0x3d6d6abd	0.05796312
113	0x3c92e29c	0.017930321
114	0xbc2aebd5	-0.010432203
115	0x3c249697	0.010045669
116	0x3c804835	0.015659431
117	0xbd1e8f36	-0.038710795
118	0x3d2cbdfb	0.042173367
119	0xbc9bfc97	-0.019041343
120	0xbc0ded59	-0.008662545
121	0xbd1f73fc	-0.03892897
122	0xbd0b0566	-0.033940695
123	0xbc4ca140	-0.012489617
124	0xbc272156	-0.010200819
125	0x3d8b0f36	0.06790011
126	0x3c45884b	0.012056421
127	0xbca17b93	-0.019712245
128	0x3d677e17	0.056516733
129	0xbcc67843	-0.024227267
130	0x3cf1da3b	0.029523006
131	0x3d68d9e0	0.056848407
132	0xbbb726e2	-0.005589352
133	0xbb4b17c5	-0.003098951
134	0xbcc0eb76	-0.023549777
135	0xbc964ec9	-0.018348115
136	0xbca40b08	-0.020024791
137	0xbd26e52c	-0.0407459
138	0xbd0225a5	-0.031774182
139	0x3c7e06fb	0.015504594
140	0x3ba5e064	0.00506215
141	0x3d28182a	0.04103867
142	0xbc908dab	-0.017645678
143	0x3c96f685	0.018428097
144	0x3d40f415	0.047107775
145	0xbb1f952b	-0.0024350386
146	0x3ca825d3	0.020525848
147	0xbc91e1eb	-0.017807921
148	0x3cd51ca5	0.026014635
149	0xbcf17ecf	-0.029479412
150	0xb90ce7ec	-0.00013437838
151	0x3c03081c	0.007997539
152	0xbcf45fc9	-0.02983083
153	0xbc8d01c3	-0.017212754
154	0xbcd98e13	-0.026557004
155	0x3c91f9cb	0.017819306
156	0xbcb98a9a	-0.022649098
157	0x3d227f45	0.039672155
158	0x3cc9a56c	0.024615012
159	0xbc7e7ba5	-0.015532409
160	0xbd114d24	-0.035473958
161	0xbc89c549	-0.016817706
162	0xbd1b4966	-0.037911795
163	0xbd239090	-0.039932787
164	0xbd0f43b1	-0.034976665
165	0xbca8c511	-0.020601781
166	0xbcbea21c	-0.02327066
167	0x3ceb5775	0.028728226
168	0xbd13a387	-0.036044624
169	0xbd4bf701	-0.04979611
170	0xbd37b1d3	-0.04484732
171	0x3d4526eb	0.04813282
172	0x3d11daf1	0.03560919
173	0x3cfe3892	0.031032834
174	0x3c8bb632	0.017054651
175	0x3c6e75ae	0.014554424
176	0x3c2cdfeb	0.010551433
177	0x3b0f69f7	0.0021883228
178	0xbc85e17b	-0.016342869
179	0xbcaf948e	-0.021433141
180	0x3da974da	0.08274241
181	0x3cbce22f	0.023057071
182	0x3d888e09	0.06667716
183	0x3df6095c	0.12013504
184	0x3d86bb85	0.06578735
185	0xbd1346e9	-0.035956297
186	0x3b28e506	0.0025771274
187	0x3d8b444d	0.06800137
188	0x3cc8335c	0.024438553
189	0xbd019eef	-0.03164571
190	0x3c77ddd4	0.015128572
191	0x3b2242cd	0.0024759055
192	0x3c38086f	0.0112324795
193	0x3d15dc0d	0.03658681
194	0xbc8c2118	-0.017105624
195	0x3d1e1e55	0.038603146
196	0x3cbd2358	0.023088142
197	0x3ca13bd1	0.019681843
198	0xbcd00c7b	-0.025396576
199	0x3d6aca54	0.05732186
200	0xbcae1ced	-0.021254027
201	0x3bb5a2eb	0.005543103
202	0x3cb8c75a	0.022555996
203	0x3d4f265a	0.050573684
204	0xbc5a6794	-0.013330359
205	0x3da7d6f6	0.081952974
206	0x3d4f7606	0.050649665
207	0x3cdc3dce	0.02688494
208	0x3cf8f2e2	0.030389253
209	0xbca7bb5e	-0.020475086
210	0x3c04fba4	0.008116636
211	0x3d0422f3	0.032259893
212	0x3bd601a1	0.006530956
213	0x3bba3772	0.005682879
214	0xbc006d9f	-0.007838636
215	0x3d3d7827	0.046257164
216	0x3d1e128d	0.03859191
217	0xbaaeec6f	-0.0013345609
218	0x3c351ce8	0.011054255
219	0x3d018dfa	0.03162954
220	0x3dd6c2cf	0.104863755
221	0xbc8a20ce	-0.016861346
222	0x3d38dcaf	0.045132335
223	0x3d9fcb7c	0.078024834
224	0x3d41f1d4	0.047349766
225	0x3c5a6fd7	0.013332329
226	0x3d17b532	0.037038036
227	0x3d51a509	0.05118278
228	0x3d75c07a	0.059998013
229	0x3d93a921	0.07209993
230	0x3c6582a2	0.014008196
231	0x3c26a913	0.010172146
232	0x3cbb42a3	0.022858923
233	0x39aa5d10	0.00032494264
234	0xbd15d3a7	-0.0365788
235	0xbb91abe4	-0.00444554
236	0x3d07f085	0.03318836
237	0x3c24592b	0.010031025
238	0x3a1e975b	0.00060497754
239	0x3de1ca31	0.11024893
240	0x3dc41a6b	0.09575351
241	0x3c8681e0	0.016419351
242	0xbcb00912	-0.0214887
243	0x3d8f8988	0.07008654
244	0x3ab1e89c	0.0013573351
245	0x3d43ab9f	0.047771093
246	0x3d82b8d2	0.06382908
247	0xbcceb058	-0.025230572
248	0xbb31a79d	-0.0027107962
249	0x3cddbcaf	0.02706751
250	0x3ca38c31	0.01996431
251	0x3d9bdad8	0.076101005
252	0x3ce16c8d	0.027517581
253	0xbc8adcb4	-0.016950943
254	0xbd6218e0	-0.055199504
255	0x3db922d6	0.090398476

actor.preprocess.net.2.bias f4 [64]
0	0x3d032b3b	0.03202365
1	0x3c052164	0.008125637
2	0xbd1f130d	-0.038836528
3	0xbd3f9bb8	-0.046779364
4	0x3b1d766f	0.002402689
5	0xbd20bb93	-0.039241385
6	0xbc27651e	-0.010216979
7	0x3b6b65e3	0.0035918884
8	0xbd4febc3	-0.05076195
9	0xbd126d52	-0.035748787
10	0x3c0736dd	0.0082528265
11	0xbd1a348a	-0.03764776
12	0x3d40d414	0.047077253
13	0xbd3c250e	-0.045933776
14	0xbd1e1a58	-0.038599342
15	0x3cfe50e0	0.031044424
16	0xbcb17335	-0.02166138
17	0x3cb225bd	0.02174651
18	0xbcebdf79	-0.028793084
19	0xbd553ff1	-0.052062932
20	0xbd0989c2	-0.03357864
21	0xbce8c4b5	-0.02841411
22	0x3baee293	0.0053370683
23	0x3c87bf97	0.01657085
24	0x3b20f1b8	0.0024558138
25	0xbcf1aa7d	-0.02950024
26	0xbc38fbc0	-0.011290491
27	0xbd3b69ff	-0.045755383
28	0x3ce552ca	0.027993578
29	0x3c913dfe	0.017729755
30	0x3ca1722b	0.01970776
31	0xbb1243d7	-0.0022318268
32	0x3c86628f	0.016404418
33	0x3ce6a291	0.02815369
34	0xbc118d72	-0.008883821
35	0xbc324d9e	-0.010882763
36	0xbd8f5f03	-0.07000544
37	0xbcf8d08a	-0.030372877
38	0xb9221760	-0.00015458232
39	0xbd70c689	-0.058783088
40	0xbd334276	-0.043764554
41	0xbb9c3b76	-0.0047678305
42	0xbd2e6e7b	-0.04258583
43	0x3cade2e9	0.021226363
44	0xbd1957dc	-0.037437305
45	0x3ba3c181	0.0049974327
46	0x3ca1fd2e	0.019774046
47	0x3c2c388a	0.010511527
48	0xbc12f307	-0.008969075
49	0x3a886eb8	0.0010408973
50	0x3cac1eda	0.021010805
51	0xbcf37559	-0.029719042
52	0xbcf681c0	-0.030091166
53	0x3bb5ea8a	0.005551641
54	0x3aa44955	0.0012534062
55	0xbc29bdc3	-0.010360184
56	0x3d0af4d5	0.033924896
57	0xbd03a6fb	-0.032141667
58	0xbd699724	-0.057028905
59	0xbd3638cd	-0.044487763
60	0xbce1cb96	-0.027562898
61	0xbd284ffd	-0.041091908
62	0xbd61a02b	-0.05508439
63	0xbcff3609	-0.031153696

actor.preprocess.net.4.weight f4 [64, 64, 3, 3]
0	0x3d89335b	0.066992484
1	0x3c915b9a	0.017743874
2	0xbc8edbeb	-0.01743885
3	0x3b2c8f77	0.002633063
4	0xbd4630f0	-0.048386514
5	0xbc9da676	-0.019244414
6	0x3bcd6b17	0.0062688696
7	0x3b9c85f7	0.004776712
8	0x3c272334	0.010201264
9	0xbd6ad187	-0.057328727
10	0xbce99aca	-0.028516192
11	0xbcc8cee1	-0.02451271
12	0xbd060bb9	-0.032726023
13	0x3c50294d	0.012705159
14	0xbab3c266	-0.0013714551
15	0x3c377205	0.011196618
16	0xbc675c80	-0.014121175
17	0x3ca27563	0.019831365
18	0x3cf98feb	0.030464133
19	0x3bad6932	0.0052920813
20	0x3bbdcb77	0.005792077
21	0xbcef363a	-0.029200662
22	0x3b7f185d	0.0038924434
23	0x3bf8eec4	0.0075968225
24	0xbd4cebcf	-0.050029572
25	0x3ca4fc62	0.020139877
26	0xbc9301b6	-0.017945152
27	0x3cbbbf16	0.022918265
28	0xbc9f953c	-0.01948034
29	0xbc801ceb	-0.01563879
30	0xbce86a10	-0.028370887
31	0xbc7257bf	-0.014791428
32	0xbb160632	-0.0022891876
33	0x3c663d0c	0.014052641
34	0xbabadec6	-0.0014257065
35	0xbd11a0e9	-0.035553847
36	0xbcf5a1fa	-0.029984463
37	0x3c89d1f2	0.016823743
38	0xbccde9d2	-0.025135908
39	0x3d5a13e6	0.053241633
40	0x3d21e4f6	0.039524995
41	0x3c146607	0.009057528
42	0xbc848ae3	-0.016179508
43	0xbcdb140c	-0.026742958
44	0xbcbc1dcc	-0.022963427
45	0xbd073bbc	-0.03301595
46	0x3c37a448	0.011208601
47	0xbb7b484d	-0.0038342655
48	0x3a917654	0.0011097887
49	0xbcf4a892	-0.029865537
50	0x3bf38296	0.0074313385
51	0x3c3d2e6e	0.011546714
52	0x3cea8ac0	0.028630614
53	0xbd02e41e	-0.03195583
54	0x3cc1586b	0.023601731
55	0x3cb2e110	0.021835834
56	0xbd0fb1d4	-0.0350817
57	0x3cbc1bc5	0.02296246
58	0x3c73bbdc	0.014876332
59	0x3ca0a377	0.019609196
60	0x3baeb400	0.0053315163
61	0xba17f3e0	-0.0005796533
62	0x3ce0268c	0.02736213
63	0xbceb1d5c	-0.028700523
64	0x3b1e5719	0.00241608
65	0xbd6c8f81	-0.057754043
66	0xbcb175a6	-0.021662544
67	0xbd34e44c	-0.044163033
68	0xbc93b1a2	-0.018029038
69	0x3cb18504	0.021669872
70	0x3c4b0af0	0.012392744
71	0xbb30e691	-0.0026992897
72	0xbd2e5edf	-0.042570945
73	0xbc223366	-0.00989995
74	0x3c9def78	0.019279227
75	0xbb5e832a	-0.0033952692
76	0x3d04a3ce	0.03238278
77	0xbc8ba64a	-0.017047066
78	0x3cef43ed	0.029207194
79	0xbcecb199	-0.028893279
80	0xbc7891f7	-0.0151715195
81	0xbc6f4a76	-0.014605155
82	0x3d354ab2	0.044260688
83	0x3b79616b	0.003805245
84	0xbd409a28	-0.047022015
85	0x3c10b9bf	0.008833348
86	0x3ba63c3d	0.005073099
87	0xbcb2a8cb	-0.021809002
88	0xbceb8829	-0.02875145
89	0x3ccded4d	0.025137568
90	0x3b730997	0.0037084573
91	0x3cc09bfd	0.023511881
92	0x3bb20ab6	0.0054334057
93	0x3d1401aa	0.0361344
94	0x3c3a204a	0.011360237
95	0xbcaad34e	-0.020852711
96	0xbd15c01c	-0.036560163
97	0xbb9082d8	-0.004410129
98	0x3c6b37fd	0.01435661
99	0x3c5432f5	0.012951602
100	0x3cfd8070	0.030945033
101	0xbcd72271	-0.02626154
102	0x3c9c9628	0.019114569
103	0xbcb37bbb	-0.021909585
104	0xbbfb0a13	-0.007661113
105	0x3ce98884	0.028507479
106	0x3b682d27	0.0035427304
107	0xbc95fae8	-0.018308118
108	0x3c8a103a	0.01685344
109	0x3d17e917	0.037087526
110	0xbd12a12f	-0.035798248
111	0xbd1a39c3	-0.037652742
112	0x3c7515d2	0.014958816
113	0x3c466a04	0.012110237
114	0x3bbf87a9	0.0058450294
115	0xbc417c1d	-0.011809376
116	0x3b409873	0.0029387742
117	0xbcf19377	-0.029489262
118	0xbcf5217b	-0.029923191
119	0x3c995e0c	0.018721603
120	0x3c5d58eb	0.013509969
121	0xbc067b01	-0.008208037
122	0x3d11e7af	0.03562134
123	0xbcb46d5d	-0.022024805
124	0x3ca5d049	0.02024092
125	0x3c0b8fed	0.008518201
126	0xbcdd90ed	-0.027046645
127	0xbd26b28b	-0.040697616
128	0xbc8c1b55	-0.017102877
129	0xbca9aba4	-0.020711727
130	0x3cac2c9a	0.021017361
131	0xbd0c1c25	-0.03420653
132	0x3ce4cfd7	0.027931137
133	0xbd11995b	-0.03554664
134	0xbd20c489	-0.03924993
135	0x3d27a402	0.040927894
136	0x3d4a59e6	0.04940214
137	0x3bc7ba04	0.006095173
138	0xbbd82e23	-0.006597297
139	0x3c1d574a	0.009603331
140	0xbd26d38f	-0.0407291
141	0xbcd21915	-0.025646726
142	0xbad99c71	-0.0016602409
143	0xbd0304b4	-0.031986907
144	0xbd18645b	-0.03720508
145	0x3d15e8eb	0.03659908
146	0xbc8cda5e	-0.01719397
147	0x3c9837f0	0.01858136
148	0x3d091a27	0.033472206
149	0xbc49cbe3	-0.012316677
150	0xbcce97d6	-0.025218885
151	0xbcd820d5	-0.026382843
152	0x3c3739c5	0.011183207
153	0x3b02f213	0.0019980713
154	0xbcd7541e	-0.026285227
155	0xbc6a23e6	-0.014290785
156	0xbcd806f6	-0.026370507
157	0xbb8d7174	-0.004316503
158	0x3cd7e552	0.026354466
159	0x3b19a3dd	0.0023443617
160	0x3bff3ee9	0.007789482
161	0xbcec5fc9	-0.028854268
162	0x3d1161ca	0.03549365
163	0xbca04898	-0.019565865
164	0x3c23dfe0	0.010002106
165	0xbcdde416	-0.027086299
166	0x3c99d8e0	0.018780172
167	0x3d29abf1	0.04142374
168	0x3d2d7e1f	0.042356607
169	0x3c97835c	0.018495254
170	0xbcd66271	-0.026169987
171	0x3c8c45ac	0.017123066
172	0x3c555ad8	0.013022147
173	0x3c7c0434	0.0153818615
174	0xbd806759	-0.06269712
175	0xbd43c984	-0.047799602
176	0xbcfaf503	-0.030634409
177	0xbc975f39	-0.018478023
178	0xba12ce62	-0.00056002114
179	0xbcfc3332	-0.03078613
180	0xbd2a36b7	-0.041556086
181	0x3bb38c7f	0.005479395
182	0x38abf590	8.199655e-05
183	0xbca22b90	-0.019796163
184	0x3d1a6093	0.037689757
185	0x3d1c59e7	0.038171675
186	0x3cad86d4	0.021182455
187	0x3c9317b4	0.017955638
188	0x3cfcc701	0.030856611
189	0x3d0a5347	0.033770826
190	0xbc5487e3	-0.012971851
191	0xbce4482d	-0.027866447
192	0x3c4c9ff9	0.012489312
193	0xbc2a4d7f	-0.010394453
194	0xbbb91e35	-0.005649353
195	0xbbe24193	-0.0069047897
196	0x3ce515c8	0.027964488
197	0xbcddc1f8	-0.02707003
198	0xbc1415a9	-0.009038367
199	0x3c6e8c65	0.01455984
200	0xbcb24b5c	-0.02176445
201	0xba3b8dbe	-0.0007154605
202	0x3c998810	0.018741637
203	0xbc740575	-0.014893879
204	0xbcc46f71	-0.02397892
205	0xbcb15866	-0.021648597
206	0xbc8fe62a	-0.017565805
207	0xbcca1971	-0.024670335
208	0xbd4a638d	-0.049411345
209	0xbd1e2533	-0.038609695
210	0x3be9f980	0.0071403384
211	0x3ceb5290	0.028725892
212	0xbc3a37b6	-0.011365822
213	0x3bdca52b	0.0067335567
214	0x3d004aac	0.031321213
215	0x3ceb312a	0.028709967
216	0x3d06286e	0.0327534
217	0x3c0ab721	0.008466513
218	0xbc0f7e25	-0.008758103
219	0x3bd2ab02	0.006429077
220	0x3d2d0b6b	0.042247217
221	0x3c8aeaa1	0.016957583
222	0xbd04a972	-0.03238816
223	0x3c790a6c	0.015200239
224	0x3b0a64e3	0.0021117262
225	0xbd2be7c8	-0.04196909
226	0x3c225478	0.009907834
227	0x3caff48b	0.021478912
228	0xba93e2bc	-0.0011282782
229	0x3cda371c	0.026637606
230	0xb93c3979	-0.00017950487
231	0xbcb66739	-0.022266017
232	0xbc510e77	-0.012759796
233	0x3d07b15a	0.03312812
234	0x3c20fa50	0.009825304
235	0xbc945e9b	-0.018111518
236	0x3cbde190	0.023178846
237	0x3c73ece3	0.014888021
238	0x3d2aef29	0.041731987
239	0xbc100f68	-0.008792736
240	0x3c870041	0.016479613
241	0xbba26c9f	-0.0049567963
242	0x3c8eaaa3	0.01741535
243	0xbb3f343d	-0.0029175424
244	0x3b9caca7	0.004781324
245	0xba115a2a	-0.00055447465
246	0x3add759b	0.0016896011
247	0xbcd50bc1	-0.026006581
248	0x3d06e169	0.03292981
249	0xbc086a26	-0.008326089
250	0x3d269e3c	0.040678248
251	0x3bdab4d7	0.00667439
252	0x3d0dedf2	0.03465075
253	0x3cad23f8	0.021135315
254	0xbd2460ec	-0.040131494
255	0x3caf9384	0.021432646

actor.preprocess.net.4.bias f4 [64]
0	0xbcbc7eec	-0.02300974
1	0xbd642e04	-0.055707946
2	0xbd3940fe	-0.045227997
3	0xbd4a8967	-0.049447443
4	0xbc3b89f8	-0.0114464685
5	0x3befae56	0.0073144836
6	0xba50b8f2	-0.00079621293
7	0xbc6fc0ab	-0.014633338
8	0xbd41d944	-0.04732634
9	0x3cff9e95	0.031203547
10	0xbd1bcb50	-0.03803569
11	0xbd29a95c	-0.04142128
12	0x3d1a27a5	0.037635464
13	0xbcfc3b21	-0.030789914
14	0x3d016f14	0.031600073
15	0xbb41fce2	-0.0029600193
16	0x3d93707f	0.07199191
17	0x3d49f8c6	0.049309514
18	0x3c9cd6f7	0.019145472
19	0xbc98c0d6	-0.018646639
20	0xbcda35ec	-0.02663704
21	0x3c2095d5	0.009801348
22	0xbca983df	-0.020692764
23	0xbb46a742	-0.0030312096
24	0xbd3348a3	-0.043770444
25	0xbd221e1c	-0.039579496
26	0xbcda56f6	-0.026652794
27	0xbd00eeb9	-0.031477664
28	0x3d8feab7	0.0702719
29	0xbd41f4de	-0.047352664
30	0xbbdb7bb8	-0.006698098
31	0x3c953aa3	0.018216437
32	0xbd2d9afe	-0.04238414
33	0x3d00dcb3	0.031460475
34	0xbc9b3332	-0.01894531
35	0xbcb6333a	-0.022241224
36	0x3d167b00	0.036738396
37	0x3b6c271b	0.003603405
38	0x3cf256bc	0.029582374
39	0x3a8ad356	0.0010591547
40	0x3d01763d	0.0316069
41	0x3d9fa437	0.07794993
42	0xbd69148e	-0.056904368
43	0x3d56a871	0.052406732
44	0xbd01e3b3	-0.03171129
45	0xbc553e80	-0.013015389
46	0x3c505686	0.012715941
47	0x3cc23a33	0.023709392
48	0x3d391734	0.045188144
49	0x3c9e3cce	0.019316103
50	0xbd1d59b0	-0.03841561
51	0xbd75e5c9	-0.060033593
52	0xbdb01a94	-0.085988194
53	0x3ac90747	0.0015337252
54	0xbd2cb5f6	-0.04216572
55	0xbc945ba4	-0.018110104
56	0xba99a50f	-0.0011722165
57	0xbd422154	-0.047395065
58	0xbd5ebd9c	-0.054380044
59	0xbcbb71d3	-0.022881424
60	0x3d44d35f	0.04805314
61	0xbc967d8a	-0.018370409
62	0xbd74f6c6	-0.059805654
63	0xba2bda58	-0.0006555668

actor.mu.model.0.weight f4 [3, 3136]
0	0x3c80fbd6	0.015745085
1	0x3cca121e	0.024666842
2	0xbb2ce1a7	-0.0026379616
3	0xbc880bed	-0.01660725
4	0x3c47f314	0.01220395
5	0x3c0ba4ca	0.0085231755
6	0xbcce76d2	-0.025203142
7	0x3abdd9de	0.0014484485
8	0x3b97b0f4	0.0046292488
9	0x3b89ff59	0.004211348
10	0x3b70906f	0.0036707183
11	0xbd31768d	-0.04332595
12	0x3b0f2788	0.002184363
13	0x3c932f1a	0.017966796
14	0x3c47b2c4	0.012188617
15	0xbba64700	-0.005074382
16	0x3b7fd6b9	0.0039037897
17	0x3b14d480	0.0022709668
18	0x3c08043c	0.008301791
19	0xbd41339e	-0.047168367
20	0x3c47eedb	0.012202944
21	0xbb275a81	-0.0025536122
22	0xbc03bd55	-0.008040746
23	0xbd10a466	-0.035313033
24	0x3bffbf07	0.0078047547
25	0xbbec4dcb	-0.007211422
26	0x3c9b6638	0.01896964
27	0xbc2a788e	-0.010404719
28	0x3cfbee61	0.030753316
29	0xbb3f0bec	-0.0029151393
30	0x3ba3c158	0.0049974136
31	0x3d14f332	0.03636474
32	0xbbfe4dfc	-0.0077607613
33	0xbbc6d7b0	-0.0060681924
34	0x3cd92ace	0.026509669
35	0xbcdf6cf5	-0.027273634
36	0x3c33de4e	0.010978295
37	0x3b94d342	0.0045417855
38	0xbb657033	-0.0035009503
39	0xbbb52587	-0.0055281552
40	0xbce292f7	-0.027657969
41	0xbaf45766	-0.001864177
42	0xbbcba44f	-0.0062146555
43	0x3ca2b0e1	0.019859733
44	0xbc212c9f	-0.009837299
45	0x3c3851fc	0.011250015
46	0x3c2b7006	0.01046372
47	0x3b8105fa	0.00393748
48	0x3c8cadf2	0.017172787
49	0xbae26792	-0.0017273298
50	0xbca7fc37	-0.020506008
51	0x3c1c0fad	0.009525222
52	0x3be32d2e	0.006932876
53	0xbc217029	-0.009853401
54	0xbc8fb4d3	-0.017542278
55	0x3ba51f8d	0.0050391615
56	0x3ab44af1	0.0013755244
57	0x3b45d80e	0.0030188593
58	0xbb67db25	-0.0035378423
59	0x3c5ce216	0.013481637
60	0xbcaea24d	-0.021317625
61	0xbc8e9ae1	-0.017407836
62	0xbc5977aa	-0.013273159
63	0xbc95c16a	-0.018280704
64	0xbac96ed0	-0.0015368108
65	0x3bbf9616	0.005846749
66	0xbb49bcdb	-0.0030782733
67	0xbcacd190	-0.021096021
68	0xbcd9a1aa	-0.026566345
69	0x3b8f30de	0.004369839
70	0xbc3a07d0	-0.011354402
71	0x3cb8987f	0.022533653
72	0xbb51477f	-0.0031933484
73	0xbcc88707	-0.024478449
74	0x3c4c0760	0.01245293
75	0x3babcba5	0.005242782
76	0x3cfea198	0.031082913
77	0x3c565224	0.013081107
78	0x3d12abd6	0.035808407
79	0xbcc14415	-0.023592034
80	0x3bf882ea	0.0075839655
81	0xbc2181cb	-0.009857605
82	0xbc27f82e	-0.010252042
83	0xba6cd8d8	-0.0009034998
84	0xbbe403c4	-0.0069584567
85	0xbc6eff83	-0.014587286
86	0x3a3246b2	0.00068006956
87	0x3bad6719	0.005291831
88	0xbc375560	-0.011189789
89	0x3baec6a5	0.005333739
90	0xbc9f4cb9	-0.019445764
91	0xbc796c70	-0.015223607
92	0xbc7274cd	-0.014798355
93	0x3ccb9883	0.024852997
94	0xbacdb7dd	-0.0015695054
95	0x3c7c7085	0.015407686
96	0x3c069c5b	0.008215989
97	0x3ca7acaa	0.020468075
98	0x3bdeb35f	0.006796285
99	0x3c29c382	0.010361554
100	0x3d408ef5	0.047011334
101	0xbbfc243e	-0.00769475
102	0x3d12b50b	0.035817187
103	0xbd133fa6	-0.03594937
104	0xbc8d328b	-0.017236015
105	0xbc986f25	-0.018607685
106	0xba99e6b6	-0.0011741731
107	0x3cc183f2	0.023622487
108	0xbbca860c	-0.0061805304
109	0x3c0ecfb7	0.008716515
110	0x3cf5ce3c	0.030005567
111	0x3c3de82b	0.011590998
112	0xba5857ca	-0.00082528277
113	0x3cabce6a	0.02097245
114	0x3b6dabef	0.003626581
115	0xbbd277be	-0.006422966
116	0x3c099009	0.008396157
117	0x3ccba676	0.024859648
118	0xbae18682	-0.0017206224
119	0xbc9fd7bb	-0.019512048
120	0x3c08a84e	0.008340908
121	0xbc624bbe	-0.013812004
122	0x3c3f9841	0.011694015
123	0x3c7e5738	0.015523724
124	0x3d1d3087	0.038376357
125	0x3c35a93f	0.011087715
126	0x3bbe49f7	0.005807157
127	0x3bc67e51	0.0060575386
128	0xbca3d0bb	-0.019996991
129	0x3cac0256	0.020997208
130	0xbb7e246a	-0.0038779029
131	0xbcc38daa	-0.023871262
132	0xba193d8b	-0.00058456574
133	0x3cf5600e	0.029953029
134	0x3c048bc5	0.008089964
135	0xbd193f3f	-0.03741383
136	0x3b1e16e6	0.0024122535
137	0xbccd0af4	-0.025029637
138	0x3d00b1cb	0.031419557
139	0x3c895b11	0.016767057
140	0x3cb8f504	0.02257777
141	0xbc3666ba	-0.01113289
142	0x3d21d87e	0.039513104
143	0xbca8964f	-0.020579485
144	0x3cd0dbae	0.025495376
145	0x3d1438f0	0.036187112
146	0x3c3397ec	0.010961514
147	0xbc35ed58	-0.01110395
148	0x3b8f4e39	0.0043733385
149	0xbc7f932d	-0.015599054
150	0xbccdd0f6	-0.025124054
151	0x3c6c646f	0.014428242
152	0x3a72803c	0.0009250676
153	0x3cba9554	0.022776283
154	0xbc5340f8	-0.012893908
155	0xbc8d67d4	-0.017261423
156	0x3b384a0d	0.002812031
157	0x3c514912	0.012773769
158	0x3c7f4007	0.01557923
159	0x3b0515ba	0.002030714
160	0x3cc043a9	0.023469763
161	0xbceeff26	-0.029174399
162	0xba9ba0be	-0.0011873466
163	0xbcc375b1	-0.02385983
164	0xbc4dc29c	-0.0125586055
165	0xbc211149	-0.009830781
166	0xbcb4bb59	-0.02206199
167	0x3ca07ada	0.01958983
168	0xb9c1a9bd	-0.00036938293
169	0x3c76ad67	0.015055991
170	0x3cbe6af6	0.023244362
171	0xbc82a059	-0.0159456
172	0xbc820e5e	-0.015875991
173	0x3d0c5365	0.03425922
174	0x3b4ee169	0.003156746
175	0xbabc9ac9	-0.0014389391
176	0x3ca329a9	0.019917326
177	0xbc1839b4	-0.009291101
178	0xbc78a4b6	-0.015175989
179	0x3ce6ed33	0.028189277
180	0xbb78d72b	-0.0037970047
181	0x3c693f20	0.014236242
182	0xbc9b1885	-0.01893259
183	0x3ca770c8	0.02043952
184	0xbce352b0	-0.02774939
185	0xbc9c47c9	-0.019077199
186	0x3c40b2d3	0.011761385
187	0xbd014260	-0.03155744
188	0x3d123fd9	0.03570542
189	0x3c1f24a8	0.009713329
190	0x3c328f5b	0.010898436
191	0xbd1fb9d6	-0.038995586
192	0xbb971c7b	-0.0046115494
193	0x3c384ec3	0.011249247
194	0x3acede12	0.0015782735
195	0x3cf6aa96	0.030110639
196	0xbd350e7e	-0.044203274
197	0x3cb9eb11	0.022695096
198	0x3c49a582	0.012307527
199	0xbd2e8f5c	-0.042617187
200	0xbb908e03	-0.0044114604
201	0x3ca6aa58	0.020344898
202	0xbc6182ee	-0.013764126
203	0x3bf3e464	0.007442998
204	0x3cf5ebda	0.03001969
205	0x3cdeeec5	0.027213464
206	0xbc8e6602	-0.017382625
207	0x3cba10e2	0.022713128
208	0xbd31be91	-0.04339463
209	0xbc05f282	-0.008175494
210	0xbd56879b	-0.052375417
211	0xbabbe64e	-0.0014335604
212	0xbc805fcd	-0.015670681
213	0xbbebef87	-0.0072001847
214	0xbc0fec1b	-0.008784319
215	0x3bb53aff	0.0055307145
216	0x3c7457c9	0.014913508
217	0xbc6a197b	-0.014288302
218	0xbd1efb1e	-0.038813703
219	0x3d629cc8	0.0553253
220	0x3c001fa0	0.00782004
221	0x3c30756b	0.010770182
222	0x3d1ae014	0.037811354
223	0xba777abc	-0.0009440591
224	0xbc28529b	-0.010273601
225	0x3d0a4650	0.03375846
226	0xbcc00a21	-0.02344233
227	0x3af9b833	0.0019052088
228	0xbc0e277a	-0.008676404
229	0xbd2363cd	-0.0398901
230	0xbc269170	-0.010166511
231	0xbc992092	-0.018692289
232	0xbcb97504	-0.022638805
233	0xbcae4be3	-0.02127642
234	0xbc8a37b5	-0.016872266
235	0xbb179c22	-0.0023133834
236	0x3c144700	0.009050131
237	0x3bafa6e7	0.0053604725
238	0xbb3108c4	-0.0027013281
239	0xbc96086b	-0.01831456
240	0x3d53a511	0.05167109
241	0xbcfabfb3	-0.030608987
242	0x3c6c6ee6	0.014430737
243	0x3c22de47	0.00994069
244	0xbc8fda98	-0.017560288
245	0xbdc14053	-0.09436097
246	0xbd528bab	-0.05140273
247	0x3d84aed6	0.0647866
248	0xbda9a9ab	-0.08284315
249	0x3d963bbe	0.07335614
250	0x3d62e27d	0.055391777
251	0xbc185e63	-0.009299847
252	0xbd984ab8	-0.074361265
253	0x3d2e571c	0.042563543
254	0xbc4384a9	-0.011933484
255	0x3c19894f	0.009371116

actor.mu.model.0.bias f4 [3]
0	0xbce534e1	-0.027979316
1	0x3d4f59b9	0.050622676
2	0xbe058eaa	-0.13042703

critic.preprocess.net.0.weight f4 [32, 12, 8, 8]
0	0x3ceeb62b	0.029139599
1	0xbc94a918	-0.018147036
2	0xbc4e6952	-0.0125983525
3	0xbcb45395	-0.022012511
4	0x3b42e3ed	0.0029737905
5	0xbc40ed64	-0.011775348
6	0x3c168ee5	0.009189342
7	0xbc683d04	-0.0141747035
8	0x3b9de044	0.0048179943
9	0xbc2b264d	-0.010446143
10	0x3c8cf9c7	0.017208947
11	0x3c886115	0.016647855
12	0x3c074999	0.008257293
13	0x3b71ea3f	0.0036913303
14	0xbc99751a	-0.018732596
15	0xbc6ca088	-0.0144425705
16	0xbc6ddcfa	-0.014518017
17	0x3c934229	0.017975884
18	0xbbbf34eb	-0.0058351657
19	0xbc35c11b	-0.011093403
20	0xbcaddbff	-0.021223066
21	0x3c7498d8	0.014929019
22	0xbcb21cdc	-0.021742277
23	0xbd00f804	-0.031486526
24	0x3c97861d	0.018496567
25	0xbb976a5c	-0.0046208333
26	0x3d0d3562	0.034474738
27	0xbcf10afa	-0.02942418
28	0xbc19f0b7	-0.00939577
29	0xbcc35343	-0.023843413
30	0x3c0fc2af	0.0087744435
31	0x3ced06a8	0.028933838
32	0x3cd4d5de	0.025980886
33	0x3cd8cfac	0.026466213
34	0xbbeddafa	-0.00725877
35	0x3c6e2a4a	0.01453645
36	0x3cd2fb0e	0.025754478
37	0x3c353c17	0.01106169
38	0x3ad30cf1	0.0016101879
39	0xbcf3aed3	-0.029746449
40	0xbb49e0c9	-0.0030804148
41	0xbcab4e60	-0.020911396
42	0x3d21486d	0.03937571
43	0xbc739632	-0.014867352
44	0xbbfba640	-0.0076797307
45	0xbc90c38c	-0.017671369
46	0xbcb2f4ab	-0.021845182
47	0x3cefac83	0.029257065
48	0x3cab781a	0.020931292
49	0x3ce885e4	0.028384157
50	0x3cd189e2	0.025578443
51	0x3c265471	0.010151968
52	0x3c370aee	0.011172039
53	0xbab2d609	-0.001364411
54	0xbbd1a7ab	-0.0063981614
55	0x3ca0121d	0.019539887
56	0xbc70406a	-0.014663795
57	0x3c86c3fc	0.016450875
58	0xbbbee3dc	-0.005825503
59	0x3cf8e2d8	0.030381605
60	0x3d0677bb	0.032829028
61	0xbc0c975c	-0.008581009
62	0xbc8506f7	-0.016238673
63	0xbc8dd522	-0.017313544
64	0xbca67b43	-0.020322448
65	0x3b9c7553	0.0047747283
66	0xbd27aa59	-0.04093394
67	0xbc926a64	-0.017872997
68	0x3c5d3563	0.013501498
69	0x3d183a7e	0.037165157
70	0xbc0de26d	-0.008659941
71	0xbd1dff08	-0.038573295
72	0xbd08306b	-0.0332493
73	0xbd061f3a	-0.032744624
74	0xbd273cef	-0.040829595
75	0xbc4b0ac4	-0.012392703
76	0xbd11794b	-0.035516065
77	0xbc4335d2	-0.011914687
78	0x3bef7add	0.0073083476
79	0x3cd1728d	0.025567317
80	0x3ca90ae9	0.020635085
81	0x3a128720	0.0005589593
82	0xbd1e03c7	-0.03857782
83	0xbcd66374	-0.02617047
84	0xbd096d32	-0.033551402
85	0xbae676ec	-0.0017583049
86	0x3c5694de	0.013097016
87	0xbc7b0fe6	-0.015323615
88	0x3cf76eae	0.030204143
89	0xbc3217b1	-0.010869906
90	0xbc36f7bb	-0.011167462
91	0xbc5689a1	-0.013094337
92	0x3ccf8e4b	0.025336405
93	0xbbe23b51	-0.0069040437
94	0xbc94e5b5	-0.01817594
95	0x3cbacfc8	0.022804156
96	0xbcf505d1	-0.02991
97	0x3ca77cc2	0.020445231
98	0x3cf372c7	0.029717816
99	0x3cd25a27	0.025677754
100	0xbd03afc3	-0.03215004
101	0x3c75af4a	0.014995405
102	0x3cfc5ad4	0.030805029
103	0xbc9ed987	-0.019390834
104	0x39fffcc3	0.00048825712
105	0xbca3ff15	-0.020019094
106	0xbce2da2d	-0.027691925
107	0xbbf4af63	-0.007467197
108	0xbcbd731e	-0.023126181
109	0x3c6a4cbf	0.014300524
110	0xbcb0488e	-0.021518972
111	0xbb45de9f	-0.0030192507
112	0xbc892fec	-0.016746484
113	0xbd12ecd5	-0.035870392
114	0x39331de5	0.00017081907
115	0x3c0fa095	0.008766313
116	0x3d0a1b6a	0.03371755
117	0x3c2ffce4	0.010741446
118	0xbcf49081	-0.029854061
119	0x3ceb9291	0.028756412
120	0x3ba81fad	0.005130729
121	0xbb344dc1	-0.0027512165
122	0x3b166c47	0.0022952722
123	0xbb8e7cbe	-0.0043483665
124	0x3c831e6c	0.016005717
125	0xbbb66462	-0.005566166
126	0x3cac074b	0.020999571
127	0x3bafa247	0.005359921
128	0x3cd8dfa6	0.026473831
129	0xbc7b290f	-0.015329613
130	0x3cc0c992	0.023533616
131	0x3c90763f	0.01763451
132	0x3c9fd146	0.019508969
133	0x3c974c55	0.018469015
134	0xbccba145	-0.024857173
135	0x3cd85916	0.026409667
136	0x3bb52d26	0.0055290638
137	0x3c23e818	0.010004066
138	0xbc87133d	-0.016488666
139	0x3c9cb287	0.019128097
140	0x3cd8c390	0.026460439
141	0xbcac3086	-0.021019232
142	0xbc2083f1	-0.009797082
143	0xbd175e25	-0.036955018
144	0xbc6b4616	-0.0143599715
145	0xbce31d01	-0.027723791
146	0xbbf1cfac	-0.0073794927
147	0xbc7a96f3	-0.015294778
148	0xbc4f068f	-0.012635841
149	0xbc1346c7	-0.008989043
150	0xbc7e2a8f	-0.015513076
151	0xbd15569e	-0.036459558
152	0x3aa004b8	0.0012208438
153	0xbabebeea	-0.0014552746
154	0x3abe95fd	0.001454055
155	0x3aba6e4b	0.0014223544
156	0xbd08f6c0	-0.033438444
157	0x3cead9d1	0.028668316
158	0xbc497d43	-0.012297931
159	0xbce6d92a	-0.028179724
160	0x3d033d39	0.03204081
161	0x3ca61112	0.020271812
162	0xbb478380	-0.003044337
163	0xbc28eb28	-0.010309972
164	0x3c9e9091	0.019356044
165	0xbc0e0090	-0.008667126
166	0xbd0f2ea2	-0.034956582
167	0x3c805f34	0.015670396
168	0xbd04c044	-0.03240992
169	0x3c8ef51e	0.017450865
170	0x3c1de317	0.009636662
171	0xbd03e128	-0.032197148
172	0x3c983e7d	0.018584484
173	0xbc7e747f	-0.0155307045
174	0xbd00b770	-0.03142494
175	0xbd20827a	-0.039186932
176	0xbc5fc645	-0.013658111
177	0x3c27d66d	0.010243994
178	0x3c2cda68	0.010550119
179	0xbd139a10	-0.036035597
180	0x3c17d4b8	0.009267025
181	0x3cac09e3	0.021000808
182	0x3c9154fd	0.01774072
183	0xbcf6f960	-0.030148208
184	0xbcaefd5d	-0.021361047
185	0x3c7f6b2a	0.015589515
186	0x3cc78817	0.024356885
187	0x3b368981	0.0027852955
188	0xbd035ed9	-0.032072876
189	0x3ca143e3	0.019685691
190	0xbd1fa46c	-0.038975164
191	0xbd1da940	-0.038491488
192	0xbc16f164	-0.009212825
193	0xba22404d	-0.0006189391
194	0xbcddfa27	-0.027096821
195	0xbc74f44e	-0.014950825
196	0x3bdd6841	0.006756813
197	0xbc9caeb4	-0.019126274
198	0x3ccac19b	0.024750521
199	0xbd391213	-0.045183253
200	0x3c10d020	0.008838683
201	0x3a30bfdf	0.0006742458
202	0xbcf2d81e	-0.029644068
203	0xbd29000e	-0.041259818
204	0xbd259af8	-0.040430993
205	0xbacf1ec0	-0.0015802011
206	0x3b7ff5e6	0.003905648
207	0x3cb7bed4	0.022429861
208	0xbcfda719	-0.030963467
209	0xbc77a36e	-0.015114648
210	0xbaee07e2	-0.0018160308
211	0xba0617ca	-0.0005115239
212	0x3bec267c	0.007206736
213	0x3cb7c56e	0.022433009
214	0x3cd35097	0.025795264
215	0x3caf9fb3	0.021438455
216	0xbb3b5fe7	-0.0028591098
217	0x3c9a7a60	0.018857181
218	0x3c804e25	0.015662262
219	0x3b384028	0.0028114412
220	0xbb62aac3	-0.0034586645
221	0x3c9dc4d6	0.019258898
222	0x3b98350f	0.004644997
223	0x3cf48995	0.02985076
224	0xbcffa555	-0.031206766
225	0x3caa0e63	0.020758813
226	0xbcf5bcf8	-0.029997334
227	0xbd097846	-0.033561967
228	0xbc423ff9	-0.011856073
229	0xbccd30c5	-0.02504767
230	0xbd0b1555	-0.03395589
231	0xbcded690	-0.02720192
232	0xbc94531d	-0.018106038
233	0xbcf4906b	-0.02985402
234	0xbbab9333	-0.0052360534
235	0x3c97175a	0.018443752
236	0xbd11f70e	-0.035636
237	0x3d0eeaa4	0.03489174
238	0x3c268768	0.010164119
239	0xbcea84c5	-0.028627763
240	0xbc31ad87	-0.010844595
241	0xbbbee3d6	-0.0058255
242	0x3cab0d44	0.020880349
243	0xbce6bc5a	-0.028165985
244	0xbc59e1af	-0.013298436
245	0x3c2ac994	0.0104240365
246	0x3cd74018	0.02627568
247	0xbd25aef9	-0.04045007
248	0xbcc3d2af	-0.023904173
249	0x3ce78fdf	0.028266845
250	0x3c138ad2	0.009005265
251	0x3be3d546	0.0069529144
252	0x3baa47e4	0.0051965583
253	0xbc5938cf	-0.013258173
254	0xbce835dc	-0.028345995
255	0x3cbccf17	0.023047967

critic.preprocess.net.0.bias f4 [32]
0	0xbc851b37	-0.016248329
1	0x3a79394b	0.00095071335
2	0xbbbae17d	-0.00570315
3	0xbc1a24a6	-0.009408152
4	0x3d2b5950	0.041833222
5	0xbc8f2c0b	-0.017477056
6	0x3db5502b	0.088531815
7	0x3d4641d6	0.04840263
8	0xbc28303b	-0.010265405
9	0xbaec7c07	-0.0018042334
10	0xbd3d7a6c	-0.04625933
11	0xbba3613a	-0.0049859555
12	0xbd52eeaf	-0.051497158
13	0xbd11826d	-0.035524774
14	0xbd404ea2	-0.04694999
15	0xbd42e085	-0.0475774
16	0xbd37dabf	-0.044886347
17	0xbb49adf2	-0.0030773846
18	0xbb2a865e	-0.002602003
19	0x3d8ae10a	0.06781204
20	0xbd0b973f	-0.034079786
21	0xbd4402af	-0.04785412
22	0x3b348b49	0.002754884
23	0x3ce401f4	0.027832963
24	0x3c6a0af7	0.014284841
25	0x3c2d5f3e	0.01058179
26	0xbbaba02f	-0.005237601
27	0xbc319bc7	-0.010840363
28	0xbd98bcf3	-0.07457914
29	0xbba87937	-0.005141403
30	0xbc742a92	-0.014902728
31	0xbc92d24e	-0.017922547

critic.preprocess.net.2.weight f4 [64, 32, 4, 4]
0	0xba20dccc	-0.0006136417
1	0x3d084539	0.03326914
2	0x3a99dd5a	0.0011738942
3	0x3ceead9d	0.02913552
4	0xbd029d50	-0.031888306
5	0x3b6c1e2a	0.0036028721
6	0x3c8aa9bd	0.01692664
7	0x3966127c	0.00021941395
8	0x3ba890d3	0.0051442175
9	0xbc0b4574	-0.008500446
10	0xbc53436c	-0.012894493
11	0x3cda3e04	0.0266409
12	0xbcc0557a	-0.023478258
13	0x3cabe213	0.020981824
14	0xbd2b2d1d	-0.04179107
15	0xbb211df2	-0.00245845
16	0x3c67703b	0.014125879
17	0x3cfcb7a1	0.03084928
18	0x3cd62ec7	0.026145352
19	0xbcb303ba	-0.021852363
20	0xbc45e6c5	-0.0120789455
21	0x3c9ce72c	0.0191532
22	0xbc78421b	-0.0151524795
23	0xbc6d3229	-0.014477291
24	0xbcfae3cf	-0.030626206
25	0xbbc6543a	-0.006052521
26	0xbac9f1a2	-0.0015407095
27	0x3b969ae9	0.0045961034
28	0xbd195f53	-0.037444424
29	0xbd21ed8c	-0.039533183
30	0x3ccb2223	0.024796551
31	0x3c511f96	0.012763878
32	0x3a162f1e	0.0005729067
33	0xbd3e47a5	-0.046455044
34	0xbc2d6dd2	-0.010585265
35	0x3c7df853	0.0155011
36	0x3ccc1d99	0.024916457
37	0xbd1f1536	-0.038838588
38	0x3b26083c	0.0025334498
39	0x3cdafcb2	0.026731823
40	0xbaa428da	-0.0012524382
41	0xbd942239	-0.0723309
42	0xbc8f6d6a	-0.017508227
43	0xbd2e5b64	-0.042567626
44	0xbd8ab78a	-0.067732885
45	0xbd7d6ed7	-0.061873283
46	0x3bda8913	0.0066691726
47	0xbd3318cc	-0.04372482
48	0xbc8d92a4	-0.017281838
49	0xbc3efec9	-0.011657425
50	0xbadeb9e6	-0.0016992658
51	0xbcbb916f	-0.022896497
52	0xbd065b15	-0.032801706
53	0xbd085666	-0.03328552
54	0x3cbcc644	0.02304376
55	0xbb18cbad	-0.002331476
56	0xbd1931fe	-0.037401192
57	0xbcbb7413	-0.022882497
58	0xbc9d3cbf	-0.019194005
59	0x3ccce4bc	0.025011413
60	0xbd15e966	-0.03659954
61	0x3bceaa14	0.006306896
62	0x3be72dd3	0.007055023
63	0xbcd6143b	-0.026132694
64	0x3c9a57af	0.018840639
65	0xbbc26136	-0.0059319986
66	0xbc9783e9	-0.018495517
67	0x3b27a196	0.002557849
68	0x3d207f0e	0.03918367
69	0xbd5a731e	-0.05333244
70	0xbc125814	-0.008932132
71	0x3d19f0a1	0.037582997
72	0xbd656719	-0.056006525
73	0xbd430aea	-0.04761783
74	0x3cb26365	0.02177591
75	0xbd8248f0	-0.06361568
76	0x3c0971d5	0.008388956
77	0x3c889c6c	0.01667615
78	0x3cd841f0	0.026398629
79	0xbc167d18	-0.009185098
80	0xbc76e787	-0.015069849
81	0x3d02c7bf	0.031928774
82	0xbcc009ed	-0.023442233
83	0xbcba6601	-0.022753717
84	0xbd1b4fe1	-0.037917975
85	0xbd583ee4	-0.052794352
86	0xbd054282	-0.03253413
87	0x3cc5c602	0.024142269
88	0x3d386689	0.04501966
89	0x3d1876cc	0.03722267
90	0x385c85f5	5.2576845e-05
91	0x3c16d58a	0.009206185
92	0xbd257b34	-0.0404007
93	0x3af13032	0.0018401204
94	0xbcb215ca	-0.021738905
95	0x3cb6faf3	0.022336459
96	0xbd25c4ba	-0.040470816
97	0x3c769058	0.015049063
98	0xbb32a71f	-0.0027260256
99	0x3cd6fb1d	0.026242787
100	0x3d13befa	0.0360708
101	0xbd270b0e	-0.040782027
102	0xbd082bb7	-0.033244815
103	0xbd3f9424	-0.046772137
104	0xbc9ab00b	-0.018882772
105	0xbd3751c3	-0.04475571
106	0xbb993ca4	-0.0046764184
107	0xbd5a0bf1	-0.053234044
108	0x3c917898	0.017757699
109	0x3cc726b3	0.024310445
110	0xbd0c8228	-0.034303814
111	0xbc082254	-0.008308966
112	0xbd1d01bb	-0.03833173
113	0xbc400ff6	-0.011722555
114	0xbd00a8bb	-0.031410914
115	0x3d0cc46a	0.034367003
116	0x3cb0c6ba	0.021579135
117	0x3c7df4ef	0.015500291
118	0xbcf92eeb	-0.03041788
119	0xbd53824f	-0.051637944
120	0xbd306fa7	-0.04307523
121	0x3c932849	0.017963545
122	0xbcbef53a	-0.023310293
123	0xbc5bb98e	-0.013410939
124	0x3c2f98ee	0.010717614
125	0xbd20cc14	-0.039257124
126	0xbd5ad9e4	-0.053430453
127	0xbcd7153d	-0.026255244
128	0xbaadecb2	-0.0013269393
129	0x3cae50e8	0.021278813
130	0x3d387496	0.04503306
131	0xbd603e22	-0.054746754
132	0xbd093f97	-0.03350791
133	0x3b8ad969	0.004237343
134	0xbad3da78	-0.0016163131
135	0xbd8442ca	-0.064580515
136	0xbbfa6dd4	-0.007642487
137	0xbbae3952	-0.0053168917
138	0x3d090dba	0.033460356
139	0xbc13dae6	-0.009024357
140	0xbcc11334	-0.023568727
141	0x3d434e38	0.047682017
142	0xbc89a1a5	-0.016800711
143	0xbcb08960	-0.02154988
144	0xbd206f42	-0.039168604
145	0xbc8d6889	-0.01726176
146	0xbb39f261	-0.002837323
147	0x3c8a1260	0.016854465
148	0x3a82e21d	0.00099856
149	0xbce774ac	-0.028253876
150	0x3cb465bd	0.022021169
151	0xbd83b488	-0.06430918
152	0xbc6e506b	-0.01454554
153	0x3d0cd937	0.03438684
154	0xbcaf39e0	-0.021389902
155	0xbd4243c8	-0.047427922
156	0xbce2fb54	-0.027707733
157	0x3d33fa70	0.043940008
158	0x3b60570f	0.0034231578
159	0xbc8d271f	-0.017230568
160	0xbd602bc1	-0.054729227
161	0x3d23bd1b	0.039975267
162	0xbc9418dc	-0.01807826
163	0xbc31d531	-0.010854051
164	0xbd153fa6	-0.036437653
165	0xbd1bd61f	-0.038046
166	0xbb022e72	-0.001986411
167	0x3c96ae86	0.018393766
168	0xbd746438	-0.05966589
169	0xbcc32f83	-0.023826366
170	0xbca1807b	-0.019714585
171	0xbd1f1497	-0.038837995
172	0x3be08d5d	0.0068527893
173	0x3d1871b8	0.037217826
174	0x3d2255fe	0.03963279
175	0xbd217648	-0.039419442
176	0xbd09b497	-0.03361949
177	0x3c39ff6d	0.011352402
178	0x3d118ef8	0.035536736
179	0xbc9f3404	-0.019433983
180	0x3d061e10	0.032743514
181	0xbcedc9a5	-0.029026816
182	0x3d3afe85	0.045652885
183	0x3c3765d9	0.011193716
184	0xbc93711c	-0.01799827
185	0x3c63d328	0.013905324
186	0x3cc3f746	0.02392162
187	0x3c290eac	0.010318439
188	0xbbb0f518	-0.005400311
189	0x3cfdd024	0.030983038
190	0x3c0860f4	0.008323897
191	0x3caad9d2	0.020855818
192	0x3ce78dd2	0.028265867
193	0xbce1c855	-0.027561346
194	0x3afdcf79	0.00193642
195	0x3d027976	0.031854115
196	0xbc8ce12e	-0.017197218
197	0xbccf38c9	-0.025295632
198	0x3cf3ac2e	0.029745188
199	0xbd3f7b38	-0.04674837
200	0xbc5a964c	-0.013341498
201	0xbd278616	-0.04089936
202	0xbd49a7e5	-0.049232382
203	0xbcaaac0a	-0.020833988
204	0x3bd4d521	0.0064951335
205	0xbd420433	-0.047367286
206	0xbc809e06	-0.015700351
207	0xbd1d71f5	-0.038438756
208	0x3d0ee38e	0.03488498
209	0x3cee1086	0.029060613
210	0x3d2ebae7	0.042658713
211	0xbca8ca14	-0.02060417
212	0x3cc38dd1	0.023871334
213	0xbc5f5113	-0.013630169
214	0xbd307ffe	-0.043090813
215	0xbd1c0b17	-0.038096514
216	0x3be0d29c	0.006861044
217	0xbd32781a	-0.04357157
218	0x3d28b303	0.041186344
219	0xbd244ec4	-0.04011418
220	0x3a4e09ae	0.0007859719
221	0xbc9f6682	-0.01945806
222	0x3bef85c0	0.0073096454
223	0xbb942487	-0.004520956
224	0xbc80f598	-0.015742108
225	0x3d25e389	0.040500198
226	0x3cc95003	0.024574285
227	0x3d17bd94	0.03704603
228	0xbd26c41c	-0.04071437
229	0x3c9cfa72	0.01916239
230	0xbc1738b5	-0.009229829
231	0xbbda0fb2	-0.006654703
232	0xbd6f5e65	-0.05843963
233	0xbbea9200	-0.007158518
234	0xbd01cbfb	-0.03168867
235	0x3c0fdd79	0.008780831
236	0xbce8d152	-0.028420124
237	0xbb73842c	-0.0037157638
238	0xbcd3aa49	-0.025838034
239	0x3d16098b	0.036630195
240	0xbcc6a6d0	-0.024249464
241	0xbd0ac69b	-0.03388081
242	0x3d1765ee	0.036962442
243	0x3d05ff64	0.032714263
244	0x39b9ae77	0.00035415936
245	0xbce11456	-0.027475517
246	0xbd20c0f4	-0.039246514
247	0x3d039b75	0.032130677
248	0xbcbab6b9	-0.022792207
249	0xbc7eed49	-0.015559503
250	0xbd1ecb5e	-0.038768165
251	0x3cd86ddd	0.026419574
252	0x3be15c48	0.006877456
253	0xbcf09d36	-0.029371839
254	0xbc866750	-0.016406685
255	0x3d34840d	0.044071246

critic.preprocess.net.2.bias f4 [64]
0	0x3c0df204	0.008663658
1	0xba0be0b2	-0.00053359114
2	0xbd827053	-0.063690804
3	0x3db483a9	0.08814175
4	0x3b578038	0.003288282
5	0xbc955efd	-0.01823377
6	0xbd6a1df3	-0.057157468
7	0xbd79f562	-0.06102503
8	0xbd02484c	-0.03180723
9	0xbcc16f91	-0.02361277
10	0xbe02f328	-0.12788069
11	0xbc2791c5	-0.010227625
12	0xbd528455	-0.051395733
13	0xbd2ac114	-0.04168804
14	0xbd11d172	-0.035600133
15	0xbbe5331c	-0.006994618
16	0x3c5a49f5	0.013323297
17	0xbc9535d6	-0.018214148
18	0xbcc4db63	-0.024030393
19	0xbd88fcea	-0.066888645
20	0x3b386a25	0.002813944
21	0xbdc11730	-0.09428251
22	0x3b37aaa9	0.0028025305
23	0xbd371163	-0.044694316
24	0xbdd32a70	-0.10310829
25	0x3d7999e2	0.06093777
26	0x3ccb30c4	0.024803527
27	0x3b8add27	0.004237789
28	0x3b9ba9be	0.0047504595
29	0xbd0f4354	-0.03497632
30	0x3cc3a03e	0.02388012
31	0xbd69e280	-0.057100773
32	0xbd41a25b	-0.047273975
33	0xbdbf2808	-0.09333807
34	0x3d3fad0d	0.046795893
35	0xbd52f6a7	-0.051504757
36	0xbc327f0a	-0.010894546
37	0x3bf81d0a	0.007571821
38	0xbcc9edf7	-0.024649603
39	0xbd6612fe	-0.056170456
40	0xbc3cc1af	-0.011520787
41	0x3cdb838a	0.026796121
42	0xbd6bc85a	-0.057564117
43	0x3d88bb96	0.06676404
44	0xbd2f48b0	-0.04279393
45	0x3d24e1e7	0.0402545
46	0xbd4d662b	-0.050146263
47	0x3d4eb045	0.050461072
48	0x3c522454	0.012826044
49	0xbd27b6ad	-0.040945698
50	0xbd236cef	-0.03989881
51	0xbc38ee09	-0.011287221
52	0xbd031eae	-0.03201168
53	0xbd95509f	-0.07290768
54	0x3cecfc39	0.028928863
55	0xbd733eea	-0.05938617
56	0xbccd04ad	-0.025026644
57	0xbd83b038	-0.064300954
58	0x3cd4a6f3	0.025958514
59	0xbc885568	-0.016642287
60	0x38f716c5	0.00011782119
61	0x3c19741b	0.009366061
62	0x3ce2c833	0.027683353
63	0x3c373b61	0.011183591
