log/ppo/ppo_1-car_4-frames_32-checkpoints_051-turn-rate_lr1e-4_700-steps-per-collect.pth (torch, 817745 bytes, 32 tensors)

actor.sigma_param f4 [3, 1]
000000 70 0e da be 8e b8 f6 bd e8 1f 6d bf
       -0.4258914 -0.1204692 -0.9262681

actor.preprocess.net.0.weight f4 [32, 12, 8, 8]
000000 f2 36 d3 3c 86 45 f7 3c b6 e5 dd 3c a0 93 80 3b
       0.025783036 0.030184519 0.027087074 0.0039238483
000010 5c cf c1 3c e9 ef 8c bd 2e 6c a6 bd b0 54 74 3c
       0.023658447 -0.06881697 -0.081261024 0.014912769
000020 bf 3a 47 bc 26 f7 89 3b 9b 44 df 3c c1 09 53 3d
       -0.012160002 0.0042103706 0.027254393 0.051522974
000030 39 ed 7e bb 22 d7 43 bd 03 84 29 3a 6c 39 ff bb
       -0.003889872 -0.04781259 0.00064665097 -0.0077888276
000040 67 9a d1 bc 8d de c1 3c 34 af 15 3c f7 8f 98 3b
       -0.02558632 0.02366569 0.00913601 0.004655834
000050 0d 5e b7 3c c8 06 0f 3d 6b 32 ce 3c 4e a5 c0 bc
       0.022383714 0.034918576 0.025170526 -0.023516323
000060 ee e0 64 bd 9a 1d b9 3d 54 f2 ad bd f9 67 a3 3b
       -0.055878572 0.09038849 -0.08493486 0.0049867597
000070 d7 da 52 3d 87 d5 eb 3c fd 1e dc 3c 55 97 e7 3c
       0.051478233 0.028788341 0.026870245 0.028270403
000080 bb d4 90 bd de 24 0a 3c dc 21 fd bc 09 b8 ff bc
       -0.07071825 0.008431641 -0.030899934 -0.031215684
000090 25 18 ef 3c 5d 56 17 3d e8 9c 84 3d ac 9c e9 3c
       0.029186318 0.036947597 0.0647524 0.02851709
0000a0 38 33 d9 bb 49 a0 bb 3b 7a 30 05 bd 53 c9 9e 3c
       -0.00662842 0.0057258946 -0.032516934 0.019383108
0000b0 12 76 1d 3d 8d 13 eb 3c 06 59 46 bc 21 b3 c3 3c
       0.03844268 0.028695846 -0.012106186 0.023889126
0000c0 d7 c8 82 3c 96 0c 7f bd 19 47 fe 3b a3 b4 45 3a
       0.015964909 -0.062267862 0.0077599403 0.00075418706
0000d0 22 72 ca bb b8 f0 fb 3a c6 c4 87 bc a4 d8 fd 3c
       -0.0061781565 0.001922152 -0.016573321 0.030987091
0000e0 e2 4f 6f 3c 41 9c 2a bd 70 8b c1 3a 5c d0 0c 3d
       0.014606448 -0.04165292 0.0014766287 0.034378394
0000f0 b5 0f bb bc 41 20 d6 3d 1c 79 b1 bc 5e c1 b6 3c
       -0.022834638 0.10455371 -0.021664195 0.022309002
000100 a7 10 d1 3c af 39 dd 3d 98 fb d4 3c 8c b9 3b bc
       0.025520636 0.10802018 0.025998875 -0.011457812
000110 a6 2d 45 3c d5 96 96 bd 64 82 ac bc 2f ca 29 3d
       0.012034809 -0.07352988 -0.021058269 0.041452583
000120 49 2d 0c 3c 47 46 13 3d 72 c5 a5 bc 71 c7 b9 3c
       0.008555719 0.035955694 -0.02023575 0.022678109
000130 6a b7 5d 3c a2 2d 73 bc 70 f3 d2 3c a5 b3 37 3c
       0.013532499 -0.014842423 0.025750846 0.011212264
000140 f1 b1 95 bc 9c 48 18 3d 1d 6c 83 bc 3d fe 13 3c
       -0.018273326 0.03717862 -0.016042763 0.009032783
000150 b6 10 1e bd 0c e3 86 3c 3b 4f ba 3a d7 d0 a9 bc
       -0.038590156 0.016465686 0.0014214286 -0.020729465
000160 f9 79 5e bd 9f 0d 2a 3d b2 c6 5a bd 38 1c c1 3c
       -0.05431554 0.041516896 -0.053412147 0.023573026
000170 0f ca 21 bc 0c 66 97 3d 6d 8b b2 3d f0 cb 2c bd
       -0.009874835 0.07392511 0.087179996 -0.042186677
000180 86 bd 90 bd 81 eb 5d 3d 1e 4d 05 bb 7b d4 e7 bc
       -0.07067399 0.054179672 -0.0020340155 -0.02829956
000190 a5 e2 c5 3c af 12 98 3d 63 a3 85 3a 47 ff a0 3c
       0.024155924 0.074254386 0.0010195788 0.019652976
0001a0 13 d9 a8 3c 83 dc 58 3d ae b9 44 bd ca 89 14 3d
       0.020611322 0.05294467 -0.04802864 0.03626422
0001b0 21 36 b4 3c 42 86 b3 3c 6c c5 01 3d 24 5b 2f 3d
       0.021998467 0.021914605 0.031682417 0.042811528
0001c0 7a 69 29 bc 17 47 8b bd 12 b8 c1 bc 62 ec 73 bc
       -0.010340089 -0.06800669 -0.023647342 -0.014887901
0001d0 06 71 8e 3c e8 8a 08 3c 05 2b 77 bc 1a 0e 21 3c
       0.017387878 0.008333899 -0.01508594 0.009830022
0001e0 c0 cd 0a 3d 4f c8 ae bd 82 90 7f bd 36 95 cc 3c
       0.033887625 -0.085342996 -0.062393673 0.024973493
0001f0 3e ac aa bd 9c 8b 88 3d 7d 09 e7 bc 74 53 0a 3d
       -0.08333634 0.066672534 -0.028202767 0.033770993
000200 21 86 8f 3d 20 15 89 3d b1 5a 46 3d 0a f5 27 bd
       0.07008005 0.066934824 0.048426334 -0.04100517
000210 cb 35 d9 3b 3d 67 2a be a1 75 c1 bd 4e 83 ec bc
       0.006628727 -0.16640945 -0.09446264 -0.028871205
000220 ea e0 10 bb 96 f5 5f 3d db f7 9f 3c 1c 33 16 3d
       -0.0022106715 0.05467757 0.019527366 0.036669835
000230 36 a8 e1 bc 15 79 a4 bd 77 68 d3 3c 79 e4 66 bd
       -0.02754603 -0.08030907 0.025806649 -0.056370232
000240 35 66 cb 3c b1 98 60 3d 2c 61 76 3c e6 13 26 3d
       0.02482901 0.054833118 0.015037816 0.04054632
000250 95 d6 32 bc a3 91 40 bb da 07 9c 3c 6c 3a d6 bc
       -0.010915418 -0.0029383681 0.019046713 -0.026150905
000260 a5 b5 ab bd 29 21 d2 3d d2 3c 4a bd 53 60 34 3d
       -0.08384255 0.10260231 -0.04937441 0.044037174
000270 0b 9b 14 3d 7a 6e eb 3d bd 05 ce 3d 37 9e 46 bd
       0.036280673 0.11495681 0.10059688 -0.04849073
000280 00 aa d0 bd f5 b1 7f 3d e9 eb 4e bd 03 a3 fc 3c
       -0.10188675 0.062425572 -0.05051795 0.030839449
000290 60 2a 3e 3d 83 2f f1 3d 4b e7 1f 3d d4 40 ce 3c
       0.04642713 0.1177664 0.039038938 0.025177397
0002a0 bb c5 2d bb f5 61 d7 bb 7d 9b 8f bd d2 ca 6b bc
       -0.0026515562 -0.0065729567 -0.07012079 -0.014391618
0002b0 56 86 4f 3d e1 b0 ac 3c db 2b d0 3c a1 4c 77 3c
       0.050665222 0.021080436 0.025411537 0.015093953
0002c0 05 bd c3 bc f3 da e0 bb 09 e3 15 bd 02 76 8c 3c
       -0.023893842 -0.0068620383 -0.03659347 0.017146114
0002d0 5b ef cf bb 45 19 99 3c 46 2e 9a bc 2a 85 4d 3c
       -0.006345672 0.018688807 -0.018820893 0.012543956
0002e0 38 8a ad 3b 66 f8 de bd 8e ca 44 bd d4 5d 3d 3b
       0.005296018 -0.10887222 -0.048044734 0.0028895037
0002f0 f5 5d b2 bd c2 ca 73 3d 46 9b 47 bd 2e 0b 13 3d
       -0.08709327 0.059519537 -0.048732065 0.035899334
000300 1e fb 51 3d b6 b2 c6 3d 9d f8 b2 3d 33 b5 da bb
       0.051264875 0.09702055 0.087388255 -0.0066744327
000310 10 63 1c 3c d4 bc 04 be b0 8d d4 bd eb 16 fe bc
       0.009545103 -0.12962657 -0.10378587 -0.031016788
000320 15 94 e9 ba 6d f9 a8 3d 4a 27 68 3d e2 cb 2a 3c
       -0.0017820621 0.08250699 0.056678094 0.010424586
000330 f2 94 47 bc d9 ba 87 bd a5 8f 0b 3c 12 7d 10 bc
       -0.012181507 -0.06627435 0.008518134 -0.008818882
000340 2f e1 8f 3b d6 c0 6f 3d a7 93 d9 bc 22 b1 00 3d
       0.0043908576 0.058533512 -0.026559664 0.031418927
000350 d9 61 89 3c 4e bc 11 3d 2e 5a 46 3d 1d 60 83 bd
       0.01677029 0.035579972 0.048425846 -0.064148165
000360 9f db 11 bd 56 2a 87 3d 3e c0 cf bd 00 66 a0 3d
       -0.035609838 0.06599872 -0.10144089 0.07831955
000370 e9 9d 03 3d 10 10 98 3d 37 83 0e 3e e0 c6 1a bd
       0.032133017 0.07424939 0.13917242 -0.03778732
000380 94 5f 24 bd cc 39 bd 3d 36 28 b2 bd 5a 0e 07 bb
       -0.040130213 0.092395395 -0.08699076 -0.002060792
000390 a4 82 b2 3c 45 64 f4 3d 4f d0 0d 3e 1b 92 7c bc
       0.02179081 0.119331874 0.13848995 -0.015415694
0003a0 59 b8 24 bd 97 94 31 3d 40 ab 37 bd 62 a1 e1 bc
       -0.04021487 0.043354597 -0.04484105 -0.027542774
0003b0 d1 a2 50 3d d0 d3 29 3d 31 bd 54 3d 97 d0 f0 3a
       0.050936524 0.041461766 0.05193824 0.0018372711
0003c0 69 41 3d 3b c9 51 08 bd 47 29 9c bd 9e 81 19 bc
       0.0028878099 -0.03328112 -0.076250605 -0.009369282
0003d0 bd 7d 34 3b cf 4d 41 3d 83 91 63 bd 79 f2 1e 3d
       0.0027540766 0.047193345 -0.055558693 0.03880546
0003e0 b8 53 b0 3c e6 ed 2b be 95 a1 40 bd fe e3 ef bc
       0.021524295 -0.1678997 -0.047029097 -0.02928352
0003f0 94 b4 10 bd 0c 5d 88 3d 78 a0 dc bd e4 64 d3 3b
       -0.035328463 0.06658372 -0.107727945 0.006451236

actor.preprocess.net.0.bias f4 [32]
000000 ff ab 68 bd 4e ad 15 bd d4 47 23 bd 69 25 2a bd
       -0.056804653 -0.03654223 -0.039863423 -0.041539583
000010 42 dc 51 bd 03 1d 4a bd 21 57 2d bd 15 3d 24 bd
       -0.051235445 -0.049344074 -0.04231942 -0.040097315
000020 df 56 13 b7 1f 5c 99 bc e9 87 2a bd dd c4 ce bb
       -8.782109e-06 -0.018720685 -0.04163352 -0.006310089
000030 79 83 9e bb 4a 9d 24 3d 2c 24 44 bd 84 02 21 bd
       -0.00483745 0.040189065 -0.04788606 -0.03930904
000040 2c ae de bb ec f9 b7 bc 53 d7 51 bc d7 3f 8e bb
       -0.0067956652 -0.02245804 -0.012807685 -0.0043411064
000050 d9 c7 7d bc fc 84 59 bc b9 6e 5f bc ef 61 13 bd
       -0.015489542 -0.013276335 -0.013637238 -0.03598207
000060 0e c1 65 bd a5 8c 25 bc 09 29 03 bd 18 e9 02 bc
       -0.056092314 -0.010104333 -0.032021556 -0.007990144
000070 6b 85 6c bc 49 a2 19 bd 5a c0 a5 bb 53 ef a8 bc
       -0.014436106 -0.037508283 -0.0050583305 -0.020621931

actor.preprocess.net.2.weight f4 [64, 32, 4, 4]
000000 6f 2f 53 bd e2 63 b1 bd 7d 95 32 3d b6 6d 4d bd
       -0.051558908 -0.08661629 0.043599594 -0.050153457
000010 7f ec 66 bd c7 28 1b 3d d1 3d 9f bc 92 7b 00 3c
       -0.056377884 0.037880685 -0.019438656 0.007841961
000020 28 7d 88 bc 20 fb be bb 8a 59 69 bc 75 b9 4f bd
       -0.016661242 -0.0058282763 -0.014242539 -0.050713975
000030 2e 7f e5 bc c0 3d 45 bd 7a 60 25 3d 4e f3 14 bd
       -0.028014746 -0.048154593 0.04037521 -0.036364846
000040 fe 32 13 bd 6e 4f ce 3c f4 59 34 bc ce ce 81 bc
       -0.0359373 0.02518436 -0.011007775 -0.015845682
000050 d8 9e 17 3d a6 3e fb bb 57 52 f6 bb 64 e8 5b bc
       0.03701672 -0.0076673804 -0.00751714 -0.013422105
000060 5d 16 1c bc dc 3d 85 bc 62 36 23 3d c4 97 f4 3b
       -0.009526816 -0.016264848 0.039846785 0.007464381
000070 33 30 81 bc b0 fd 27 3d a7 f3 ac 3b 2f 7c 1a bd
       -0.015770053 0.04101342 0.005278069 -0.037716087
000080 8d 12 20 bc a2 1a f2 bc 49 37 41 bc 09 3c 4c 3c
       -0.009770048 -0.029553715 -0.011792966 0.012465485
000090 b2 8d 20 3c 56 3a 11 3d 37 38 22 bc e8 1a d9 bc
       0.009799408 0.035456024 -0.009901098 -0.026502088
0000a0 f1 01 2c 3d 00 5e 1f 3d 62 f4 9f 3c 8d 33 17 3c
       0.04199404 0.038908005 0.01952571 0.009228599
0000b0 b1 bf ee 3c 0f b4 a8 3c 11 07 05 3d 20 b0 05 bd
       0.02914414 0.020593671 0.032477442 -0.03263867
0000c0 cc 25 10 3d c8 32 23 3b 20 39 ee bc 38 ce c6 bc
       0.035192296 0.0024902094 -0.029079974 -0.024268255
0000d0 f8 f3 25 bd 2a 92 1e 3d 07 1e 82 3b d6 82 31 3c
       -0.04051587 0.03871361 0.0039708647 0.010834416
0000e0 8a f3 eb bc 4e f6 88 3c be 9a 7a bc c1 76 5c 3d
       -0.028802652 0.01671901 -0.0152956825 0.05382419
0000f0 fb cc be 3c c0 f9 cd bb 2f 0f 6c ba 46 20 f7 3c
       0.023291102 -0.006285876 -0.0009004948 0.030166756
000100 4c a1 44 3a 5b 67 e0 3c 30 43 7c bd 10 da 80 3b
       0.0007500842 0.027393034 -0.061587512 0.003932245
000110 67 ca 28 bd 4a e2 25 3d 0c 47 8f 38 24 7a 58 bc
       -0.04120865 0.04049901 6.832005e-05 -0.013212714
000120 62 e0 26 bc ce 75 3d bd a7 79 81 3c 5d fe 01 3d
       -0.010185333 -0.046254925 0.015805079 0.03173672
000130 6c 6d 01 bd ad 2a 8a bb 9b 84 fe bc 58 c2 ba bc
       -0.031598493 -0.004216513 -0.03106909 -0.022797748
000140 65 93 1c 3d b3 79 1f bd c3 16 1d b9 f5 ed d9 bc
       0.038226504 -0.03893442 -0.00014981166 -0.026602725
000150 a3 e2 dc bc 98 f5 04 bd 63 15 4f 3c 36 43 11 3d
       -0.026963538 -0.03246078 0.012639376 0.035464488
000160 34 10 0e 3d c4 83 8a 3c 9b ff ba ba d9 8c cc 3c
       0.03468342 0.016908534 -0.001426685 0.024969505
000170 b4 35 b2 bb d1 bf 31 3c 55 d0 0f bd 03 94 aa bc
       -0.005438531 0.010848955 -0.03511079 -0.02082253
000180 cd 78 55 3d fe 3b 9b bc d1 12 ab bb f3 9a 0d 3c
       0.052117158 -0.018949505 -0.005220749 0.0086429
000190 5e d1 d8 3a c3 3a b0 bb 50 3c be 3c ad 2a c3 38
       0.0016541888 -0.0053780987 0.023222119 9.3062736e-05
0001a0 66 b8 88 3c 22 32 bf bc d4 4d 0f 3d 45 c4 c4 3b
       0.01668949 -0.023339335 0.034986332 0.0060048425
0001b0 5b 47 14 bc cd 97 80 3c c4 eb fd bc 76 69 29 3d
       -0.009050216 0.015697384 -0.03099621 0.04136034
0001c0 13 45 c3 bc 5e 2e 0b 3d 9f 6c fb 3c 40 18 6f 3c
       -0.023836648 0.033979766 0.030691443 0.014593184
0001d0 c8 13 10 bc 6d c7 0b 3d 6f f8 3d bc ce 85 19 bc
       -0.008793779 0.034125734 -0.011594876 -0.00937028
0001e0 90 f9 18 3d 9b 78 e2 bc ad 8e 15 bc 93 72 57 3b
       0.037347376 -0.0276454 -0.009128255 0.0032874688
0001f0 21 bc 4b bd 90 06 f3 3b 9f 86 db bc 8e 73 42 bd
       -0.04973996 0.007416554 -0.02679759 -0.047473483
000200 31 0a f6 3b 64 3b 78 3c 21 69 2f 3c f8 6e 11 bd
       0.007508539 0.015150879 0.010706217 -0.03550622
000210 82 99 48 3b 6a 28 09 3d 86 d0 3c bd 0f ac 9a bb
       0.0030609076 0.033485807 -0.0460973 -0.004720218
000220 e2 5b 40 bd 72 bb 2d bd 92 9a 28 bd d0 ea 13 bc
       -0.046962626 -0.04241509 -0.041163035 -0.009028152
000230 da 00 2d bd 25 b7 a8 bc b3 83 39 bd 93 35 09 3d
       -0.04223714 -0.020595143 -0.045291614 0.033498358
000240 7b 8e 11 3c 41 a2 8b bc 7d b8 d1 3b 27 b3 b5 3c
       0.008884068 -0.017045142 0.0064001665 0.022180153
000250 bd a4 88 bc bf 4b 19 bc ca 35 39 bc d4 34 f9 3b
       -0.016680116 -0.009356438 -0.011304328 0.0076051746
000260 cc d4 84 3b 56 02 b3 bc 21 7a e7 3c 49 db 39 bd
       0.0040536877 -0.0218517 0.028256478 -0.045375142
000270 8a 32 0a 3d bc a2 3c 3d de fa 0a bc 5d 3f 23 3a
       0.033739604 0.046053633 -0.008482663 0.00062273984
000280 00 28 09 3d 87 da b7 3a a7 2f 88 bc e6 89 91 3d
       0.033485413 0.0014026918 -0.016624285 0.0710638
000290 aa 56 71 bb c1 c7 94 bc ea 5c c8 3c 40 b8 28 bd
       -0.0036825337 -0.018161656 0.024458367 -0.04119134
0002a0 4e d8 99 3c 4a 69 c0 bc 37 0b 02 bd fb 41 90 3d
       0.0187799 -0.023487706 -0.031748977 0.07043835
0002b0 57 86 26 3d 1a 9b 4a bc 6c ca e0 bb 9c 14 95 bb
       0.04065546 -0.012366081 -0.006860068 -0.004549576
0002c0 a9 f2 65 3c a4 c9 70 bd 28 a5 4b bc 13 22 65 3d
       0.0140349055 -0.05878605 -0.012429513 0.0559407
0002d0 f5 42 4b 3d 6c 1d 9d bc 26 6d 06 bd 33 d7 58 3d
       0.049624402 -0.019179069 -0.032818936 0.052939605
0002e0 62 24 62 3c 4e 0d 65 bd 50 5d 9d bd 0c 5a 8a bb
       0.01380262 -0.05592089 -0.076838136 -0.00422216
0002f0 26 5b a7 bb 6a 07 b7 bb d5 0e b5 3b ec 6d 5a 3d
       -0.0051073013 -0.0055856006 0.0055254498 0.053327486
000300 cb 45 70 bc d4 99 07 bd 22 99 bf bc a0 b8 c8 3c
       -0.014665077 -0.033105686 -0.02338845 0.024502099
000310 ee 71 f6 bc a8 af b0 bc 2a 11 f3 bc 5b 4e 62 3c
       -0.030083623 -0.021568134 -0.02967127 0.013812627
000320 87 da 09 bd 31 5b 49 bb 8e 06 32 bd 0c 89 dc bc
       -0.03365567 -0.003072452 -0.043463282 -0.026920818
000330 3e 00 4c bd ff 78 bd bb 60 34 09 3b ea 59 bc 3b
       -0.04980492 -0.005782246 0.002093576 0.0057480233
000340 6b b5 8c 3c 2f ff 0a bd b7 f1 a8 bd ee 9f 8c bc
       0.01717635 -0.03393477 -0.082492284 -0.017166104
000350 4d 21 8f bc e0 38 ae 3d 6b 54 1d 3c f0 21 8a 3c
       -0.017471934 0.08506942 0.009602646 0.016861886
000360 46 d8 62 3c bc d9 6d bd ea 8c 74 3d 0a 2c 74 3c
       0.013845509 -0.058068976 0.0597047 0.014903078
000370 fb dc f1 3b 3c fc 21 3b 25 4a 71 bd 9b 06 9f bc
       0.0073810793 0.0024716994 -0.0589086 -0.01941233
000380 6a 18 2c bb 90 f4 2f bc ca e5 d6 bc 24 74 09 bd
       -0.002625967 -0.010739461 -0.026232619 -0.033558026
000390 bf 3c e0 3c ea 04 f9 bc 07 7b 97 3c 40 48 03 3d
       0.027372716 -0.030397851 0.018491281 0.032051325
0003a0 28 81 1b 3d ab c7 f4 bc 98 42 38 bd 68 ab 55 3d
       0.03796497 -0.029880365 -0.044985384 0.05216542
0003b0 04 e4 ba bc ed 8b 23 3d b2 9a ad 3c d0 df 11 bc
       -0.022813804 0.039928365 0.021191929 -0.008903459
0003c0 76 2e 8a 3d e3 67 8c bd 06 57 17 3d 1e 74 92 3d
       0.06747143 -0.06855752 0.036948226 0.07151054
0003d0 54 62 0e 3d 1f ae 67 3b ae be ae bb 86 c4 78 bc
       0.03476174 0.0035351587 -0.0053327894 -0.015183574
0003e0 72 c7 f6 3c f3 59 aa 3d 01 35 8d 3b 0a 26 41 3d
       0.0301244 0.08317938 0.004309297 0.047155418
0003f0 32 4f be 3d 99 a2 1c bd e9 a0 60 3d d7 4d ee 3d
       0.09292449 -0.038241003 0.054840956 0.116359405

actor.preprocess.net.2.bias f4 [64]
000000 59 b5 90 3c 21 67 53 bd 72 ef 2b bd 6e d5 34 bd
       0.017664598 -0.051612023 -0.0419764 -0.044148855
000010 61 97 ba bc bc 8c 2c 3d f2 e7 e4 bc 4d 71 67 3c
       -0.022777261 0.042126402 -0.027942631 0.014126134
000020 3a 2a 58 bd 6e 3a bd bb 9b 95 03 3d 70 29 e9 3b
       -0.052774645 -0.0057747876 0.032125097 0.0071155354
000030 10 f4 5b bd d6 2c 41 3c 02 a2 75 bb aa 5a 5e bc
       -0.053699553 0.011790475 -0.0037480597 -0.013571421
000040 db fe 0c bd 8c 11 36 bd a0 fe 32 bc 8a 9c 36 3c
       -0.034422737 -0.044450328 -0.010924965 0.01114572
000050 80 c0 87 bd f8 e2 63 3d 49 39 07 3d f5 cf 41 3d
       -0.06628513 0.055636376 0.033013616 0.047317464
000060 f0 0a 13 bd 2b 19 04 bc 58 08 2c bd 73 af b2 bb
       -0.035899103 -0.008062641 -0.042000145 -0.005453044
000070 0e 2d e6 3c 49 cf 34 bd 9c 9e 09 3d 41 65 11 bd
       0.028097656 -0.044142995 0.033598527 -0.035496954
000080 39 3f d3 bc 46 5d a5 bc c3 26 b6 bd a1 b1 3b bd
       -0.025786983 -0.020186078 -0.08894112 -0.045823697
000090 b6 2c 6a bd b3 68 53 bc c6 d8 89 bd bc 80 8d bc
       -0.057171546 -0.01290338 -0.067307994 -0.0172733
0000a0 e9 b4 a3 3c 83 f1 41 b9 3f e2 14 bd 31 fd 57 bc
       0.019983726 -0.00018495884 -0.036348578 -0.013182924
0000b0 fe ab 07 bd e6 46 89 bd 3b 39 67 bd cd 31 19 3d
       -0.03312301 -0.06702976 -0.056451064 0.03740101
0000c0 51 82 5f 3c 1f 9f 1c bd 7b c3 88 bb 9c bd 18 bc
       0.01364191 -0.038237687 -0.0041736937 -0.00932255
0000d0 f1 32 9e bc d4 5e 0f bd 2d 36 c5 3a 67 b4 97 bc
       -0.0193114 -0.035002545 0.0015046053 -0.01851864
0000e0 34 39 84 bd b6 71 23 bd c7 83 db 3c e0 3c 99 b8
       -0.06456223 -0.039903365 0.026796235 -7.3069474e-05
0000f0 7e ca a6 bc 98 5e 6b 3c 1d f6 2c bd 01 7c 3a bc
       -0.020360228 0.014365815 -0.0422269 -0.011382104

actor.preprocess.net.4.weight f4 [64, 64, 3, 3]
000000 00 cf db 3c 40 dd 33 bd 6b 90 82 bc 38 9b 24 3c
       0.026832104 -0.043912172 -0.015938004 0.010046773
000010 79 c3 08 bd 71 45 00 3d 3b 5d 13 bd d6 0c 6c bc
       -0.033389542 0.031316224 -0.035977583 -0.014407357
000020 1a 0d 0c bc 5a e2 e4 3c b3 af 1f bd ce e0 2d bd
       -0.0085480455 0.027939964 -0.03898592 -0.04245072
000030 98 03 46 3c 45 32 0f bd 33 4e df 3c 46 7c df 3b
       0.012085818 -0.03496005 0.027258968 0.0068202345
000040 46 e3 75 3c 56 08 12 bd f9 7a ae 3c ed 44 36 3c
       0.0150077995 -0.03565248 0.021298872 0.011124832
000050 f9 44 84 3c 29 02 15 3c 65 cc 25 3c 20 52 81 3c
       0.01614617 0.009094753 0.010119532 0.01578623
000060 df cb a5 bc ce 46 03 3d 06 a5 93 bc 1f fa 9e bc
       -0.020238815 0.032049946 -0.018023025 -0.019406376
000070 fc dd b3 bc 18 b7 ed bc 96 f2 84 bc 51 fd 80 bc
       -0.021956436 -0.02901797 -0.016228955 -0.01574579
000080 8e a7 42 bc d6 11 f9 bc d0 b7 98 3c 5b 1d 7b bb
       -0.011880768 -0.030404013 0.018642336 -0.0038317058
000090 90 74 8f 3c e3 a9 bf 3c 4b b5 81 3c 62 a9 29 bd
       0.017511636 0.023396438 0.015833518 -0.0414213
0000a0 c3 7e 95 bc 50 a6 20 bc bb f0 5d bc d6 f5 9b 3a
       -0.018248921 -0.009805277 -0.013546164 0.0011898826
0000b0 2b 11 e3 bb f7 fb 0a bd 4c 0f 86 3c 4a 37 ac bb
       -0.006929537 -0.0339317 0.016364716 -0.0052556144
0000c0 72 9e b1 3c b8 f3 cb 3c 78 41 4e ba bf 1c 8a 3b
       0.021681998 0.024896488 -0.0007868032 0.0042148526
0000d0 29 6b 8a 3c 9e 02 07 bd 7d dd 91 3b 63 2f 79 3c
       0.016896801 -0.03296148 0.0044514523 0.015209052
0000e0 85 81 8d 3c 86 2d 2c bd d9 2b 9d bc c7 fb 09 3d
       0.017273674 -0.042035602 -0.019185947 0.03368738
0000f0 bb 32 0e bd 77 9e 40 bc 66 55 a9 3b bb 7a 1b bc
       -0.03471635 -0.011756531 0.005167651 -0.00948971
000100 cc d2 a0 3c 72 ce 5d 3b c6 e7 5d bc 15 bd 1e 3c
       0.019631766 0.0033844975 -0.013544029 0.009688635
000110 02 c4 d2 3c d8 e6 10 bc 6f 3b 32 bd 69 6d fb bc
       0.02572823 -0.0088441 -0.04351371 -0.03069182
000120 d1 52 e8 bc fc 57 17 bd 5e 72 e0 3b 02 e8 ca 3c
       -0.028359802 -0.036949143 0.006849571 0.024768833
000130 ca 78 1b bd 75 3d b1 3a 53 a5 91 bc 02 e8 d8 bc
       -0.03795699 0.0013522344 -0.017779028 -0.026477817
000140 9d 8a c9 3c ab c1 cd 3a a8 8d 37 bc 65 0d 70 bc
       0.024602229 0.0015697976 -0.011203207 -0.014651631
000150 fb 26 39 bc 5a 9d b0 bc ca f4 17 bd 8b e8 d5 3b
       -0.011300798 -0.021559406 -0.037098683 0.0065279654
000160 7c 6e e0 3c cb 61 33 3c 8e b9 4e 3c 41 e5 9b bc
       0.027396433 0.010948609 0.012617482 -0.019030215
000170 2a 62 2f 3c 9e 98 7a bb b9 9c 99 bb 4e 33 55 bc
       0.0107045565 -0.003823794 -0.0046878722 -0.01301272
000180 59 9e f9 3c 16 5c e1 bc 1e e3 33 bc 58 1b 0d 3d
       0.030471014 -0.02750973 -0.010979442 0.034449905
000190 19 c3 19 3d 83 d1 3a bc 85 9a 07 3d 3c d6 29 3d
       0.037539575 -0.011402491 0.033106346 0.041464075
0001a0 bc 8f 00 3b e3 2f 08 bd ff 8f a7 bb 61 3a 26 bd
       0.0019616922 -0.033248793 -0.005113601 -0.04058302
0001b0 0b aa da bb 2c d4 28 bd ab 38 de b9 83 1b ad 3c
       -0.0066731027 -0.041217968 -0.0004238536 0.021131283
0001c0 1b 5f 92 bc f8 56 00 3d d0 d7 1d bc aa b3 14 3d
       -0.017867615 0.03133294 -0.009633973 0.036304154
0001d0 cb 26 13 3d 28 15 9d 3c 20 49 d5 bb 02 0e e0 bc
       0.035925668 0.019175127 -0.0065089613 -0.02735043
0001e0 6d 82 15 3d 48 a7 14 bc 2d ff 05 bd 29 40 b1 bc
       0.036501337 -0.009073086 -0.032714058 -0.02163704
0001f0 04 75 b3 3b a1 2b 24 3c 52 bc 8e bb 78 28 45 bc
       0.005476596 0.010020168 -0.0043559456 -0.012033574
000200 79 c1 9c bc 32 1b 06 bd a2 08 10 bd 80 f6 90 3c
       -0.019135224 -0.03274078 -0.035164483 0.017695665
000210 20 c6 b9 ba b0 c8 8f 3c c2 ce 9b 3c bf 16 3e 3b
       -0.0014173426 0.01755175 0.019019488 0.0029005257
000220 2a 3f c0 3c 07 04 79 3b 23 dc 1b bd cd f7 04 3c
       0.023467619 0.0037996785 -0.038051736 0.008115721
000230 d3 ad 11 bd 90 b0 41 bc 87 eb 80 3c 62 67 f8 bc
       -0.035566162 -0.011821881 0.015737308 -0.030322734
000240 3f 02 08 bd 7a 82 8c 3b 75 d8 d2 3c 7e 64 80 3c
       -0.033205267 0.004288015 0.02573798 0.015672918
000250 ca 82 0c 3d 4b c5 ba bc 4c c7 89 bc d8 5a ff 3b
       0.034304418 -0.022799155 -0.016818665 0.007792812
000260 26 9d 9c bb 8c 03 e8 39 c1 76 18 bd 08 11 cc 3c
       -0.0047794757 0.0004425313 -0.037222628 0.024910465
000270 69 06 9c bc dc 53 d5 3c 6c 6a 20 bd 0c 96 97 bb
       -0.019046025 0.026040964 -0.03916399 -0.0046260413
000280 75 23 8f 3c 0d c9 a0 bc 21 19 0c bd ba 1e 84 bc
       0.017472962 -0.019627118 -0.034203652 -0.016127933
000290 87 c0 f6 3a 8d d6 17 bd cf a3 b8 3c c3 83 ae 3a
       0.0018825688 -0.037069846 0.022539048 0.0013314415
0002a0 9f e0 ab 3c 67 1d c7 bc 3e 8d 82 3c af 91 28 bb
       0.020981131 -0.024306012 0.01593649 -0.00257216
0002b0 b5 7e e1 3c d2 e9 2b bd a5 4d e4 bc 57 61 2b bd
       0.027526239 -0.041971035 -0.027869055 -0.041840877
0002c0 64 9b 19 3a b2 14 11 bd b4 5f 4d 3c 8c f6 ff 3c
       0.0005859642 -0.035420127 0.012535024 0.031245492
0002d0 29 80 84 bc 38 74 07 ba fa 7f e8 3b ca 84 2f 3c
       -0.016174393 -0.0005167159 0.007095334 0.010712812
0002e0 2b cf 23 3c 18 88 02 bd c7 e0 bd 3c 23 1a ad 3c
       0.009998123 -0.03186807 0.023178471 0.021130627
0002f0 a2 b5 4e 3c 00 a1 8f bb 36 20 4c 3c 8b 62 2a bc
       0.012616547 -0.0043832064 0.012458852 -0.010399471
000300 95 3f 05 bd c6 99 fd bb 9b e9 f8 3a 42 c8 a1 3c
       -0.03253134 -0.0077392785 0.0018990518 0.01974881
000310 ec db 82 3b 67 a9 1f bd a1 f9 dc bc de fa 0d 3d
       0.003993502 -0.038979914 -0.026974501 0.034663074
000320 99 97 05 bd da 83 0a 3d 73 e6 83 3a 84 9b 0c bd
       -0.032615278 0.03381715 0.0010063186 -0.034328
000330 f9 38 5e bb ac a3 00 bc 85 38 f2 3c e0 d7 2b bd
       -0.003390847 -0.007851522 0.029567966 -0.04195392
000340 b7 cd f3 bc ca 52 5f bc a5 3c f9 3c ab ae 44 3b
       -0.029761178 -0.013630578 0.030424425 0.0030011337
000350 87 b3 42 bc 8f 6a 82 bc 59 ea c2 bb 3e f7 db ba
       -0.011883623 -0.015919952 -0.0059483466 -0.0016782058
000360 95 7c 25 bc 8a 7a be 3c 1b 21 1d bd f8 bc a8 bb
       -0.010100503 0.02325179 -0.03836165 -0.00514948
000370 0a 01 58 3a 9c 0b 3b bd bd 87 17 bd 6a f6 0c 3b
       0.0008239901 -0.04566537 -0.036994684 0.002150918
000380 a8 66 31 bc 92 18 3c bd 79 d4 43 bd f5 81 83 3c
       -0.010827698 -0.04592187 -0.04781005 0.01605318
000390 3e 84 df bc 3c 67 3c bd c8 e5 b9 3b bb 42 58 3c
       -0.027284738 -0.04599689 0.005673144 0.0131995035
0003a0 97 c1 25 3d f1 ab 17 bd f4 12 8c bc b1 b5 a7 bc
       0.040467825 -0.03702921 -0.017098881 -0.02047238
0003b0 a7 24 a7 3c 7d fa 04 3d 58 8d dc 3c 58 49 16 bd
       0.02040322 0.032465447 0.026922867 -0.03669104
0003c0 17 b0 0d bd 4c a7 f4 3c df 89 ca 3c b4 ef 31 bc
       -0.03459176 0.02986493 0.024723945 -0.010860372
0003d0 c4 74 a1 3a 88 ee c0 ba ae c7 15 bd c1 ba 51 3c
       0.0012318124 -0.0014719525 -0.036567383 0.012800873
0003e0 ab 74 91 3c 88 2f 02 bc ad 9a a1 bc c3 67 cf bc
       0.017755827 -0.007945903 -0.019727075 -0.025318032
0003f0 6d c7 0b 3d 3f 5f e7 3c ed 54 2d bd e0 dc b3 3c
       0.034125734 0.028243659 -0.04231732 0.021955907

actor.preprocess.net.4.bias f4 [64]
000000 8e 70 12 bd 24 42 23 bc 85 37 0d bc 90 de d7 3c
       -0.03575187 -0.0099645 -0.008619194 0.026351243
000010 5f 4c 16 3d 17 d9 53 bd d2 d9 88 bc 9e 89 22 3c
       0.036693927 -0.051720705 -0.016705427 0.009920506
000020 27 6c 40 bd d4 3a f7 bc 69 74 1a bc e1 9f d9 bc
       -0.046978142 -0.030179419 -0.009427168 -0.026565494
000030 25 c1 a2 bb d7 30 51 bd 91 ce 30 bd e1 65 13 bd
       -0.0049668723 -0.051071968 -0.043165747 -0.03598583
000040 1c 9e 55 3c 23 ec 14 3d 8d 23 c0 bc b5 de 62 3b
       0.0130381845 0.03635801 -0.023454452 0.0034617607
000050 22 8d 39 bd 99 15 d7 bc fe b2 8e 3d 4a 47 c5 3c
       -0.04530061 -0.026255416 0.06967734 0.024081845
000060 37 47 e9 3c 0b e0 9a 3c b1 d7 50 bd 63 a8 a6 3b
       0.02847634 0.01890566 -0.05098695 0.005085991
000070 70 f5 ab bc 86 73 b4 bc 40 c6 46 bd 56 99 29 bc
       -0.020991057 -0.022027742 -0.04852891 -0.0103515
000080 3f 02 65 bd dc 65 21 3c 21 bb 76 3d 87 03 04 bd
       -0.055910345 0.009850945 0.060237054 -0.032229926
000090 44 13 bc b9 b2 d8 4e bd f4 9d d5 bc 95 4c 6e bd
       -0.00035872508 -0.050499626 -0.026076294 -0.058178503
0000a0 09 ea 8f 3d 6b ad ca 3a eb f2 8f bc df cb 9a 3b
       0.070270605 0.001546306 -0.017571887 0.0047240104
0000b0 ec 67 09 bd c0 55 0e bd 94 3d 3f bd 9c 57 36 bc
       -0.033546373 -0.034749746 -0.046689585 -0.011129286
0000c0 59 6d 59 bc ff 3c 40 bb c3 b1 89 bc c5 ed 34 bc
       -0.013270699 -0.0029333232 -0.016808396 -0.011043017
0000d0 e6 d0 eb 3c bc 8c 6d 3d b5 19 83 3b cd e0 95 3b
       0.028786134 0.057995543 0.0040008673 0.0045739175
0000e0 75 e0 9b bc 78 d4 31 bd 46 34 01 bd 5b 31 3d bd
       -0.019027928 -0.043415517 -0.031543992 -0.046189647
0000f0 da 5e b6 bc 34 42 86 3d 5d 1f 06 bd 57 d4 65 bd
       -0.022262026 0.06555596 -0.032744754 -0.056110706

actor.mu.model.0.weight f4 [3, 3136]
000000 d5 4c 43 3c b8 5d 25 bd 06 2e 9a bc 39 d3 44 bc
       0.011920174 -0.04037258 -0.018820774 -0.01201325
000010 e5 ad 6e bb 22 0b 97 3b 71 c1 b1 bc 37 87 b1 3b
       -0.0036419567 0.0046094814 -0.021698685 0.00541773
000020 f7 ac d6 bc d9 37 95 bb 7c 5e 75 bc e4 52 51 bd
       -0.026205523 -0.0045537767 -0.01497614 -0.05110444
000030 50 5a a6 bc ee d4 a7 3c dc 51 e5 3b 21 40 c0 bb
       -0.020306736 0.020487275 0.006998284 -0.0058670198
000040 64 9c f7 bc d6 eb 91 bc 55 4b 66 3b d3 d1 6e bc
       -0.03022594 -0.01781265 0.0035140116 -0.014576393
000050 c6 19 47 bc 80 a0 fc 3b c0 21 d9 3b ca 46 c5 bb
       -0.012152141 0.007709563 0.0066263378 -0.0060204016
000060 26 42 03 3c e8 ce 03 bd 12 ac 4c 3c 8d 6a 21 3c
       0.0080113765 -0.032179743 0.012492197 0.009852064
000070 cf ff fc 3b a7 08 17 bd 99 24 42 3d 65 00 0b bc
       0.0077209244 -0.036873486 0.047398183 -0.008483981
000080 9d 43 f7 ba 28 98 e8 bc 39 74 93 bc 37 23 11 3d
       -0.0018864755 -0.028392866 -0.017999755 0.035433974
000090 67 dd 98 3a 1d a2 80 3c 27 bf 31 bc 55 3f 38 bc
       0.0011662663 0.015702302 -0.010848797 -0.011245568
0000a0 0b 63 81 3b c5 cd 69 3c ee 40 b4 bb 63 63 9b bc
       0.0039485744 0.014270251 -0.0055009043 -0.01896829
0000b0 34 1e 14 3d 91 ab ae ba 5f b1 44 bc 82 59 19 3b
       0.036161616 -0.0013326277 -0.012005179 0.0023399298
0000c0 b9 e3 d0 3b c1 ad 7c 3b 84 08 a2 bb 00 dc ea 3c
       0.006374803 0.0038555714 -0.004944863 0.028669357
0000d0 e2 6a a2 bc a9 97 dc bc 8f 4a 88 3c 5c 5a fd bc
       -0.019826356 -0.026927786 0.016637115 -0.030926876
0000e0 1d 74 d6 3b 66 7e b2 bc 0b ed b4 bc 4f 23 c1 b9
       0.0065446035 -0.021788787 -0.022085687 -0.00036838136
0000f0 6c b2 b6 bc 3d b7 17 3b 96 ed f6 3c 81 a6 b8 3c
       -0.022301875 0.002314999 0.030142587 0.022540333
000100 56 bc 58 bb 7f 85 c1 bc 8d d7 10 bd f6 01 5c 3b
       -0.0033071241 -0.023623226 -0.035361815 0.0033570505
000110 ba b6 4c bc 9c 18 b6 bc ad ed 5e bc 16 81 f4 3b
       -0.012494737 -0.022228532 -0.013606471 0.0074616773
000120 45 2e 6c bc fe 17 6d bb d0 85 ac 3c 9a 10 a7 3c
       -0.014415328 -0.003617763 0.0210599 0.020393658
000130 ba e8 dc bc ca 7f 8c bc 78 2a ed 3c 1f 7c 8a 3c
       -0.026966441 -0.017150778 0.028950915 0.016904889
000140 52 b2 16 3b 75 0a 94 bc e8 45 4e 3b 72 d0 e4 3c
       0.002299447 -0.018071393 0.0031474773 0.027931426
000150 27 8f 04 3d 5b cf 4d 3c 64 d1 cf bb 37 f5 09 bd
       0.032363083 0.012561644 -0.0063421 -0.03368112
000160 11 19 c7 bb 82 0d 69 bc 65 99 3b bc 14 80 0c 3d
       -0.006075986 -0.014224412 -0.011450146 0.034301832
000170 c6 f7 a4 bb 2d f0 46 3c 9a fb 89 bc d3 dd 48 bc
       -0.0050344197 0.012142223 -0.016843606 -0.012259918
000180 9c 14 f5 3b f4 1f 83 bc a1 df 61 bb 2a 79 87 3c
       0.0074792635 -0.016006447 -0.0034465569 0.016537268
000190 9b 68 e1 3b 04 2f 1b bc e5 c8 a5 bc 22 91 93 b9
       0.006878925 -0.009471659 -0.020237396 -0.00028146157
0001a0 e7 bd 0c bc ac 45 94 bb 3f 22 9c 3b fd 58 83 bc
       -0.008590198 -0.004524907 0.0047648246 -0.016033644
0001b0 49 44 62 bc de 16 f9 3c 80 9e 86 bc 86 d6 73 bc
       -0.013810226 0.030406412 -0.016433 -0.014882689
0001c0 37 17 71 bc 86 ed 67 bc e4 de c1 3c 45 87 4d 3d
       -0.0147150075 -0.014155751 0.023665853 0.05017783
0001d0 79 c2 8d bb 96 ef 89 bc 43 04 b3 3b fa 29 47 bc
       -0.0043261615 -0.016837876 0.0054631545 -0.012156004
0001e0 6c a6 a4 3c a8 40 11 3d 09 34 c8 3a c7 7c 51 3c
       0.020098887 0.03546205 0.0015274297 0.012786097
0001f0 df 87 73 bc 11 31 b0 3b c6 55 e1 bc 2b c8 a1 bc
       -0.014863937 0.005376943 -0.02750672 -0.019748768
000200 31 f1 da bb 84 17 10 bc 65 57 9e 3c b8 74 32 3c
       -0.0066815843 -0.008794669 0.019328782 0.010892086
000210 a5 d1 bd bc 3f 25 e0 bb 33 87 2f ba 26 6d c5 bc
       -0.023171255 -0.0068403776 -0.00066958665 -0.024099898
000220 d4 1d b0 bb 18 11 a9 bc 58 d7 bd 3c 8d 2f e9 3c
       -0.0053746495 -0.020638034 0.023173973 0.028465057
000230 33 b0 b7 3c 9f 16 14 bc a0 f2 8e 3d 58 a2 43 bc
       0.022422886 -0.009038596 0.06979871 -0.011940561
000240 ba a5 79 bc a7 bd 33 bc d2 29 42 3b 8c 2a 8c 3b
       -0.015237266 -0.01097051 0.0029626978 0.004277533
000250 aa 1a e1 3c b3 25 33 3b 0d 53 e8 bc df d2 8a bb
       0.027478535 0.0027335703 -0.028359914 -0.0042365636
000260 d7 98 0a bc 7b 4f 26 3c 60 4a 36 bd 41 68 23 bd
       -0.008459291 0.010150786 -0.044504523 -0.039894346
000270 12 a6 28 bc 0b 77 ad bc 4c e9 0b 3c fd 49 a8 3a
       -0.0102935005 -0.021174928 0.008539509 0.0012839433
000280 b5 1d df 3c d8 58 0a bd 20 59 d4 3c b8 c1 a9 3b
       0.027235845 -0.033776134 0.025921404 0.005180564
000290 46 09 60 3c f8 fa 83 bc f6 a1 a4 3c d6 57 18 3d
       0.013674086 -0.016110882 0.02009676 0.037193142
0002a0 25 c7 2c 3b b8 39 87 3b 82 9a e5 3c 87 d1 99 bc
       0.0026363817 0.0041267537 0.028027777 -0.018776668
0002b0 49 bd 94 bc 96 cb 06 bd a5 17 d5 3b 55 a0 57 3a
       -0.018156664 -0.032909 0.006503063 0.00082254905
0002c0 93 ef 61 bc 70 d3 58 bc 03 b4 21 bd 73 b7 14 bb
       -0.013790029 -0.013234004 -0.039478313 -0.0022692352
0002d0 54 d9 b1 bb 16 77 b9 3a 1f b0 49 3c 62 5c 44 bc
       -0.005427519 0.001414987 0.012310057 -0.011984916
0002e0 d1 b3 18 3c 00 9a 76 bc 46 5c 10 3a a6 63 79 bb
       0.009320215 -0.015051365 0.0005506914 -0.003805378
0002f0 54 9c 1f bc a1 b3 06 3c 0b 9c de 3c 36 c7 26 3c
       -0.009741861 0.008221538 0.027174016 0.0101793315
000300 56 b1 1e 3a 3e 59 a1 bc fd 4c c4 3c 6d 06 a5 b9
       0.0006053647 -0.019695874 0.023962492 -0.0003147604
000310 de 26 3f 3c 0e 29 87 bd 04 cf c6 3c 96 e4 8f 3c
       0.0116669815 -0.065996274 0.024268635 0.017565053
000320 14 fa 08 bd c1 51 04 3d f3 7d 7f 3c 16 6f 8c 3d
       -0.033441618 0.03230453 0.0155939935 0.068571255
000330 be 7e 9d 3c 0d fc 09 bd ca 3f 15 3d e7 82 c5 3a
       0.019225474 -0.03368764 0.036437787 0.0015068919
000340 1e 7b 98 3c 6a 55 66 3c 14 df 3a bc 5c cb 6d 3d
       0.018613394 0.01405845 -0.011405725 0.058055267
000350 17 38 81 3c 3f 0d eb bc 40 ee 24 3d 3f 16 9a bc
       0.015773816 -0.02869284 0.040266275 -0.018809436
000360 e0 b4 cb 3c 86 ae 06 3d 3a fa 3f bd b7 ef 35 3c
       0.024866521 0.032881282 -0.046869494 0.011104516
000370 7f a8 ba 3c 25 6b 36 bc d0 01 cf 3b ea 40 a2 3b
       0.022785423 -0.011133944 0.0063173547 0.004951586
000380 a0 b8 b8 3d 7a 2a 21 3d 39 00 2c bd 92 54 5e 3d
       0.090195894 0.03934715 -0.0419924 0.05427987
000390 20 76 14 3c b8 3c 1e bd 4d ce 46 3c 83 d6 69 bd
       0.009061366 -0.038632125 0.012134147 -0.05708934
0003a0 27 6e 5c 3d 07 36 38 3d 58 40 d0 bc a2 b6 47 3c
       0.053815987 0.0449734 -0.025421306 0.012189539
0003b0 fb aa fc 3c ad 4c 8b bb 62 ee 35 3d 2a 9b 01 be
       0.030843249 -0.004251084 0.044416793 -0.12656847
0003c0 6e a0 76 3c 49 4e e8 3c f3 48 7e bd e8 7f 1d 3c
       0.015052898 0.028357642 -0.06208129 0.009613015
0003d0 24 eb a1 3c 95 56 20 bc b2 9a 23 bd 07 3a 47 3b
       0.019765444 -0.009786268 -0.03994245 0.0030399577
0003e0 e8 1d 83 bb bf 67 93 3c 3b 77 bb 3c b5 d9 05 bc
       -0.004001368 0.017993806 0.022884002 -0.008169581
0003f0 4b c4 f7 bb 40 af d7 3a b9 5f 04 bc d1 a7 e6 3a
       -0.0075612417 0.0016455427 -0.008079463 0.0017597621

actor.mu.model.0.bias f4 [3]
000000 8d 21 6e bc 08 3d 18 3d 6b a7 e6 bd
       -0.014534366 0.03716758 -0.11262401

critic.preprocess.net.0.weight f4 [32, 12, 8, 8]
000000 a7 49 00 bc 8c 54 0b 3b ff 99 2d 3c 64 2f 0c 3d
       -0.00783006 0.002126011 0.010595798 0.034224883
000010 92 55 0a bd 47 44 d5 bc d8 b3 22 3d 5b 8a 58 bc
       -0.033773012 -0.026033534 0.039722294 -0.01321658
000020 e8 d9 05 3d 78 14 e9 ba 79 e0 24 3c ef 00 82 3b
       0.032678515 -0.001778259 0.010063284 0.0039673964
000030 6f dc 2e bc 5e 8c a9 ba 0c 8c 20 3d ee 75 f6 bc
       -0.010672673 -0.001293551 0.03919606 -0.03008553
000040 8f 52 8e bc c9 07 e6 3c 23 12 a9 bc 75 41 e1 bc
       -0.017373351 0.028079884 -0.020638531 -0.027497033
000050 6e 70 da ba 01 a0 32 3c fd 9b fd 3c 1f f3 26 bd
       -0.0016665587 0.010902406 0.03095817 -0.040759202
000060 9b 77 18 3c 3d d9 a3 bc 02 86 bb bc 1d 7c fb bb
       0.00930586 -0.020001048 -0.022891048 -0.0076747076
000070 8d d9 1c bc 4a 85 77 bc e6 84 dd 3c df a3 ab 3c
       -0.0095733525 -0.015107462 0.02704091 0.020952163
000080 0b 28 f7 bb f4 fd 96 bc 7f 20 15 bc 35 92 48 3c
       -0.0075426153 -0.018431641 -0.009101986 0.01224189
000090 d8 f3 0d bd de 76 ed bc 28 4f 85 3c 74 4a 9d bc
       -0.034656376 -0.028987344 0.016273096 -0.019200541
0000a0 63 6b ab b9 a9 de 8f 3c ff f6 cc ba 11 2e 8a 3c
       -0.0003269567 0.017562227 -0.0015637575 0.01686767
0000b0 48 bb 38 bd 39 c4 4b bd 96 9c e9 bc 6d f1 d1 bb
       -0.04510048 -0.04974768 -0.028517049 -0.006406954
0000c0 3f 63 a7 3c dc f0 fc bc 98 40 e3 bc 69 c0 99 ba
       0.020433066 -0.03087657 -0.027740762 -0.0011730316
0000d0 50 fd f4 bc 8c ba 04 bd 97 97 f8 3c cb 07 3b bd
       -0.029905945 -0.032404467 0.030345721 -0.04566173
0000e0 5a 7d 17 3d d2 c4 82 bc fa 5e 28 bd d8 96 1d bb
       0.03698478 -0.015962992 -0.0411062 -0.0024046209
0000f0 f2 6c a0 bc 06 30 27 bd 54 7b 00 3d a3 3d a3 bc
       -0.0195832 -0.040817283 0.031367615 -0.019926852
000100 d4 1d bf ba 10 b0 f7 bc 00 b3 09 bc 1b bf 0c 3d
       -0.0014581033 -0.03023532 -0.008404493 0.03436194
000110 ee 87 30 bd 1a b6 f1 bc cd 28 94 3c c3 2e 23 bd
       -0.043098383 -0.029505778 0.018085862 -0.039839517
000120 dd 69 a8 ba 1f d1 d6 bc 67 b5 08 bd 51 5c 75 bc
       -0.0012848933 -0.026222764 -0.033376124 -0.014975623
000130 d5 e1 20 bd 25 f9 05 bd d6 a9 d7 3b b7 a6 2d bd
       -0.03927787 -0.032708306 0.0065815253 -0.04239532
000140 44 0e 87 bb e2 7f ac bc 9d da 8d bc 83 c7 80 3c
       -0.0041215736 -0.021057073 -0.017316157 0.015720135
000150 a4 97 cf 3c 59 2d 49 bd 07 1a ac bc a5 0d 9c 3c
       0.025340863 -0.049115513 -0.021008505 0.019049475
000160 66 cf 1a bc 78 b2 c2 bc bb b7 a4 3b 18 ea aa bc
       -0.009448862 -0.023766741 0.005026785 -0.020863578
000170 a1 5d c5 3c 14 d3 2e 3c 32 dc 3c bc 0b ee 3c bc
       0.024092497 0.010670442 -0.011527108 -0.011531363
000180 25 32 3b bc 26 fe ba ba bc 1f dc 3a 55 83 a8 3c
       -0.01142553 -0.0014266416 0.0016794126 0.020570436
000190 07 7b 04 bd f1 42 02 bd 6c 8f bb ba 04 c8 82 3c
       -0.03234389 -0.03180212 -0.0014309711 0.015964516
0001a0 84 bf 22 3c 26 5e 73 bc 5b 27 49 bd 04 c9 fb 3c
       0.009933356 -0.01485399 -0.049109798 0.0307355
0001b0 a8 89 71 bb a2 74 99 3c d2 27 9f bc 53 40 df bc
       -0.003685573 0.018732373 -0.019428167 -0.027252352
0001c0 63 69 c7 bc 06 89 25 bb e0 43 e1 3b a8 31 6f 3c
       -0.024342244 -0.0025258674 0.0068745464 0.014599241
0001d0 6c c7 d2 bc ca 2c 3a bd 34 d7 a9 3b 92 01 a5 bc
       -0.025729857 -0.04545287 0.005183125 -0.02014235
0001e0 26 83 23 3d 09 f0 8c bc 24 8c 01 bc 46 91 5e 3c
       0.039919995 -0.017204301 -0.007906947 0.013584441
0001f0 b9 03 b3 bb 8e c4 0c 3c 4c de 02 3d 94 a2 2a 3c
       -0.0054630903 0.008591784 0.03195028 0.010414738
000200 fe 90 99 ba d3 37 25 3c 15 40 c6 bc 6d c0 05 3d
       -0.0011716185 0.01008411 -0.024200479 0.032654215
000210 e5 9f 34 bd c1 b5 85 3b 2a 18 96 3b 88 65 eb bc
       -0.0440978 0.0040805046 0.0045805173 -0.028734937
000220 55 94 87 bc 7d 64 10 bd c9 45 5c bd 86 41 25 3c
       -0.016550222 -0.035252083 -0.05377749 0.010086423
000230 17 80 8a 3c 3f 0b 33 bd 31 d5 08 3b 42 a8 9e bb
       0.016906781 -0.043711897 0.0020879025 -0.0048418352
000240 f2 b4 c9 3c b8 e1 d9 bb 8b 7e 55 bc a1 dd f0 3c
       0.024622414 -0.006649222 -0.0130306585 0.029402556
000250 7b d6 a9 bc 90 09 20 bc 31 2c d6 3b cd 4a 9f 3c
       -0.020732155 -0.009767905 0.0065360297 0.019444847
000260 68 7c d7 3b dc e7 f6 bc 02 f1 e0 bc 27 20 d9 3c
       0.0065761097 -0.030139856 -0.027458671 0.02650459
000270 c4 b2 15 bd 63 bf f0 bb 5b 18 2d bc 14 95 09 3c
       -0.036547437 -0.007347034 -0.010564889 0.008397359
000280 cb 58 6b 3c 12 af cd 3b 52 a4 00 ba ea 92 09 3d
       0.014364432 0.0062769735 -0.0004907298 0.033587374
000290 ae 07 05 bd 73 c6 53 3c 2b 1c 13 3b 66 a9 cc 3c
       -0.032478027 0.012925732 0.002244721 0.02498312
0002a0 51 c4 84 3b 89 a8 0a bd 13 58 4e 3c b8 68 60 bc
       0.004051723 -0.033852134 0.012594241 -0.013696842
0002b0 44 b5 fd bc 39 25 ac 3c 89 fa 9b 3c 56 17 fb bb
       -0.030970223 0.021013843 0.019040363 -0.007662694
0002c0 c5 3a 48 3c 5a ba 6c bb 51 89 86 bc 7b fd 05 3d
       0.012221043 -0.0036121816 -0.0164229 0.03271244
0002d0 af 81 6c bc 95 33 d7 bc 95 04 24 3d 16 e4 9f 3c
       -0.014435216 -0.026269713 0.040043432 0.01951794
0002e0 9e 06 9c bc a5 e9 5a bc 8c 67 08 3c 8c d8 0a 3d
       -0.019046124 -0.013361369 0.008325469 0.03389792
0002f0 4a 06 3f bd b5 60 26 bd f1 4e dd bc 0c 05 8d bc
       -0.046636857 -0.04061957 -0.027015181 -0.01721432
000300 68 81 71 bc 1b 8f 16 bd cd 03 3b bd 1d 6b a4 bc
       -0.0147403255 -0.03675757 -0.04565792 -0.020070607
000310 e6 8a 46 bc 04 86 3d bc 50 9f 63 3c d8 31 0b bd
       -0.012118077 -0.011567596 0.0138929635 -0.03398308
000320 38 6b 13 bb 4d 6d 33 3c ea 58 87 bc ae ec a2 3c
       -0.0022494327 0.010951352 -0.01652189 0.019888248
000330 e3 58 da 3b c3 27 64 bd ca 47 fe bb cb d2 a6 bb
       0.006663428 -0.055701982 -0.0077600228 -0.0050910464
000340 19 d5 d3 3c a7 58 fa 3a bb 8f 61 3c ac 7f 3d bc
       0.025858449 0.0019099907 0.013767178 -0.011566084
000350 a0 a3 31 3c 4d 66 32 bd dd bc 0b 3d f7 ba db 3c
       0.010842234 -0.043554593 0.03411566 0.02682255
000360 32 53 87 bb 63 09 b5 3c 1f 15 6f bc 88 88 f6 3c
       -0.0041297907 0.022099202 -0.014592438 0.0300944
000370 d1 f1 2a 3b ac 4a 52 bd c2 40 88 3a c1 78 e6 ba
       0.0026084075 -0.051340744 0.0010395276 -0.0017583595
000380 b2 58 18 bc a7 23 b4 bc 33 73 c2 3c b4 fd 92 bc
       -0.00929849 -0.021989657 0.023736572 -0.01794324
000390 2c 12 b1 3b c4 da fa bc 29 3d 58 bc c9 31 78 bc
       0.0054037776 -0.030621894 -0.0131981755 -0.015148588
0003a0 2d d6 8a bc cd 84 a4 bc a9 2f e6 b7 ee c5 49 3c
       -0.01694783 -0.020082856 -2.744033e-05 0.0123152565
0003b0 70 e9 c0 bc 4d 91 06 bc ad 2c 07 3d ad c9 84 bc
       -0.023548812 -0.008213353 0.03300159 -0.016209448
0003c0 cb 55 5b 3b 47 e5 ca 3b cb 4b ac ba 47 bc 93 3c
       0.0033467885 0.006191883 -0.0013145147 0.018034114
0003d0 9b 1a a0 bb 8a df d7 bc c7 e1 70 3c b0 15 aa 3c
       -0.004885984 -0.026351709 0.014702267 0.020762295
0003e0 59 a9 81 3c 5e 7f f6 bc 68 89 15 bd 53 e0 d2 3c
       0.015827822 -0.03009003 -0.036507994 0.025741732
0003f0 0b d7 a1 bc 6a e8 3e bd b3 18 13 bc 2a 4c bb 3c
       -0.01975586 -0.046608366 -0.008978057 0.022863466

critic.preprocess.net.0.bias f4 [32]
000000 55 76 99 bb 42 92 74 bd 68 80 e7 bc b0 03 28 bd
       -0.0046832957 -0.059709795 -0.028259471 -0.04101914
000010 78 70 5e 3d 26 d5 1a bd e2 b6 b1 bb f8 ad 17 bd
       0.054306477 -0.03780093 -0.0054234127 -0.037031144
000020 30 10 d1 bc b3 6f 63 bc 02 ef 24 bd dc d5 70 3c
       -0.025520414 -0.013881612 -0.040266998 0.014699426
000030 0e e4 47 bc 4a a0 58 3d 4f 66 98 38 6f 16 95 bc
       -0.012200369 0.05288724 7.266981e-05 -0.018199174
000040 c3 1a dc bc 03 2e fb bb c9 9b 71 bc 5a 7c a2 bc
       -0.02686823 -0.007665397 -0.014746615 -0.019834686
000050 a2 84 fa 3c 4a 37 6b 3c ca 1e 24 bd 92 3d a5 3b
       0.030580822 0.014356444 -0.040068425 0.00504274
000060 0f 8c 02 3c 76 c9 12 bd ac df 9d bd e5 02 8b bb
       0.007967963 -0.03583666 -0.07708678 -0.0042422884
000070 fe f9 d2 3c 4a 55 89 bc c3 00 d9 bc 96 ac ef 39
       0.025753971 -0.016764302 -0.026489621 0.0004571422

critic.preprocess.net.2.weight f4 [64, 32, 4, 4]
000000 ec 16 94 bc 58 18 c3 3b 08 be 9e bc 8e b9 9d bd
       -0.018077336 0.0059538297 -0.019377723 -0.077014074
000010 df fa a1 bb f8 89 e4 bc d1 4c 09 3c 7f ba 84 3c
       -0.0049432362 -0.02789782 0.008380131 0.01620221
000020 0e 31 1e bd 23 40 86 3c 03 1e 16 bd 97 74 56 bc
       -0.038621 0.016388005 -0.036649715 -0.013089321
000030 6a 83 99 bc a2 ef 82 bd ee 61 3a bd 4b 3e 9b bd
       -0.01873942 -0.063933626 -0.04550355 -0.07580241
000040 ed 50 7c 3c 7b 61 e2 3c 04 bb 0e bd 1a 7b eb b9
       0.015400154 0.027634373 -0.03484632 -0.0004491441
000050 78 7b 38 bc e1 13 b2 3c cd fb bf 3c 15 a0 d4 bc
       -0.011259906 0.021737995 0.023435498 -0.02595524
000060 a3 6b 93 bd 30 64 79 bc a3 bb ad bb 9e a8 62 bd
       -0.071982644 -0.0152216405 -0.005301909 -0.055336587
000070 27 56 36 bd 8e 06 04 3d c8 02 b4 bc 0c d7 6d 3c
       -0.044515755 0.032232814 -0.021973982 0.014516603
000080 7f 95 c3 bc 58 c0 26 3d 87 21 df 3c 51 6f 9a 3b
       -0.023874996 0.040710777 0.027237667 0.004712977
000090 78 b7 d8 bc 51 1a 2f bd e6 d2 6e bd 5a 93 f3 bc
       -0.026454672 -0.042749707 -0.058306597 -0.029733349
0000a0 c8 12 84 bd 75 4f f1 3c 10 46 a7 bc 4f a7 2e bd
       -0.06448895 0.029456833 -0.02041915 -0.042640027
0000b0 6e 0e 2b 3d 71 3f 2d 3d 52 41 5e 3d 7f f7 44 bd
       0.041761808 0.04229683 0.054261513 -0.048087593
0000c0 f4 b4 90 3c fb fc 50 3c ca b5 b0 3c 82 96 28 bd
       0.01766441 0.012755628 0.021571059 -0.04115916
0000d0 50 e6 c0 3c 3a 13 41 bd 2c 08 7c bc b8 96 51 3c
       0.023547322 -0.047137477 -0.015382808 0.012792282
0000e0 a3 13 48 bd 03 d3 84 bd a0 f5 fa 3b 50 ec 81 bd
       -0.048846852 -0.0648556 0.0076586753 -0.06343901
0000f0 a6 6f c4 bc ef 4b 17 3d 0f 5e f1 b9 38 d1 bb ba
       -0.02397902 0.03693765 -0.0004603718 -0.001432932
000100 99 d6 44 bd 6d 46 10 be 9b 8e 81 bc ca 0a bd bd
       -0.04805622 -0.14089365 -0.01581507 -0.092305735
000110 06 f3 d2 bc 15 3e cb bc 27 ea 4c bc 39 9e 0e 3c
       -0.025750648 -0.024809876 -0.012506998 0.008704715
000120 a6 dd 1a bd fa 4a 1f be be 37 fe bd c2 a7 29 bc
       -0.037809037 -0.15555945 -0.12412976 -0.010354938
000130 19 e1 60 bd 32 b5 00 be d8 02 7b bc d0 60 13 bd
       -0.05490217 -0.1256912 -0.015320502 -0.035981
000140 4e e5 2c bd a0 dc 0d bd e3 46 29 bd b6 bf 3f bd
       -0.04221087 -0.034634233 -0.04132737 -0.04681369
000150 c9 db 01 bd 4d 3e dc bc 84 34 0e bd 3d f9 6e 3b
       -0.031703744 -0.026885176 -0.03471805 0.0036464476
000160 82 1b a0 bd 02 7d 39 3c 90 82 b1 3c d3 b4 c7 bd
       -0.07817747 0.011321308 0.021668702 -0.09751286
000170 bd b7 44 bd b8 70 04 bd 55 0f 13 3d c8 1a 63 bd
       -0.04802679 -0.03233406 0.035903294 -0.055445462
000180 5d 71 40 bd eb 16 20 3d 90 22 d2 bc bd b7 61 bc
       -0.04698311 0.039084356 -0.025651246 -0.013776717
000190 1e 38 98 bb 54 bd 56 bc d7 17 ed 3c e5 63 9b bc
       -0.0046453616 -0.013106663 0.028942032 -0.018968532
0001a0 65 c5 e8 bc 09 0c 10 bd cf 56 a1 3b fc 7e 90 3c
       -0.028414438 -0.035167728 0.0049236785 0.017638676
0001b0 60 ab 40 bc 02 a8 3c 3b 42 88 35 bc 86 09 f9 3c
       -0.011759609 0.0028786664 -0.01107985 0.030400049
0001c0 3d 21 19 39 7b 91 bc bc 55 f1 8c bd 8c fa dc bc
       0.00014603599 -0.02301859 -0.06881968 -0.026974939
0001d0 56 a6 1f 3c 5d a9 ac bc 5e 40 f7 bc ed 0e 18 3c
       0.009744247 -0.021076852 -0.03018206 0.009280902
0001e0 11 a5 84 bd 52 56 01 bd b9 52 a0 bc 15 97 c7 bc
       -0.064767964 -0.031576462 -0.019570695 -0.024364034
0001f0 ec 71 b6 b9 b8 e1 03 bd 5b 51 25 bd dd 40 3f bd
       -0.00034798624 -0.032197684 -0.04036079 -0.046692718
000200 20 12 0d 3b e8 bc 0e bd c3 ec 13 3d 7b 0f 4a bc
       0.0021525696 -0.034848124 0.036114465 -0.012332792
000210 f3 ae c5 3c d1 0e 07 bd 53 6f b0 3c 7e 2b 74 3c
       0.024131274 -0.032973114 0.021537459 0.0149029475
000220 90 3b 05 bb e8 15 f8 3c b9 42 90 bc 3a 07 c0 3c
       -0.0020329691 0.030283883 -0.01760994 0.023440946
000230 55 b2 43 3c 9a 91 1e 3c ad 6a 54 3b 18 cf 39 bd
       0.011944373 0.009678269 0.0032412217 -0.045363516
000240 83 65 16 3c bd 25 37 bd 19 34 16 bc aa 01 6a 3c
       0.009179476 -0.044713724 -0.0091676945 0.014282623
000250 63 64 1a 3d c8 73 95 bc ba f1 45 bd 85 aa 84 bc
       0.037693392 -0.018243685 -0.04832623 -0.016194591
000260 85 17 5b bc 77 eb 22 bd fa ac 1a bd fe f1 95 bc
       -0.013372307 -0.039775338 -0.03776262 -0.018303867
000270 b7 1d 78 bd 63 c1 5f bd a1 eb 75 bd b5 c8 66 bd
       -0.060575213 -0.054627787 -0.060039166 -0.056343753
000280 48 a3 84 3c 1a 27 1d bd 6c 24 07 3d ec 86 93 3c
       0.01619114 -0.03836737 0.03299372 0.018008672
000290 be 64 c3 3c 06 42 87 bc 2b 63 a7 3b 9d ae 22 bc
       0.023851749 -0.016510975 0.0051082573 -0.009929326
0002a0 e6 cf 0e 3d 19 29 c1 bb ff df 68 bc 0c 02 00 bc
       0.034866236 -0.005894792 -0.014213561 -0.007812988
0002b0 63 2b 82 3c 18 8b 8f bd 46 da 55 bd ed a7 a7 3c
       0.015889829 -0.07008952 -0.052210115 0.020465815
0002c0 7f b8 5c 3c cd 8d 8e bc 6f e0 bd bd 07 15 7e 3c
       0.013471722 -0.0174016 -0.09271323 0.015507943
0002d0 e4 2a 58 bc 04 16 03 bd 53 42 58 bc 92 7d a4 b9
       -0.01319382 -0.032003418 -0.013199407 -0.00031374075
0002e0 99 a3 19 bd 76 d5 0e bd 5b 1f 88 bd 90 c0 c4 3b
       -0.037509535 -0.03487154 -0.066466056 0.0060044006
0002f0 e5 c8 29 3d 9c c9 bf bd 50 b2 70 bd 8c 71 8e bc
       0.041451354 -0.09364626 -0.058763802 -0.017388128
000300 04 73 85 3c 87 04 12 3d 8f 2a 1c 3c 5e 19 13 bb
       0.016290195 0.03564885 0.009531631 -0.002244554
000310 aa f8 68 3c 4a de b3 3c 3a 1a a5 3c 21 f4 37 bd
       0.014219442 0.021956582 0.020154107 -0.044910554
000320 8a cf 21 3b cb fb 4b bd ad 48 59 bd af 83 1d bd
       0.0024690353 -0.049800675 -0.053047825 -0.03845566
000330 1a 2f 33 bc 8a ed 26 3d 93 22 4a bd 78 20 aa 3b
       -0.010936523 0.04075388 -0.04934938 0.005191859
000340 df 87 e4 bc ee 69 95 bd 7c 9a a9 bb a7 12 bc bc
       -0.02789682 -0.07295595 -0.0051758867 -0.022958113
000350 ff bd 9e bb bb 8c f5 bb 9a 92 47 bc 0a 6f 8f bc
       -0.0048444266 -0.007493583 -0.012180949 -0.017509002
000360 56 23 80 bd a1 1c 4f ba cd e3 94 3c 14 60 eb bc
       -0.0625674 -0.00079006894 0.01817503 -0.028732337
000370 54 01 eb 39 2b bd b7 bc 4c 9c 8b bc d4 da 66 bd
       0.00044823682 -0.02242907 -0.017042302 -0.056361035
000380 c5 6e 03 bd 5c 36 91 3c 7e 02 aa bc 3b 67 6b 3c
       -0.03208806 0.017726116 -0.020753141 0.014367874
000390 15 3e 3b ba ea 6f 27 bc 85 26 d5 bc 10 a9 24 bd
       -0.0007142735 -0.0102195535 -0.026019344 -0.040200293
0003a0 42 a4 8e bc 82 a3 f7 bc de a7 25 3c 4f a0 3a 3d
       -0.017412309 -0.030229334 0.010110823 0.04556304
0003b0 ca 4e 3d bd 03 23 3a bb 81 c2 4c bd 94 d7 c0 3a
       -0.046217717 -0.0028402216 -0.04999018 0.0014712685
0003c0 a3 3c b6 3c 91 79 3b bc 9f d8 10 3d 94 09 99 3c
       0.02224571 -0.011442558 0.035362836 0.018681325
0003d0 ec c2 27 3c 21 25 c4 bc fd 93 31 bd 21 53 36 bd
       0.010239344 -0.023943486 -0.043354023 -0.04451287
0003e0 4a 7e 8a bc b9 e5 93 bc 4c e4 e5 bc 1a 7f 37 bc
       -0.016905922 -0.018053876 -0.028062962 -0.011199737
0003f0 6d b2 1c bd 8e 2c 73 3c d2 0b 30 bd 78 fb d9 3c
       -0.038256098 0.014842166 -0.042980023 0.026609167
