log/ppo/ppo_1-car_4-frames_frame-skip-4_lr2e-4.pth (torch, 815871 bytes, 32 tensors)

actor.sigma_param f4 [3, 1]
0	0xbdcd5cfe	-0.100275025
1	0xbe263783	-0.16232114
2	0xbe2c32ca	-0.1681625

actor.preprocess.net.0.weight f4 [32, 12, 8, 8]
0	0xbcc81a06	-0.024426471
1	0xbd0a644d	-0.03378706
2	0xbc87ae17	-0.016562505
3	0x3c1f5f73	0.009727347
4	0x3cb1e19c	0.021714024
5	0x3a620fb6	0.0008623557
6	0xbc51fb78	-0.0128163025
7	0xbd047192	-0.03233487
8	0xbd1a93e9	-0.037738714
9	0x3be04559	0.0068442044
10	0xbcd7ad4e	-0.026327755
11	0x3c700d28	0.014651574
12	0x3cab2344	0.02089084
13	0xbd084168	-0.0332655
14	0xbccc2353	-0.024919188
15	0xbc870e13	-0.016486203
16	0x3cbbe839	0.02293788
17	0xbcaed474	-0.02134154
18	0xbca98766	-0.020694446
19	0xbc33c9bd	-0.010973391
20	0xbbcad253	-0.0061896234
21	0xbce8b8cc	-0.02840843
22	0xbc8e1f95	-0.017349044
23	0xbc7c517b	-0.015400286
24	0xbcc48c20	-0.023992598
25	0x3bfdbd2e	0.0077434992
26	0xbc59897a	-0.013277406
27	0xbccf4d27	-0.025305344
28	0xbcf4d5ae	-0.029887047
29	0xbcf3015d	-0.029663736
30	0xbd11a59f	-0.03555834
31	0x3c8b0cf8	0.016973957
32	0xbc813ae2	-0.015775148
33	0xbc964249	-0.018342154
34	0xbca910f0	-0.02063796
35	0xbc6dc82e	-0.014513059
36	0x3cbecdc3	0.023291474
37	0xbc8b97c4	-0.01704014
38	0xbd111625	-0.03542151
39	0x3afaa15b	0.0019121574
40	0x3cb12c78	0.02162765
41	0xbd10cbe3	-0.03535069
42	0xbd15d1f8	-0.036577195
43	0xbca3a018	-0.0199738
44	0x3c89dfec	0.016830407
45	0x3cad347b	0.021143189
46	0xbca12602	-0.019671444
47	0x3aea414e	0.0017872246
48	0xbc144f0d	-0.00905205
49	0xbd132ef4	-0.03593345
50	0x3b133ac9	0.0022465459
51	0x3bc27e79	0.005935487
52	0xbb16b0be	-0.002299353
53	0x3b7a3236	0.00381769
54	0xbc12e846	-0.008966511
55	0x3cbdf437	0.02318774
56	0x3cb3058c	0.02185323
57	0x3c4de67e	0.012567161
58	0x3b45f00f	0.00302029
59	0xbc298d96	-0.010348698
60	0xbbaa5026	-0.0051975427
61	0x3ca25806	0.019817363
62	0xbce6c2e6	-0.028169107
63	0xbb836a27	-0.004010457
64	0xbcdc60a8	-0.026901558
65	0xbd0ac371	-0.033877794
66	0xbb902aae	-0.004399619
67	0x3c8580fd	0.016296858
68	0x3c46314d	0.012096715
69	0xbc930d3e	-0.01795065
70	0xbcb7a7a2	-0.0224188
71	0xbc5e3e80	-0.013564706
72	0xbd06da87	-0.032923248
73	0x3c874fbd	0.016517514
74	0xbc8ef57a	-0.017451037
75	0xbc045a5f	-0.008078187
76	0xbc8b28ee	-0.01698729
77	0xbd1fd483	-0.039021026
78	0xbc00eed3	-0.00786944
79	0x3cd2f341	0.025750758
80	0xbca218a4	-0.01978714
81	0xbbb30a55	-0.005463878
82	0xbc574c88	-0.013140805
83	0xbc5d3d7f	-0.013503431
84	0xbca32ed3	-0.019919788
85	0x3bc12854	0.0058947
86	0xbd1b2532	-0.03787727
87	0x3ced75ce	0.028986838
88	0xbcfe7966	-0.031063747
89	0xbce9b34a	-0.028527874
90	0x3c2524ff	0.010079621
91	0x3ce7e746	0.028308522
92	0x3d0d4879	0.034492943
93	0xbccc95b6	-0.024973731
94	0x3c3d67dc	0.011560407
95	0xbcd4b6bc	-0.02596604
96	0xbd0ade0c	-0.033903167
97	0xbc961eda	-0.018325258
98	0xbcf2886e	-0.02960607
99	0x3b8eff4d	0.0043639303
100	0xbcdb3ad2	-0.026761446
101	0x3c55db88	0.013052829
102	0xbb049bec	-0.0020234538
103	0xbc342361	-0.010994763
104	0x3cae0b97	0.02124576
105	0xbc4742a1	-0.012161882
106	0xbae708e3	-0.001762655
107	0x3914b057	0.00014180072
108	0x3bf06b43	0.0073370053
109	0xbd09f7a1	-0.033683423
110	0xb7fa7b5a	-2.9859762e-05
111	0xbc353467	-0.011059857
112	0xbc7bdd57	-0.015372596
113	0xbc71fb28	-0.014769353
114	0xbcafedb1	-0.021475645
115	0x3ca62007	0.020278944
116	0x3a7a4b6d	0.00095479825
117	0x3baec2a2	0.0053332606
118	0xbd1fa1cf	-0.038972672
119	0x3b83d2ea	0.0040229456
120	0xbc664f57	-0.014057002
121	0xbc9dd128	-0.019264773
122	0xbcab4da3	-0.020911044
123	0xbc23d200	-0.009998798
124	0xbba7f3cc	-0.0051254984
125	0xbc2b625d	-0.010460463
126	0xbce792f5	-0.028268317
127	0x3b7fc922	0.0039029797
128	0x3c308c64	0.010775659
129	0xbc2b7283	-0.010464313
130	0x3c1a23eb	0.009407978
131	0x3bcf8d58	0.006333988
132	0x3b959afc	0.0045655947
133	0xbce7e2dc	-0.028306417
134	0xbcace811	-0.021106752
135	0xbc194988	-0.00935591
136	0xbcd76658	-0.026293918
137	0x3b78a8df	0.0037942452
138	0x3c986fae	0.01860794
139	0xbcd740cd	-0.026276017
140	0x3c41f367	0.011837817
141	0x3ca39ed3	0.019973194
142	0x3c06979b	0.0082148565
143	0xbc263916	-0.010145446
144	0xbc8092d8	-0.01569502
145	0xbbaae16e	-0.0052148616
146	0xbceb2a79	-0.028706776
147	0x3b583060	0.0032987818
148	0x3cb30a58	0.021855518
149	0x3ca12c25	0.01967437
150	0xbc6ae4ad	-0.014336747
151	0xbc40239b	-0.011727239
152	0xbb7cbc13	-0.003856425
153	0x3cc8e01a	0.024520922
154	0xbba787f8	-0.0051126443
155	0xbc99a8ce	-0.01875725
156	0x3d07175a	0.032981254
157	0x3ca72b83	0.02040649
158	0xbd121a7c	-0.03566979
159	0xbbb419d2	-0.005496242
160	0x3cc24581	0.023714783
161	0x3cb2f2fe	0.021844383
162	0xbcf1d748	-0.0295216
163	0xbcf6f532	-0.030146215
164	0xbc90fcae	-0.017698612
165	0xbc65cf68	-0.0140265
166	0x3cd292ef	0.025704829
167	0xbc512fd8	-0.0127677545
168	0x3cf63915	0.030056516
169	0x3cb1cfb5	0.021705488
170	0x3cdef430	0.027216047
171	0xbccd9558	-0.025095627
172	0xbce4d4e9	-0.027933555
173	0x3cab7cc2	0.020933513
174	0xbc6e8c2a	-0.014559785
175	0xbc2bb5c0	-0.010480344
176	0x3c3428cb	0.010996054
177	0x3cc244b6	0.023714405
178	0xbc29a937	-0.010355285
179	0xbcf462af	-0.029832212
180	0xbd10f119	-0.03538618
181	0x3c679cc0	0.014136493
182	0xbd1063fe	-0.03525161
183	0x3c2b62db	0.010460581
184	0xbc9643cb	-0.018342873
185	0x3caf4e51	0.021399649
186	0x3bb60bcf	0.005555607
187	0xbd00eb69	-0.031474505
188	0x3bafd35e	0.005365773
189	0xbd1199a7	-0.035546925
190	0xbcc61f5b	-0.024184873
191	0xbc6207a5	-0.013795768
192	0xbc5d4684	-0.013505582
193	0xbd14f846	-0.036369585
194	0xbd209cc0	-0.03921199
195	0xbd2a92e8	-0.041644007
196	0xb9b9b7f0	-0.00035422994
197	0xbd0b9c91	-0.03408486
198	0xbc560713	-0.01306321
199	0x3c876a91	0.016530307
200	0x3cd4b10d	0.02596333
201	0xbcf4d4e8	-0.029886678
202	0x3ce0e81a	0.027454425
203	0xbd159dd0	-0.036527455
204	0x3ccb5aa2	0.02482349
205	0xbc117b19	-0.008879446
206	0xbafb85d3	-0.0019189663
207	0x3cf72690	0.030169755
208	0x3c4064cc	0.011742782
209	0xbd0d7d21	-0.03454316
210	0x3b601f56	0.0034198365
211	0x3ced557a	0.028971422
212	0x3c59b718	0.013288282
213	0xbcd744d4	-0.026277937
214	0xbd0f9a28	-0.035059124
215	0x3c2b566d	0.010457617
216	0xbd0ae68c	-0.033911273
217	0x3ae5d04f	0.0017533394
218	0xbcfff50b	-0.031244775
219	0x3ca3568f	0.019938735
220	0x3bf871f9	0.007581946
221	0x3cf2ae8f	0.029624252
222	0xbc567637	-0.013089708
223	0xbc808497	-0.015688224
224	0x3b3a3de7	0.0028418244
225	0xbcf0d61d	-0.029398972
226	0xbcd24e42	-0.025672082
227	0xbcfa539c	-0.030557446
228	0xbd166c20	-0.03672421
229	0xbcda3a1b	-0.026639035
230	0xbce7897b	-0.028263798
231	0x3ba37431	0.0049882163
232	0x3bec83c8	0.007217858
233	0x3d0588d9	0.03260121
234	0x3c8ed5ee	0.017435994
235	0x3a968927	0.0011484966
236	0xbc5d70c2	-0.013515653
237	0x3cbaf9b3	0.022824144
238	0xbc0417e9	-0.008062341
239	0xbaf5bf7e	-0.0018749086
240	0xbd09dd7b	-0.033658486
241	0x3caf12a2	0.02137119
242	0xbd00baa5	-0.031427998
243	0xbd12fb3a	-0.03588412
244	0x3ceb50ca	0.028725047
245	0xbb0344b8	-0.0020029973
246	0xbc97a6a9	-0.018512087
247	0xbd2c6ba2	-0.042094834
248	0x3cb18145	0.021668086
249	0xbb10f08c	-0.0022116033
250	0x3c21eb1f	0.009882717
251	0x3c0577c8	0.008146234
252	0x3cad44ab	0.021150908
253	0xbd39a22e	-0.045320682
254	0x3b70c8c6	0.0036740764
255	0x3c626b84	0.013819579

actor.preprocess.net.0.bias f4 [32]
0	0xbd02d062	-0.03193701
1	0xba5816e5	-0.00082431576
2	0xbc802561	-0.015642824
3	0xbcec5aaf	-0.028851835
4	0x3c3973a5	0.011319076
5	0xbc82b0d4	-0.015953459
6	0xba1bf6e5	-0.0005949571
7	0xbd14c9f1	-0.0363254
8	0xbad84d56	-0.001650254
9	0xbd241c44	-0.04006602
10	0xba085d21	-0.00052018656
11	0xbbda82c5	-0.006668421
12	0xbce833c5	-0.028344998
13	0xbc9a3b05	-0.01882697
14	0xbd28b5dd	-0.041189063
15	0xbcf33e50	-0.029692799
16	0xbd411abf	-0.047144648
17	0xbd0ab12d	-0.033860374
18	0xbcef1a29	-0.029187279
19	0xbcb29734	-0.021800615
20	0xbbacdca7	-0.0052753272
21	0xba29efcc	-0.0006482571
22	0xb96862e3	-0.00022162082
23	0xbc6c4b50	-0.014422253
24	0xbab62b87	-0.001389847
25	0x3bffbb88	0.007804338
26	0x3bda99a6	0.0066711484
27	0x3c3d6196	0.011558911
28	0xb9d83706	-0.00041239726
29	0xba0078e5	-0.0004900827
30	0xbcbf5385	-0.023355255
31	0xbbbe65a2	-0.0058104554

actor.preprocess.net.2.weight f4 [64, 32, 4, 4]
0	0xbcabe0f8	-0.020981297
1	0x3d2fac37	0.042888846
2	0x3d0b9965	0.034081835
3	0xbd4a0c88	-0.049328357
4	0x3c1dcf2c	0.009631913
5	0x3d076bc0	0.033061743
6	0xbcb0b972	-0.021572802
7	0x3c059d0a	0.008155117
8	0xbd1b73f4	-0.03795238
9	0xbd209f46	-0.039214395
10	0x3bdf33d7	0.0068115997
11	0xbd584200	-0.052797318
12	0xbd403d6c	-0.046933576
13	0x3cea41d2	0.028595839
14	0x3ba24a74	0.004952723
15	0xbce39701	-0.027781965
16	0x3d1f309e	0.038864724
17	0x3d45debd	0.048308123
18	0x3b1fda92	0.0024391753
19	0x3b792ec9	0.003802227
20	0x3d021fd5	0.03176864
21	0x3c908533	0.01764164
22	0x3c337200	0.010952473
23	0x3d1c1be7	0.038112547
24	0x3b20c38f	0.0024530625
25	0x3b27ec98	0.0025623199
26	0xbd53b213	-0.051683497
27	0xbce24ac6	-0.027623545
28	0x3d423222	0.04741109
29	0xbc1a7e77	-0.009429566
30	0xbd3217eb	-0.04347984
31	0x3c910577	0.017702801
32	0x3d141656	0.036154114
33	0xbd68264e	-0.056677155
34	0x3d5cd21e	0.05391132
35	0x3c8f62d2	0.017503176
36	0x3cb54569	0.022127824
37	0xbd2360b6	-0.039887153
38	0xbd12cc00	-0.03583908
39	0xbd76ab9e	-0.06022226
40	0x3bf32b42	0.007420928
41	0xbc9e8039	-0.01934825
42	0xbd2c207e	-0.042023174
43	0x3a70326e	0.0009162788
44	0xbcf1968d	-0.029490734
45	0xbbae02bd	-0.005310385
46	0x3d4fecfe	0.050763123
47	0xbc7637b8	-0.015027933
48	0xbcf7c63a	-0.030245889
49	0x3cd3617e	0.025803324
50	0x3d266af0	0.040629327
51	0xbcf5a624	-0.029986449
52	0xbd240041	-0.040039305
53	0x3d262fed	0.04057305
54	0x3b9e24d3	0.004826167
55	0xbc6a47b6	-0.014299324
56	0xbb949f76	-0.004535611
57	0xbd07e336	-0.03317567
58	0x3ca91a86	0.02064253
59	0x3cf864f2	0.030321572
60	0xbb0d4b07	-0.0021559612
61	0x3d386cee	0.04502576
62	0xbcb25e9b	-0.021773627
63	0xbcf744d3	-0.030184185
64	0xbca6e7ec	-0.02037426
65	0x3cce98b6	0.025219303
66	0x3d54d4bb	0.051960688
67	0x3c81d90d	0.015850568
68	0x3d50e6b4	0.051001266
69	0x3c792ddb	0.015208687
70	0xbc3bbd63	-0.0114587275
71	0x3d8e9252	0.06961502
72	0x3d2b7bb4	0.04186602
73	0x3c73bc24	0.014876399
74	0x3a73ab08	0.00092952
75	0x3ca786ae	0.020449962
76	0xbc6ca2d4	-0.014443118
77	0xbc64594f	-0.013937308
78	0x3cfcb62c	0.030848585
79	0x3d02b94b	0.03191499
80	0xbd545a97	-0.051844206
81	0x3d0c6b42	0.034281977
82	0xbd01c55f	-0.03168237
83	0x3b39b1ec	0.002833481
84	0x3c877e79	0.016539799
85	0xbbb6c675	-0.005577857
86	0x3b50ad92	0.0031841737
87	0x3c9980cb	0.018738171
88	0xbd481325	-0.048846383
89	0x3a8d2ab7	0.0010770176
90	0x3d0c1451	0.034199063
91	0xbd887e71	-0.06664742
92	0x3a4c691e	0.0007797646
93	0x3cb461da	0.022019316
94	0x3a9c3910	0.0011918861
95	0xbbf393b9	-0.0074333814
96	0x3d846734	0.06464997
97	0x3c931b78	0.017957434
98	0xbd2402bc	-0.04004167
99	0x3cd2d2db	0.02573531
100	0x3ceaf469	0.028680997
101	0xbbc95a2f	-0.006144784
102	0xbce69ae7	-0.028150035
103	0x3d990386	0.07471375
104	0x3d80cbd1	0.06288875
105	0xbbc7c49f	-0.006096437
106	0xbd4372ab	-0.047716778
107	0x3c6a5199	0.014301681
108	0x3d2dbe95	0.04241808
109	0xbb05d07d	-0.0020418458
110	0xbc2558dd	-0.010091987
111	0x3d5bf64a	0.053701676
112	0xbcfc92bc	-0.030831687
113	0xbc82bf32	-0.01596031
114	0x3bdfb12d	0.006826541
115	0xbcd2585d	-0.0256769
116	0xbd89a401	-0.067207344
117	0xbbe7501a	-0.0070591094
118	0x3c7be20a	0.015373716
119	0xbc75ebdf	-0.015009849
120	0xbce8036a	-0.02832194
121	0x3cc073ad	0.023492659
122	0x3bc17980	0.0059043765
123	0x3cefed7d	0.029288048
124	0x3cb4077d	0.021976227
125	0x3b6e4c3e	0.0036361362
126	0xbd20ab18	-0.039225668
127	0xbd38cf4c	-0.04511957
128	0x3ce0edff	0.027457235
129	0x3c508f1d	0.012729433
130	0x3cddeff8	0.027091965
131	0xbbd98624	-0.0066383053
132	0xbc414213	-0.0117955385
133	0x3d6fd5e7	0.058553603
134	0x3d25218b	0.040315192
135	0x3c0cf24b	0.008602689
136	0x3d3a0378	0.045413464
137	0x3bd02707	0.0063523087
138	0x3d146c39	0.03623602
139	0x3d197240	0.037462473
140	0x3d106f3a	0.035262324
141	0x3d911f8f	0.070860974
142	0xbc133b28	-0.008986272
143	0x3cbe4148	0.023224488
144	0xbce19a8a	-0.02753951
145	0x3d24c16d	0.040223528
146	0x3d071f6f	0.03298896
147	0xbd350ee7	-0.044203665
148	0xbc9b9997	-0.018994136
149	0xbd291061	-0.041275386
150	0xbc161aef	-0.009161695
151	0xbd1404a6	-0.036137246
152	0xbba9aa96	-0.005177806
153	0xbc7b5244	-0.015339438
154	0xbc619cf4	-0.013770331
155	0xbcd93a80	-0.026517153
156	0xbd3c3a35	-0.045953948
157	0xbcfb0608	-0.030642524
158	0xbcd00495	-0.02539281
159	0xbc8172dc	-0.01580184
160	0x3c8833a1	0.016626181
161	0xbca26244	-0.019822247
162	0xbc089c31	-0.00833802
163	0x3cbc663b	0.022997966
164	0xbd25124f	-0.040300664
165	0x3cfe5eeb	0.03105112
166	0xbce7d206	-0.02829839
167	0x3cee855d	0.029116327
168	0xbce51312	-0.027963195
169	0x3bdad603	0.006678344
170	0xbd159eac	-0.036528274
171	0x3d231ec9	0.03982428
172	0xbc80077b	-0.015628567
173	0xbcf6ae1c	-0.030112319
174	0x3a90d88a	0.0011050862
175	0x3ca1dc0e	0.01975825
176	0x3cccbc29	0.024992066
177	0x3c166de6	0.009181475
178	0xbcea63e4	-0.028612085
179	0xbc4685bd	-0.012116847
180	0xbd3930d2	-0.045212574
181	0xbc48a8ce	-0.012247277
182	0xbccadc54	-0.024763264
183	0x3c8b762e	0.017024126
184	0xbca64023	-0.020294255
185	0x3c0d3334	0.008618165
186	0xbd14a837	-0.036293235
187	0x3ca0e9dc	0.019642763
188	0x3c389e72	0.011268245
189	0x3cfecd10	0.03110364
190	0xbd49885c	-0.049202308
191	0x3d2de11d	0.042451013
192	0xbcc10ebe	-0.0235666
193	0xbcab71dc	-0.020928316
194	0xbbe1d0bc	-0.006891338
195	0x3c7669cd	0.015039873
196	0xbd3ee82f	-0.046608146
197	0xbca5db69	-0.020246224
198	0xbd20e4a5	-0.039280552
199	0xbd3a1b68	-0.045436293
200	0x3d19f522	0.037587292
201	0xbc9c5548	-0.019083634
202	0xbcb8ace7	-0.022543384
203	0xbd4b50da	-0.049637653
204	0xbc7bd31b	-0.015370156
205	0x3cadd461	0.021219434
206	0xbb0b2bce	-0.0021235826
207	0xbc8eac72	-0.017416213
208	0x3bed5df2	0.007243865
209	0x3c93ddb1	0.018050047
210	0x3cb634b6	0.022241931
211	0xbd333f72	-0.043761678
212	0xbd2fefb3	-0.042953204
213	0xbc5220f8	-0.012825243
214	0x3c4dc520	0.012559205
215	0x3ccddddb	0.025130203
216	0x3afb1a60	0.0019157641
217	0xbc4fa86e	-0.012674434
218	0x3c6b65f5	0.01436757
219	0xbce949af	-0.028477518
220	0xbcb745b1	-0.022372099
221	0x3d02b5df	0.031911727
222	0xbd0c4afe	-0.034251206
223	0xbd6eeaf2	-0.05832953
224	0x3a262214	0.00063374755
225	0xbd54bf27	-0.05194011
226	0x3c489a41	0.012243808
227	0xbcfd5c92	-0.03092793
228	0xbd09f82e	-0.03368395
229	0xbc6be6b2	-0.014398264
230	0x3d30b32f	0.043139633
231	0xbc657d4c	-0.014006924
232	0x3b854799	0.004067373
233	0x3d0871be	0.033311598
234	0x3d3c1e79	0.0459275
235	0x3c2f65a5	0.010705386
236	0x3c65c4b2	0.014023947
237	0xbd2b2527	-0.041783478
238	0xbc5a85ef	-0.013337596
239	0x3d1bdeb3	0.03805418
240	0xbce2d0e2	-0.027687494
241	0x3b8271d0	0.0039808527
242	0x3d21ea87	0.039530303
243	0xbce3b34b	-0.027795454
244	0xbcf3797b	-0.029721012
245	0x3cb44fe3	0.02201075
246	0xbc82cb33	-0.015966034
247	0x3d36ebec	0.044658586
248	0x3d3e6dcb	0.046491425
249	0x3b6ec721	0.0036434608
250	0x3c8beb8d	0.017080093
251	0x3c945be9	0.018110232
252	0xbba39680	-0.004992306
253	0xbc803b0f	-0.015653161
254	0xbcd256b2	-0.025676105
255	0x3d09e348	0.033664018

actor.preprocess.net.2.bias f4 [64]
0	0xbc905f07	-0.017623438
1	0xbd734c94	-0.059399202
2	0xbb336b4a	-0.0027377182
3	0xbc95d181	-0.018288376
4	0xbcf402df	-0.029786525
5	0xbd60b2de	-0.05485808
6	0xbc91bead	-0.017791117
7	0xbd64eb7b	-0.055888634
8	0xbca52c28	-0.020162657
9	0xbca115ec	-0.019663773
10	0xb9c82d7b	-0.00038180858
11	0xbbb83674	-0.0056217257
12	0xbb099a4d	-0.0020996511
13	0xbd81012a	-0.0629905
14	0xbb00d637	-0.0019658932
15	0xbb1b3023	-0.0023679815
16	0xbc61d77b	-0.013784285
17	0x3ca0938c	0.019601606
18	0xbd99a4da	-0.07502146
19	0xbd916404	-0.070991546
20	0xb9dbe944	-0.00041944731
21	0xbd43bd50	-0.047787964
22	0xbc70d227	-0.014698542
23	0xbd75c75e	-0.060004584
24	0xbcdae0c3	-0.026718503
25	0xbd0ecaca	-0.034861363
26	0x3c12c420	0.008957893
27	0xbd05d360	-0.032672286
28	0xbd293d5a	-0.041318275
29	0xbd52dfc3	-0.051482927
30	0x3c3d828a	0.0115667675
31	0xbd74a191	-0.059724394
32	0xbaf5a15e	-0.0018740108
33	0xbd78fad2	-0.060786076
34	0xbd033890	-0.032036364
35	0xbd3fba20	-0.046808362
36	0x3afb3948	0.0019166851
37	0xbb800c52	-0.0039077187
38	0xbc2936d8	-0.010328017
39	0xbd0901ff	-0.03344917
40	0xbd8825d9	-0.06647844
41	0xbbada00a	-0.005298619
42	0xbd70f863	-0.05883063
43	0xbd143f46	-0.036193155
44	0xbcca8278	-0.024720415
45	0xbc5d4640	-0.013505518
46	0xbacc9d76	-0.0015610892
47	0xbb82c8fc	-0.0039912444
48	0xbd07ee50	-0.033186257
49	0xbd159490	-0.036518633
50	0xbcce93cf	-0.025216965
51	0xbd8533a8	-0.06503993
52	0xbd2902a5	-0.041262288
53	0xbcdcc460	-0.026949108
54	0xbcdc50c0	-0.026893973
55	0xbd05c16a	-0.032655157
56	0xbb1643c5	-0.0022928577
57	0xbd7628f7	-0.06009766
58	0xbcfac725	-0.030612538
59	0xbd636a22	-0.055521138
60	0xbb084ad4	-0.0020796554
61	0xbb56ee15	-0.0032795717
62	0xbbec6e78	-0.0072153173
63	0xbc751794	-0.014959235

actor.preprocess.net.4.weight f4 [64, 64, 3, 3]
0	0xbd043b5e	-0.03228318
1	0x3c95c006	0.01828004
2	0x3cfb76e6	0.030696344
3	0xbc7d2e03	-0.015452865
4	0xbd121954	-0.035668686
5	0x3d04983a	0.032371737
6	0x3c02e21b	0.007988478
7	0xbb7ea4bd	-0.0038855516
8	0xbc927765	-0.017879197
9	0x3bd8ca16	0.0066158874
10	0x3be7dd71	0.0070759584
11	0xbc5b7bc9	-0.013396212
12	0x3d05701b	0.032577615
13	0x3cd9d548	0.026590958
14	0xbc156190	-0.009117499
15	0x3d29ff27	0.041503098
16	0xbc591889	-0.013250479
17	0x3c008a8a	0.00784553
18	0x3c7aa544	0.015298191
19	0x3ccb8511	0.024843724
20	0x3cdfaf62	0.027305309
21	0xbc65b61f	-0.014020472
22	0x3b5052be	0.00317876
23	0xbd0e9c25	-0.03481688
24	0x3c353115	0.011059065
25	0x3d0c82c6	0.034304403
26	0xbd13ea6a	-0.036112227
27	0xbd101af5	-0.03518196
28	0x3b338997	0.0027395242
29	0xbcf92c05	-0.030416498
30	0x3d229131	0.039689247
31	0xbcdaf5f5	-0.02672861
32	0xbbd440ef	-0.0064774673
33	0x3c32f11c	0.010921743
34	0xbcd0ff41	-0.02551234
35	0x3c8cc855	0.01718537
36	0xbcdb6a08	-0.026783958
37	0xbc2a6be2	-0.010401698
38	0xbb8fb66e	-0.004385761
39	0x3c57167b	0.013127918
40	0x3d16ec14	0.036846235
41	0x3d1496c9	0.036276612
42	0xbd29c661	-0.041448954
43	0xbd101807	-0.035179164
44	0x3c40409f	0.011734157
45	0x3cd304b0	0.025759071
46	0xbb13022c	-0.0022431714
47	0xbbd91a45	-0.006625446
48	0xbd082258	-0.033235878
49	0xbce4548d	-0.027872348
50	0x3c5af0c5	0.013363068
51	0x3c76dd71	0.015067444
52	0x3cfa0479	0.03051971
53	0x3d1e7236	0.03868314
54	0xbcde0a99	-0.027104663
55	0xbd2d2778	-0.04227397
56	0x3d10e466	0.035374068
57	0xbd1a89e1	-0.037729148
58	0xbb897485	-0.0041947984
59	0x3cbe13f4	0.023202874
60	0x3c261901	0.010137797
61	0x3cc1ca7d	0.023656124
62	0xbcbb48ef	-0.022861926
63	0x3ca6d4e9	0.020365195
64	0x3c11efbf	0.008907258
65	0xbc3629c2	-0.011118354
66	0x3d11ebe7	0.035625365
67	0x3cf6a589	0.03010823
68	0x3cad0cdc	0.021124296
69	0xbd0f38bd	-0.03496622
70	0xbc45e0e6	-0.012077546
71	0xbd10e840	-0.03537774
72	0x3c7e2527	0.0155117875
73	0xbd45b7e0	-0.04827106
74	0xbd0afa84	-0.033930317
75	0xbc157161	-0.00912127
76	0x3b068e70	0.0020531677
77	0x3c4c8e7a	0.012485141
78	0x3cddf350	0.02709356
79	0x3bb09d69	0.0053898585
80	0x3aa36c64	0.0012468216
81	0x3cfb3ce3	0.030668681
82	0xbcc2000a	-0.02368166
83	0xbd22db1e	-0.039759748
84	0xbd0b52e0	-0.034014583
85	0xbca25001	-0.01981354
86	0xbc42564f	-0.011861398
87	0x3c50cd2c	0.012744229
88	0xbca16610	-0.019701988
89	0xba5a75f1	-0.00083336147
90	0x3c88209f	0.016617117
91	0x3cdc1417	0.026865048
92	0x3a7628e1	0.00093902467
93	0x3d201608	0.03908351
94	0x3c76878c	0.015046965
95	0xbbddc55b	-0.0067679114
96	0xbcd38c3f	-0.02582371
97	0xbcf3a2af	-0.02974066
98	0xbc630c87	-0.013857967
99	0xbd1899b1	-0.037255947
100	0xbd29945a	-0.041401245
101	0x3d18a0a6	0.03726258
102	0xbd2f736a	-0.042834677
103	0x3b9bb739	0.0047520665
104	0x3ce4b748	0.027919427
105	0xbc4d85cc	-0.012544107
106	0xbc2db154	-0.01060136
107	0x3cd2bb74	0.02572415
108	0xbc608922	-0.01370457
109	0xbd42a999	-0.047525022
110	0xbcc92d9a	-0.024557877
111	0xbd2123ce	-0.039340787
112	0xb9961886	-0.000286285
113	0xbc46c606	-0.012132173
114	0xbca7b418	-0.020471618
115	0xbbfd5aad	-0.0077317567
116	0x3cbf730f	0.023370294
117	0xbc724493	-0.014786857
118	0x3c9316e9	0.01795526
119	0x3c03186e	0.00800143
120	0x3d0d034e	0.03442698
121	0x3cdcc39c	0.026948743
122	0x3c6d2e5c	0.014476385
123	0x3ccab168	0.024742797
124	0xbcca6b21	-0.024709286
125	0x3d0d09bb	0.034433108
126	0xbcb13c61	-0.021635236
127	0xbbea657c	-0.007153211
128	0xbca13599	-0.019678878
129	0x3b372117	0.0027943307
130	0xbcae82dc	-0.021302633
131	0xbd2177ae	-0.039420776
132	0x3b3df914	0.0028987573
133	0xbc8942e6	-0.016755532
134	0xbba48a7b	-0.005021391
135	0xbbfcd521	-0.0077158366
136	0xbcd8c612	-0.026461635
137	0xbc174819	-0.009233498
138	0x3cf0c724	0.029391833
139	0x3ce87c14	0.028379478
140	0xbd074801	-0.033027653
141	0x3c5cebbe	0.01348394
142	0x3b98c0bd	0.004661648
143	0x3d03aa4a	0.032144822
144	0x3c90bd95	0.017668525
145	0xbcd8903e	-0.026435968
146	0xbc2b4b6f	-0.0104549965
147	0x3c907fa6	0.017638993
148	0xbc412d17	-0.011790535
149	0xbce67578	-0.028132185
150	0x3ceeb9c1	0.029141309
151	0x3cfc57e0	0.03080362
152	0xbd2e95c0	-0.04262328
153	0xbcc6bfa6	-0.024261307
154	0xbce8f35d	-0.028436357
155	0xbc4aac24	-0.012370143
156	0xbccdf82a	-0.025142748
157	0x3cbbcd39	0.022925006
158	0x3cedf30e	0.029046562
159	0xbd13d21c	-0.036089048
160	0x3c788afc	0.015169855
161	0xbb800bd5	-0.0039076605
162	0xbcbf88b9	-0.023380624
163	0x3c9dc594	0.019259252
164	0xbc1b0035	-0.009460499
165	0xbcc60e4b	-0.024176737
166	0x3d1aca57	0.037790623
167	0x3ca56849	0.020191329
168	0xba451a00	-0.0007518828
169	0xbd02fe3a	-0.03198073
170	0x3cc9567e	0.024577376
171	0x3cd61a9b	0.026135733
172	0xbc65a32b	-0.014015953
173	0xbbea8ab7	-0.0071576494
174	0x3c133f1b	0.0089872135
175	0x3d009b8b	0.031398337
176	0x3cc153ab	0.023599466
177	0xbccf6e87	-0.025321258
178	0xbd061a65	-0.032740016
179	0xbcd827aa	-0.0263861
180	0x3cd6034a	0.026124615
181	0xbcf34747	-0.029697074
182	0xbcc256a2	-0.02372295
183	0x3c9e7c6d	0.01934644
184	0xbcdcee75	-0.026969174
185	0x3cf194ed	0.029489959
186	0x3d217dbb	0.039426547
187	0x3d240ad0	0.040049374
188	0x3c995bd3	0.018720543
189	0xbc9b8ecc	-0.01898899
190	0xbc0d0c5a	-0.008608902
191	0x3cc91472	0.024545882
192	0xbbf339ac	-0.0074226465
193	0xbb2ad460	-0.0026066527
194	0x3cb757d8	0.022380754
195	0x3c0b19d6	0.0084900465
196	0x3c470c1d	0.012148884
197	0x3c5be7eb	0.013421993
198	0xbcfc9bb1	-0.030835958
199	0xbd0b0ab2	-0.033945747
200	0xbcb8417f	-0.022492168
201	0x3cb38266	0.021912765
202	0xba135bc4	-0.0005621279
203	0xbd02f553	-0.03197224
204	0x3c6d888c	0.014497887
205	0xbb7f7a79	-0.0038982912
206	0x3b873fc0	0.0041274726
207	0x3c661124	0.014042173
208	0x3c63d8d1	0.0139066735
209	0x3d0059c2	0.0313356
210	0x3b4d0c8c	0.0031287996
211	0x3c7c0bba	0.015383655
212	0x3bda40da	0.006660563
213	0xbd1c8cd4	-0.03822024
214	0x3c015014	0.007892627
215	0xbcf03f1a	-0.029326964
216	0x3cfcd3be	0.030862685
217	0x3bbab920	0.005698338
218	0xbcab09e8	-0.020878747
219	0xbca98add	-0.020696098
220	0xbd0bb9b6	-0.034112655
221	0x3d0c572a	0.034262814
222	0xbb498813	-0.0030751273
223	0x3cfb1824	0.03065116
224	0x3c494f6a	0.012287
225	0xbce0e25b	-0.027451685
226	0xbb9509e0	-0.0045482963
227	0x3c3a4f96	0.011371514
228	0x3cfdc160	0.030975997
229	0xbd1c73a4	-0.03819622
230	0x3be3f48a	0.0069566416
231	0x3d0974bb	0.03355859
232	0xbce1e514	-0.027575053
233	0x3b9d4774	0.0047997776
234	0x3cec4f70	0.028846473
235	0xbd31a095	-0.043366034
236	0x3bd791a7	0.0065786424
237	0xbd21e7c4	-0.03952767
238	0xbd0f68b1	-0.03501195
239	0xbcc43c05	-0.0239544
240	0xbd2e16d7	-0.04250225
241	0x3d15e3fa	0.03659437
242	0xbcb02e4c	-0.021506451
243	0x3cd692a5	0.026192972
244	0x3cf53166	0.029930782
245	0x3c310059	0.010803306
246	0xbcc06a4b	-0.023488184
247	0x3c8568c2	0.016285304
248	0xbcf9e17d	-0.030503029
249	0x3cca479e	0.024692353
250	0x3cb3ba9c	0.021939568
251	0x3d294f98	0.041335672
252	0xbd0277d9	-0.031852577
253	0x3bd5a073	0.006519371
254	0x3cdac088	0.026703134
255	0x3d10d45b	0.035358768

actor.preprocess.net.4.bias f4 [64]
0	0xbd0f899a	-0.035043336
1	0xbbe15dfa	-0.006877658
2	0x3cd4db42	0.025983457
3	0x3c87b2e6	0.016564798
4	0xbb8ed5cb	-0.004358982
5	0xbbb380f4	-0.005478019
6	0x3cd3a993	0.025837695
7	0x3d59ebe1	0.053203467
8	0xba97dc0d	-0.0011585966
9	0xbcd495b4	-0.02595029
10	0xbcb30616	-0.021853488
11	0x3d56e696	0.052465998
12	0xbcbd0939	-0.023075687
13	0x3c9c5e92	0.019088063
14	0x3d2f011f	0.04272568
15	0xbc3d5ed2	-0.011558251
16	0xbca11e5c	-0.019667797
17	0xbd39506c	-0.045242712
18	0x3ce2b078	0.027672037
19	0xbc107d64	-0.008818958
20	0xbcb6dfd3	-0.022323525
21	0xbc836372	-0.01603863
22	0xbcc89c25	-0.024488518
23	0xbb85ce73	-0.0040834486
24	0x3d09255a	0.033482887
25	0xbcf89b76	-0.030347567
26	0x3c81bb1f	0.015836297
27	0x3b5adba8	0.0033395085
28	0x3d2e7cf5	0.042599637
29	0xbc386022	-0.011253389
30	0x3ce8d58a	0.028422136
31	0xbc912f34	-0.017722704
32	0x3d21aee5	0.039473433
33	0x3a8d9610	0.0010802168
34	0xbce7a3f2	-0.028276417
35	0xbc88687a	-0.01665138
36	0xbd0f5604	-0.03499414
37	0xbd20ba13	-0.039239954
38	0xbacf2c62	-0.0015806074
39	0x3d0493e2	0.032367595
40	0xbce69486	-0.028146993
41	0x3c934c88	0.017980829
42	0xbd36dab8	-0.04464218
43	0x3c8e4f8b	0.017371913
44	0x3d0d7543	0.034535658
45	0xbc70bf08	-0.014693983
46	0xbcd77e4f	-0.026305346
47	0xbcf5c7c5	-0.030002484
48	0xbb93c29e	-0.004509284
49	0x3cbc68ba	0.022999156
50	0xbd42025a	-0.047365524
51	0x3cbac7d6	0.022800367
52	0x3d51fe0f	0.05126768
53	0x3d5ff6db	0.05467878
54	0x3c0cc8b6	0.008592775
55	0xbbbc5c0b	-0.005748277
56	0x3b37e307	0.0028058903
57	0xbca3f74b	-0.02001538
58	0xbd516daa	-0.051129974
59	0xbca29ad4	-0.019849218
60	0xbc5475c8	-0.012967534
61	0xbc24ad60	-0.010051101
62	0xbcd33c08	-0.025785461
63	0xbb3c3090	-0.002871547

actor.mu.model.0.weight f4 [3, 3136]
0	0xbc68c0e4	-0.014206145
1	0x3b811ba9	0.003940065
2	0xba62582e	-0.00086343556
3	0x3c160236	0.009155801
4	0xbca018f2	-0.019543145
5	0xbc150266	-0.00909481
6	0xbca87f19	-0.020568417
7	0xbcc766db	-0.024341037
8	0x3a29bfd0	0.00064754207
9	0xbd23d2d5	-0.039995987
10	0x3bb70173	0.0055848896
11	0xbcabfbb6	-0.020994049
12	0x3c743c2e	0.014906926
13	0x3c237b57	0.009978137
14	0xbb2c738f	-0.0026313995
15	0xbd037779	-0.03209636
16	0x3c9a3fff	0.018829344
17	0x3cf0efb4	0.029411174
18	0xbd00ac84	-0.031414524
19	0xbbf51572	-0.007479363
20	0x3c7dcf5e	0.015491335
21	0x3cbe134a	0.023202557
22	0xbc2f0c83	-0.010684135
23	0xbc760f45	-0.015018289
24	0x3cfbdf14	0.03074602
25	0x3bcf224d	0.0063212276
26	0xbc6b12f7	-0.014347783
27	0x3c8e4129	0.017365055
28	0xbb7b7f66	-0.0038375496
29	0xbbea4644	-0.0071494896
30	0x3b39ddae	0.002836089
31	0xbc54c67d	-0.012986776
32	0xbc7c654a	-0.015405009
33	0x3c099bf3	0.008398998
34	0xbc395038	-0.01131063
35	0xbb50a710	-0.0031837858
36	0xbd129bcb	-0.035793107
37	0x3c2815b8	0.010259084
38	0xbc845ee8	-0.016158536
39	0xbc53a70d	-0.012918246
40	0xbba398ab	-0.0049925647
41	0xbbc11f24	-0.005893605
42	0x3938aea9	0.00017612673
43	0x3bdf7136	0.0068189157
44	0x3d14a6b7	0.036291804
45	0x38cca0e7	9.7574484e-05
46	0xbc375bc8	-0.011191316
47	0xbc1a7ab9	-0.009428673
48	0x3ca8b955	0.020596186
49	0x3c1d9d9f	0.009620099
50	0xbc480266	-0.012207603
51	0x3c6af360	0.014340252
52	0x3c431a66	0.011908149
53	0x3b72bdfb	0.0037039507
54	0xbbb86091	-0.005626746
55	0x3bf81591	0.0075709303
56	0x3b99eac7	0.004697177
57	0xbcc1cb93	-0.023656642
58	0xbb0b5fa1	-0.0021266716
59	0x3c060450	0.008179739
60	0xbbd762f4	-0.0065730754
61	0x3ca63910	0.020290881
62	0x3ca5e7ba	0.020252097
63	0xbcb0405d	-0.021515066
64	0x3bee8c2f	0.007279895
65	0xbb3166f8	-0.002706943
66	0xbc90aab4	-0.017659523
67	0xbc3cff08	-0.011535414
68	0x3ca3f9e0	0.02001661
69	0x3b20dce3	0.0024545721
70	0xbc090549	-0.0083630765
71	0x3b01a442	0.0019781743
72	0x3ccf73e8	0.025323823
73	0xbc7eae4e	-0.015544487
74	0x3a39186b	0.00070608285
75	0xbb32cf5a	-0.0027284236
76	0x3ca61804	0.020275123
77	0x3c6341a9	0.013870635
78	0xbd05f2bf	-0.032702204
79	0x3cb14178	0.021637663
80	0x3d0dbbf4	0.034603074
81	0xbc8b1621	-0.016978325
82	0xbd03e455	-0.032200176
83	0x3c1231ba	0.008922989
84	0x3ba8ade6	0.0051476834
85	0x3b5bdd8e	0.0033548805
86	0xbc4d2504	-0.012521032
87	0x3b490894	0.003067528
88	0x3b2b831b	0.0026170674
89	0x3ca1f81b	0.019771626
90	0x3a0588f8	0.00050939573
91	0x3c5ad741	0.013356985
92	0xbb891bdf	-0.0041842307
93	0xbc78d945	-0.01518852
94	0xbc2f09c8	-0.010683484
95	0x3ba73de2	0.0051038126
96	0x3c6813cc	0.014164876
97	0x3c3f7c9e	0.011687426
98	0x3b10d92f	0.0022102108
99	0xbc8343f3	-0.016023612
100	0xbc63d6e1	-0.013906212
101	0xbc8030ba	-0.015648235
102	0x3c044e5a	0.008075321
103	0x3c954cfa	0.018225182
104	0xbca5a834	-0.020221807
105	0x3d1842d2	0.0371731
106	0xbca409ea	-0.020024259
107	0xbca2f53f	-0.019892333
108	0x3bdff26d	0.0068343193
109	0xbcd8237b	-0.026384106
110	0xbb248546	-0.0025103851
111	0x3bf3eb12	0.007443794
112	0x3d0aa1fc	0.033845887
113	0xbc3865d2	-0.011254745
114	0x3d0af60b	0.03392605
115	0xbc2c8639	-0.010530048
116	0x3c43e68e	0.011956824
117	0xbc22a3d0	-0.009926751
118	0xbc30be76	-0.010787597
119	0x3a033d9f	0.00050064357
120	0x3b174ce5	0.0023086604
121	0x3c075f94	0.008262534
122	0x3c587af7	0.013212911
123	0xbc49f34f	-0.012326076
124	0x3c3e2183	0.0116046695
125	0x3c9aac28	0.018880919
126	0xbce015f6	-0.027354222
127	0xbbb82cb4	-0.0056205634
128	0x3c865580	0.016398191
129	0x3cde42b1	0.02713141
130	0xbd25a0ef	-0.04043668
131	0x3b4cd8f1	0.0031257237
132	0xbc2cd5e7	-0.010549045
133	0xbc923f95	-0.017852584
134	0xbceb3b0c	-0.02871468
135	0x3b309d1e	0.0026949118
136	0xbb9029dc	-0.0043995213
137	0x3b65bd22	0.003505536
138	0x3c890222	0.01672465
139	0x3aeaead7	0.0017922771
140	0xbc867953	-0.016415274
141	0xbcbd96b5	-0.023143152
142	0xbb70f367	-0.0036766173
143	0xbc70649a	-0.014672423
144	0xbcc21359	-0.023690866
145	0xbca250f3	-0.01981399
146	0xbcaba482	-0.020952467
147	0x3bafe060	0.0053673238
148	0xbc11d1bb	-0.008900101
149	0x3cf5a03a	0.029983629
150	0xbc3fbedf	-0.011703222
151	0x3cb93b42	0.022611264
152	0xbccc70c7	-0.02495612
153	0xbbe628df	-0.007023915
154	0x3c920e06	0.017828953
155	0xbb3536da	-0.0027651102
156	0xbcaec30b	-0.021333238
157	0x3a8a5c26	0.0010556027
158	0xbd03e480	-0.032200336
159	0xbcb3c090	-0.021942407
160	0x3c0b5a92	0.00850548
161	0xbce8711b	-0.028374245
162	0x3c9efa57	0.01940648
163	0xbd18c346	-0.037295602
164	0x3be80cf5	0.0070816227
165	0x3c190044	0.009338442
166	0xbc344108	-0.011001833
167	0x3c17f672	0.009275066
168	0x3c871666	0.016490173
169	0xbcd0bca4	-0.025480576
170	0xbb6a6a7f	-0.0035769043
171	0xbc84c935	-0.016209224
172	0xbc53543b	-0.0128985
173	0x3bd4cda1	0.0064942394
174	0xbc25388a	-0.010084281
175	0x3d0a369c	0.033743486
176	0x3bd6a6f9	0.0065506664
177	0xbc3a0a88	-0.01135505
178	0x3c1c46ab	0.009538333
179	0x3b65b3da	0.0035049827
180	0x3b2db103	0.0026503212
181	0xbc465657	-0.012105546
182	0xbc4e235c	-0.0125816725
183	0x3c57087c	0.013124581
184	0xbae692aa	-0.0017591317
185	0x3b931bca	0.0044893967
186	0xbc603d5d	-0.013686505
187	0xbc588029	-0.0132141495
188	0xbbedfe56	-0.007262985
189	0xbc0f0e64	-0.008731458
190	0x3c9a9383	0.018869167
191	0x3ca9e5eb	0.020739516
192	0x3c6d70b5	0.0144922035
193	0xbcd0efc3	-0.025504952
194	0xbc1a6e0e	-0.009425653
195	0x3c01ee1a	0.007930303
196	0xbbd4b3f5	-0.006491179
197	0x3ad2396b	0.001603884
198	0xbc3d2ec4	-0.011546794
199	0x3c5e84ef	0.0135814985
200	0xbb57223e	-0.0032826806
201	0x3badf170	0.0053083226
202	0xbc18122f	-0.009281679
203	0x3bc00df7	0.0058610397
204	0xbc9a58bf	-0.018841146
205	0xbc961375	-0.018319825
206	0x3d0bc631	0.034124557
207	0xbb78a5db	-0.0037940654
208	0x3cd28e1c	0.025702529
209	0x3caa3d9a	0.020781327
210	0xbcc1499e	-0.023594674
211	0x3c8ef981	0.017452957
212	0xbb8abfcc	-0.0042342898
213	0x3c9d39b1	0.019192548
214	0x3ca9b773	0.020717358
215	0xbc18299d	-0.009287265
216	0x3c1b7f51	0.009490804
217	0xbcb784f6	-0.022402268
218	0xbbb3785b	-0.005476994
219	0xbc74ab30	-0.014933392
220	0x3c57ca9c	0.013170864
221	0xbb512c98	-0.003191745
222	0xbc9067fd	-0.01762771
223	0x3c4cf277	0.01250898
224	0x3bbc929a	0.005754781
225	0x3c27cb31	0.010241316
226	0x3cb9d2bc	0.022683494
227	0xbbad840f	-0.0052952836
228	0x3c31baaf	0.0108477315
229	0xbc5751a9	-0.013142028
230	0xbc9d49fb	-0.019200316
231	0xbba4455c	-0.005013151
232	0xbd05a9de	-0.0326327
233	0x3d04f44e	0.03245955
234	0x3b84cd85	0.00405282
235	0x394137c1	0.00018426684
236	0xbd07a12b	-0.033112686
237	0x3bf25148	0.0073949434
238	0xbcb56eb6	-0.022147518
239	0xbb88dc5c	-0.0041766595
240	0xbbce2672	-0.006291204
241	0x3ccd114c	0.025032662
242	0x3c57368f	0.013135566
243	0xbc9013f4	-0.01758764
244	0x3c8442f6	0.01614521
245	0x3ce65e52	0.028121147
246	0xbca8556f	-0.02054855
247	0x3bfca617	0.007710229
248	0x3c6ab0bb	0.014324362
249	0x3bb57645	0.0055377805
250	0x3d415e3e	0.047209017
251	0x3cbe4e60	0.023230731
252	0xbc026323	-0.007958206
253	0x3b9119d8	0.0044281296
254	0xbb241ab6	-0.0025040335
255	0xbc083cdd	-0.008315292

actor.mu.model.0.bias f4 [3]
0	0xbc82dcb7	-0.015974386
1	0x3d11fd0c	0.035641715
2	0xbdba304b	-0.090912424

critic.preprocess.net.0.weight f4 [32, 12, 8, 8]
0	0x3acacd6d	0.0015472599
1	0x3b748825	0.0037312594
2	0xbd08e5fc	-0.033422455
3	0x3b0288f9	0.0019918068
4	0x3ca661d7	0.020310326
5	0x3ccc6aef	0.024953334
6	0x3c6c131b	0.014408852
7	0xbb25699e	-0.0025239955
8	0x3cf2310b	0.029564401
9	0xbcabd9b7	-0.020977838
10	0xbd17fa03	-0.037103664
11	0xbcc17d14	-0.023619212
12	0xbca8e9f1	-0.020619364
13	0x3c9756ce	0.018474009
14	0x3cd9b9ec	0.026577912
15	0xbcdb5a06	-0.026776325
16	0xbcda8ed0	-0.026679426
17	0xb8b46cb3	-8.603316e-05
18	0x3ca391e9	0.019967036
19	0xbc9feed7	-0.019523067
20	0xbbdc8bee	-0.006730548
21	0x3b86c176	0.004112418
22	0x3c00a7ad	0.007852477
23	0xbd028564	-0.031865492
24	0x3c849f2d	0.016189182
25	0x3cb6397b	0.022244206
26	0x3c762841	0.015024246
27	0x3ca33baf	0.01992592
28	0xbc2556c4	-0.010091487
29	0xbc1941b0	-0.00935404
30	0xbcb24caa	-0.021765072
31	0xbcde196f	-0.027111737
32	0xbc9d734a	-0.019220013
33	0xbd284149	-0.041077886
34	0xbcc96820	-0.024585783
35	0xbd1714a1	-0.036884908
36	0xbce5c7a7	-0.028049303
37	0x3c2dec04	0.010615353
38	0x3c841320	0.0161224
39	0x3ac075d0	0.0014683548
40	0xbcf979d9	-0.03045361
41	0xbb16c3d7	-0.0023004913
42	0xbd267e5e	-0.040647857
43	0x3cd3be78	0.025847659
44	0x3ce1997a	0.027539004
45	0x3cb6e28f	0.022324828
46	0xbce28eac	-0.027655922
47	0x3b0b4bbb	0.0021254856
48	0x3c7bd23a	0.015369946
49	0x3cbe57e7	0.023235274
50	0x3c5fc8a0	0.013658673
51	0xbbf23abb	-0.007392255
52	0xbd0dd2a7	-0.03462472
53	0xbc65e448	-0.014031477
54	0x3aed2cb9	0.0018094993
55	0xbcd898dc	-0.026440077
56	0x3ca706d4	0.020388998
57	0x3b97046a	0.0046086805
58	0xbc9d9e2e	-0.019240465
59	0xbd2913e5	-0.04127874
60	0xbc9a9e4b	-0.018874308
61	0xbcd71325	-0.026254246
62	0xbd200094	-0.03906305
63	0xbcf9a993	-0.030476367
64	0xbd1016b2	-0.035177894
65	0xbc6cc64c	-0.0144515745
66	0x3be71159	0.0070516285
67	0x3cb02f8f	0.021507053
68	0xbc322006	-0.010871893
69	0x3c822ca5	0.015890429
70	0xbcad45f6	-0.021151524
71	0xbcb1812c	-0.02166804
72	0x3aa20e71	0.0012363923
73	0xbc0f1084	-0.008731965
74	0xbc9245f4	-0.017855622
75	0xbd22ec32	-0.039776035
76	0xbb726845	-0.003698842
77	0xbd14dfdb	-0.036346298
78	0xbcff17b1	-0.031139227
79	0xbc958efe	-0.01825666
80	0xbc3653d5	-0.011128386
81	0xbc98847d	-0.018617863
82	0x3c6388d1	0.0138876
83	0xbc2f832f	-0.010712429
84	0xbd1d8545	-0.038457174
85	0xbad81088	-0.0016484419
86	0x3b6dfd52	0.003631432
87	0xbc95376e	-0.018214907
88	0xbd1ad1e5	-0.037797827
89	0xbd0e1fd8	-0.034698337
90	0x3ba05967	0.00489347
91	0x3cc46941	0.02397597
92	0x3b0bcc75	0.0021331583
93	0xbd03a704	-0.0321417
94	0xbbea71bc	-0.0071546715
95	0xbbc3373a	-0.0059575113
96	0xbd1d7637	-0.038442817
97	0x3c2de139	0.010612779
98	0xbd024c4e	-0.03181105
99	0xbb403657	-0.0029329264
100	0xbd2ce7a5	-0.0422131
101	0x3c753ea2	0.014968546
102	0xbd18513f	-0.037186857
103	0xbcf60789	-0.03003289
104	0x3b3df85d	0.0028987147
105	0xbd0acf6b	-0.033889215
106	0xbbb8c7a0	-0.0056390315
107	0xbcbad14d	-0.02280488
108	0x3c35fc6a	0.0111075435
109	0xbc038ab1	-0.008028672
110	0x3bf023db	0.007328493
111	0xbcece888	-0.028919473
112	0xbd1b230e	-0.037875228
113	0xbc4556eb	-0.012044649
114	0xbc8a860e	-0.016909625
115	0x3cbd15df	0.023081718
116	0xbd2567ac	-0.040382072
117	0x3a421a3f	0.00074044237
118	0xbc4b5bb3	-0.0124119995
119	0x3cc084dc	0.023500852
120	0xbc7589b5	-0.014986445
121	0xbc32dbdb	-0.010916675
122	0x3b9dfb1a	0.0048211934
123	0xbbc0518d	-0.0058690966
124	0xbc7f83e9	-0.015595415
125	0x3c6911cb	0.014225434
126	0x3cff0873	0.031131959
127	0x3c8fc09d	0.0175479
128	0xbb3c8c90	-0.0028770305
129	0xbd1724b6	-0.036900245
130	0xbd1d593a	-0.03841517
131	0xbc3bd315	-0.0114639
132	0xbb311298	-0.002701914
133	0xbc0c7917	-0.008573792
134	0xbc3d8566	-0.011567449
135	0xbd20aa74	-0.039225057
136	0x3c434b57	0.011919818
137	0xbd0d6344	-0.034518495
138	0xbccc6a7c	-0.02495312
139	0xbccee3ef	-0.025255172
140	0x3c57f20c	0.013180267
141	0xbccc355f	-0.024927793
142	0xbcaafbbc	-0.02087199
143	0xbbac0749	-0.005249892
144	0xbcd07665	-0.02544708
145	0xbc2b9e79	-0.010474795
146	0xbc6f87e1	-0.014619798
147	0xbca77795	-0.020442763
148	0x3ce9c05d	0.028534109
149	0xbc84f179	-0.016228424
150	0x3c9972f4	0.018731572
151	0xbd355b40	-0.044276476
152	0x3ce1fac4	0.027585395
153	0xbd1e8cc8	-0.03870848
154	0xbd0373c1	-0.032092813
155	0xbd0652f6	-0.03279396
156	0xbd198595	-0.03748091
157	0xbd1b6507	-0.037938144
158	0xbc9bca5c	-0.01901739
159	0xbccdd4b7	-0.025125844
160	0xbb2af2a1	-0.002608456
161	0xbbde114c	-0.0067769643
162	0x3c079fb8	0.008277826
163	0x3cf33c4e	0.029691841
164	0xbca6ef62	-0.020377818
165	0xbcf2a64d	-0.029620314
166	0xba6e2d4a	-0.0009085728
167	0x3bd6788e	0.006545133
168	0x3c8938aa	0.016750652
169	0xbc8a29b8	-0.016865596
170	0xbc704fba	-0.014667446
171	0xbcbe5482	-0.023233656
172	0x3c8d2083	0.017227417
173	0xbd26ea7e	-0.040750973
174	0xbbf380e0	-0.0074311346
175	0xb8d27f3e	-0.00010037281
176	0xbb88cc42	-0.00417474
177	0xbcadf38c	-0.021234296
178	0xbd1f8378	-0.038943738
179	0xbbdefe48	-0.006805215
180	0xbcf9ba24	-0.030484267
181	0xbcb1679d	-0.021655852
182	0x3cc45f51	0.023971232
183	0xbc1bce50	-0.009509638
184	0x3c1a2ee8	0.009410597
185	0x3c1a8c5a	0.0094328765
186	0x3cca404f	0.024688868
187	0xbc06e670	-0.0082336515
188	0xbc943b23	-0.018094605
189	0xbb55fb11	-0.0032650868
190	0xbbe493af	-0.006975613
191	0x3af7e534	0.0018912912
192	0xbcb1e3a3	-0.021714991
193	0xbb746c58	-0.0037296023
194	0x3c130775	0.008973946
195	0xbd20f1f6	-0.039293252
196	0xbccc9037	-0.02497111
197	0xbd20bac0	-0.0392406
198	0xbcb8f97c	-0.0225799
199	0xbb9162cf	-0.0044368277
200	0x3ca3b0ed	0.019981826
201	0xbc2e7391	-0.01064767
202	0xbccc6206	-0.024949085
203	0xbd452ed8	-0.048140377
204	0xbcf558b6	-0.029949527
205	0x3a16a4f3	0.0005746625
206	0x3c82f60f	0.01598647
207	0xbc84ede1	-0.01622671
208	0xbb2ddfba	-0.0026531057
209	0xbc8c32d1	-0.017114075
210	0xbd23b505	-0.039967556
211	0xbd456983	-0.048196327
212	0x3c49e68d	0.012323034
213	0x3bed5994	0.0072433446
214	0xbd298289	-0.041384254
215	0xbd3291cb	-0.04359607
216	0x3cdb3998	0.026760861
217	0xbc2de679	-0.010614031
218	0xbc07143b	-0.008244569
219	0x3d048225	0.032350678
220	0x3cb002d2	0.02148572
221	0x3bd0829c	0.006363226
222	0x3cd029cb	0.025410553
223	0xbd29c353	-0.04144604
224	0xbd187d82	-0.03722907
225	0xbcde9232	-0.02716932
226	0xbc2730fd	-0.010204551
227	0x3ce4f066	0.027946662
228	0x3cd49142	0.02594817
229	0x3c580e4b	0.013187001
230	0x3b868be1	0.0041060303
231	0xbcccb1a3	-0.024987048
232	0x3c54e09b	0.012993003
233	0x3cafd0d1	0.021461876
234	0x3c511ccd	0.012763214
235	0x3c125523	0.008931431
236	0xbd19194c	-0.03737764
237	0x3cc0cd66	0.023535442
238	0x3cbb69e9	0.02287765
239	0x3cbeeb23	0.023305481
240	0x3cd2d2a9	0.025735216
241	0xbcdd5ecc	-0.027022742
242	0xbcdc9b82	-0.02692962
243	0xbd272b4c	-0.040812775
244	0xbd217f7a	-0.03942821
245	0x3ca3730a	0.019952316
246	0xbbb0b807	-0.0053930315
247	0xbd08cddb	-0.033399444
248	0x3cb84e4d	0.022498274
249	0x3bef8aa8	0.0073102303
250	0xbd0c8abe	-0.034312002
251	0xbba43ceb	-0.005012145
252	0xbc15f138	-0.009151749
253	0xbcdb6346	-0.026780736
254	0xbd15e40f	-0.036594447
255	0x3ca8c5f6	0.020602208

critic.preprocess.net.0.bias f4 [32]
0	0xbc9d0321	-0.019166531
1	0xbac02f63	-0.001466256
2	0xbc126781	-0.00893581
3	0xbba58f57	-0.005052488
4	0xbd0114d2	-0.031513996
5	0x3c8e4bc4	0.017370112
6	0xbcb76d21	-0.022390904
7	0xbc2bc3e2	-0.010483714
8	0x3d2a2ded	0.041547704
9	0xbc4e9b10	-0.012610212
10	0xbb106d63	-0.0022037856
11	0xbc6b8206	-0.014374262
12	0xbc347ea9	-0.011016526
13	0x39f4dee1	0.00046705364
14	0x3ad32768	0.0016109766
15	0x3b9147c8	0.004433606
16	0xbd0088a8	-0.031380326
17	0xbb637399	-0.0034706353
18	0xbb884abc	-0.0041592997
19	0xbd3ad696	-0.0456148
20	0xb99ffbb4	-0.00030514377
21	0xbb9b412f	-0.004737995
22	0xbca59fee	-0.020217862
23	0xbcfc7b3a	-0.030820478
24	0x3a15cf77	0.00057148136
25	0xbb65fa01	-0.003509164
26	0x3ca3cc65	0.019994924
27	0xbb7807b0	-0.003784638
28	0x3afe56e3	0.0019404556
29	0x3b408c7c	0.002938061
30	0xbbc77b61	-0.006087706
31	0x3cb2454e	0.021761563

critic.preprocess.net.2.weight f4 [64, 32, 4, 4]
0	0xbc8effd6	-0.017455976
1	0xbc0adfeb	-0.008476238
2	0xbd344a8a	-0.0440164
3	0x3ccb5f93	0.024825847
4	0xbd08da25	-0.033411164
5	0xbc5ec6e6	-0.013597226
6	0xbc98e773	-0.018665051
7	0xbce62877	-0.028095467
8	0xbd05db9e	-0.032680146
9	0x3b8cda52	0.0042984867
10	0x3c0bf93c	0.008543309
11	0xbcae1480	-0.02125001
12	0xbd4a39ad	-0.04937141
13	0x3b9543be	0.0045551946
14	0xbcb517ac	-0.022106014
15	0x3c0058a3	0.007833633
16	0xbd00fb7f	-0.031489845
17	0xbcdf26b4	-0.027240135
18	0xbcb4d342	-0.022073392
19	0xbc89b830	-0.01681146
20	0xbce29bb6	-0.02766214
21	0xbc014834	-0.00789075
22	0xbd02d70f	-0.031943377
23	0xbd26ca5b	-0.040720325
24	0xbb576fcb	-0.003287303
25	0x3ca8f774	0.020625807
26	0xbcdf7f6a	-0.027282435
27	0x3d236a5c	0.039896354
28	0xbd402558	-0.046910614
29	0xbcbca894	-0.023029603
30	0x3ca3a48d	0.019975925
31	0xbc4654db	-0.012105192
32	0x3c338820	0.010957748
33	0xbc473682	-0.012158992
34	0xbd1d3826	-0.038383625
35	0xbcb480cb	-0.02203407
36	0x3c9843f8	0.018587098
37	0xbd56002f	-0.05224627
38	0xbd2e6d62	-0.042584784
39	0x3b1783a1	0.0023119228
40	0x3cfbbdbf	0.030730126
41	0xbd866574	-0.065623194
42	0x3bad6b6e	0.0052923476
43	0x3cc9b86a	0.024624068
44	0x3be31bca	0.006930803
45	0xbd0c25d0	-0.03421575
46	0x3c4c2972	0.012461053
47	0xbbe5de48	-0.0070150234
48	0x3ca8a766	0.020587634
49	0xbd26d7ee	-0.04073327
50	0x3c158320	0.009125501
51	0xbb17f602	-0.0023187404
52	0xbb0708fc	-0.002060472
53	0xbbd947ef	-0.0066308896
54	0xbc9ebc80	-0.019376993
55	0xbcb4aa17	-0.022053761
56	0x3bf77796	0.0075520976
57	0x3be8827d	0.0070956335
58	0xbc6c8999	-0.014437103
59	0x3c02ef75	0.007991661
60	0xbcf7f008	-0.030265823
61	0xbcd0e129	-0.02549799
62	0x3c971df9	0.01844691
63	0xbb4e0acd	-0.0031439543
64	0xb9d4ebf5	-0.00040611593
65	0xbd3cd63d	-0.04610275
66	0xbcb6a181	-0.022293808
67	0x3be9d163	0.0071355565
68	0x3c61ac6e	0.013774021
69	0xbd65243f	-0.05594277
70	0x3c4a68a2	0.012354048
71	0xbc9b63f8	-0.018968567
72	0xbc8bfa59	-0.017087149
73	0xbc4933e6	-0.01228044
74	0x3d07e1b2	0.033174224
75	0xbc313193	-0.010815042
76	0x3c4c0256	0.012451729
77	0x3aab9482	0.0013090523
78	0xbd1907f6	-0.037361108
79	0x3a70b344	0.0009181986
80	0xbcffab9a	-0.031209756
81	0x3d218dba	0.0394418
82	0xbc8f7774	-0.017513014
83	0xbb5ee680	-0.00340119
84	0x3ab2dd1d	0.0013646219
85	0xbd09c2ca	-0.03363303
86	0xba76d4cf	-0.0009415866
87	0xbc8a3f93	-0.016876018
88	0x3cdb215a	0.026749302
89	0xbd075e9d	-0.033049215
90	0xbd364995	-0.044503767
91	0xbad0d273	-0.0015931859
92	0xbc740714	-0.014894266
93	0x3c7a15ed	0.015264017
94	0xbc322a33	-0.010874319
95	0x3cefc9d4	0.029271044
96	0x3c5c08a7	0.013429797
97	0xbd401279	-0.046892617
98	0xbccf6149	-0.025314944
99	0xbd35d388	-0.044391185
100	0xbcd40564	-0.025881477
101	0xbb83edf7	-0.0040261704
102	0x3b850ba9	0.004060228
103	0xbccf4f12	-0.025306258
104	0x3d0925d7	0.033483353
105	0xbd05523f	-0.03254914
106	0x3d02fea8	0.03198114
107	0x3d02f9fc	0.031976685
108	0x3d018179	0.031617615
109	0xbd557712	-0.052115507
110	0xbc915e2b	-0.017745098
111	0x3d043b0c	0.032282874
112	0xbd004ef9	-0.031325314
113	0xbd3cfa76	-0.046137296
114	0x3b9f1a19	0.004855406
115	0x3ce3e236	0.027817827
116	0x3cd78db2	0.026312683
117	0xbc99cb87	-0.018773807
118	0xbcc9ac78	-0.024618372
119	0x3c12705f	0.008937924
120	0xbb9fd889	-0.004878108
121	0xbceb2fed	-0.028709376
122	0xbcec2e28	-0.028830603
123	0xbc928a10	-0.017888099
124	0xbcfea181	-0.03108287
125	0xbd40e0c8	-0.047089368
126	0xbd5c002f	-0.053711113
127	0xbcb893d4	-0.022531427
128	0xbd1140e5	-0.03546228
129	0x3c6e0f23	0.014529976
130	0x3d180a93	0.03711946
131	0x3ce61dd2	0.028090391
132	0x3ce4cd9d	0.027930075
133	0xbd0a03e7	-0.033695128
134	0xb994c55d	-0.00028375807
135	0xbb671f7c	-0.003526657
136	0xbc452ce7	-0.012034631
137	0x3c3c1fff	0.011482238
138	0xbd2952ff	-0.041338917
139	0x3b8513a0	0.0040611774
140	0x3bbca3fe	0.005756854
141	0xbd120881	-0.03565264
142	0xbc27aa76	-0.010233512
143	0xbb470cd0	-0.0030372627
144	0xbd0bf301	-0.034167293
145	0xbb5ba70b	-0.0033516313
146	0xbd2e5ad9	-0.042567108
147	0xbd366c77	-0.044537034
148	0x3ac48ae6	0.0014995008
149	0xbb5b4c0e	-0.003346208
150	0xbc29d4c5	-0.01036567
151	0x3c95c4b7	0.018282278
152	0xbd5ad996	-0.053430162
153	0x3c6a85d8	0.014314137
154	0xbb85abdf	-0.0040793265
155	0xbc81057a	-0.015749682
156	0x3b2487e8	0.002510542
157	0xbc214d3e	-0.009845076
158	0x3cd4abf3	0.025960898
159	0x3c657238	0.014004283
160	0xb81ecba5	-3.7859794e-05
161	0xbd236716	-0.039893232
162	0x3c2c91ae	0.01053278
163	0xbab65aa5	-0.0013912512
164	0xbc1abd6d	-0.009444577
165	0xbcc2169b	-0.02369242
166	0x3cedd5c3	0.029032594
167	0xbbd81667	-0.0065944674
168	0x3cb9bef7	0.022674067
169	0xbca28da7	-0.019842936
170	0xbd2102b9	-0.039309237
171	0x3c4ee7e9	0.012628534
172	0xbc914fd7	-0.017738266
173	0x3cc1dbc4	0.023664363
174	0xbc7436e0	-0.014905661
175	0xbcf8b2ed	-0.030358756
176	0xbbe4ddff	-0.006984472
177	0x3c76bf1e	0.015060214
178	0xbd036946	-0.03208282
179	0xb98efd18	-0.0002727292
180	0xbc89fc66	-0.016843986
181	0xbbebaf1b	-0.007192505
182	0xbd19a080	-0.03750658
183	0xbd03f543	-0.03221632
184	0xbcc30cf7	-0.023809893
185	0x3d16159c	0.036641702
186	0x3cb5f948	0.022213593
187	0xbcef35e4	-0.029200502
188	0xbaa0b0bb	-0.0012259701
189	0xbd232291	-0.039827887
190	0xbcbd80f9	-0.023132788
191	0x3cf9c6fb	0.03049039
192	0x3d32c883	0.043648254
193	0x3bdcd0d3	0.006738761
194	0x3c21dff7	0.009880058
195	0xbc92194e	-0.017834332
196	0x3c223c88	0.009902127
197	0x3cbea4f6	0.023272019
198	0x3c9693a6	0.018380951
199	0x3c2c923d	0.010532913
200	0x3c019f1f	0.007911473
201	0xbcdb7383	-0.026788479
202	0xbb80ef3e	-0.00393477
203	0xbd01e882	-0.031715877
204	0xbc7597b0	-0.014989778
205	0xbc9e1fd9	-0.019302296
206	0x3c8ee38e	0.01744249
207	0x3d55d37b	0.052203637
208	0x3b32477b	0.002720325
209	0x3c4b9ae4	0.0124270655
210	0xbc0e4906	-0.008684402
211	0x3d0b6d69	0.03403989
212	0x3d6369a7	0.05552068
213	0xbd5531e0	-0.052049518
214	0xbcdd93c0	-0.027047992
215	0xbbd73ff1	-0.0065689017
216	0xbcfc03ac	-0.03076347
217	0x3cc17ab1	0.023618074
218	0xbc972dc5	-0.018454442
219	0x3c310f9c	0.010806944
220	0x3d1adba5	0.037807126
221	0x3cafc046	0.021453988
222	0x3c8c58c0	0.017132163
223	0x3c98ac0c	0.018636726
224	0x3c12f22b	0.00896887
225	0xbcd8187b	-0.02637886
226	0x3c67fece	0.014159871
227	0xbb5e6828	-0.0033936594
228	0x3c4bbe6f	0.01243554
229	0x3d044d49	0.032300267
230	0xbc876cbc	-0.01653134
231	0xbcbafc41	-0.022825362
232	0x3d055a77	0.032556977
233	0xbc3164d2	-0.01082726
234	0xbbbfbcf7	-0.005851384
235	0xbc1f0f13	-0.009708184
236	0xbcc5d3a1	-0.024148764
237	0x3c4fecaa	0.012690702
238	0x3ca796e9	0.020457702
239	0x3c8a48e3	0.016880458
240	0x3c35f4d7	0.011105738
241	0xbd509e9c	-0.05093251
242	0xbd6d8172	-0.057984777
243	0xbc8f04ac	-0.017458282
244	0x3cc82198	0.024430081
245	0x3ac8b364	0.0015312252
246	0xbbe8fbf9	-0.0071101156
247	0xbbcd37ee	-0.006262771
248	0xbc8adadf	-0.016950069
249	0xbd3b9256	-0.045793854
250	0xbc830c25	-0.015997002
251	0x3bcbcff5	0.006219859
252	0xbccdc348	-0.025117531
253	0xbd2b9acf	-0.041895684
254	0xbb8eab8f	-0.0043539475
255	0xbc868a9b	-0.016423514

critic.preprocess.net.2.bias f4 [64]
0	0xbd8fbc5a	-0.07018347
1	0xbd833abd	-0.06407688
2	0xbc701cc8	-0.0146552995
3	0x3d7bd922	0.06148637
4	0xbc5e94db	-0.013585295
5	0x3d78e5a0	0.060765862
6	0x3ca97540	0.020685792
7	0xbd5c0d26	-0.053723477
8	0xbcbd6358	-0.02311866
9	0x3c9c32e0	0.019067228
10	0xbd4ab606	-0.049489997
11	0xbd8d1711	-0.06889165
12	0x3bb7e4d3	0.005611995
13	0xbc0a62aa	-0.008446375
14	0x3d1161c1	0.035493616
15	0xbb4456b3	-0.0029958903
16	0xb9df0eba	-0.00042544847
17	0x3d4a7d90	0.049436152
18	0xbd147b01	-0.03625012
19	0xbd17e8ca	-0.03708724
20	0xbc2f8f02	-0.010715248
21	0xbd61ecee	-0.055157594
22	0xbbd78d39	-0.0065781143
23	0x3cbfd423	0.023416584
24	0xbb25e532	-0.0025313613
25	0xbb136925	-0.002249309
26	0x3c00ad74	0.007853854
27	0x3ca9ca67	0.020726396
28	0x3c24cc15	0.010058423
29	0x3c1d21f9	0.009590619
30	0x3a9ad231	0.001181191
31	0xbd10997f	-0.035302635
32	0xbd211e92	-0.039335795
33	0xbd229a07	-0.039697673
34	0xbd623d4e	-0.055234246
35	0xbd0a1c29	-0.033718262
36	0xbd62e278	-0.05539176
37	0xbc179260	-0.009251207
38	0x3b43d83e	0.002988353
39	0xbc4775c0	-0.01217407
40	0xbc95e9a8	-0.018299893
41	0x3c59747c	0.013272401
42	0xbd936909	-0.07197768
43	0xbd684146	-0.056702875
44	0x3d15375a	0.03642974
45	0xbd0f6808	-0.03501132
46	0x3c5fd7b9	0.013662272
47	0x3d1b886e	0.037971906
48	0x3d1ab175	0.037766892
49	0x3d2fb110	0.04289347
50	0xbd43e92b	-0.04782979
51	0xbd24727f	-0.040148254
52	0x3ce9006f	0.02844259
53	0xbd8c411d	-0.06848357
54	0x3ce9f56b	0.028559407
55	0x3d01e79f	0.03171503
56	0xbaae667e	-0.0013305692
57	0xbd6909b7	-0.05689403
58	0x3c85757d	0.016291374
59	0x3cb60b24	0.02222211
60	0xbd7ba430	-0.06143588
61	0x3cdd9e88	0.027053133
62	0xbc7911af	-0.01520197
63	0x3cb361fe	0.021897312
