log/ppo/ppo_1-car_4-frames_lr1e-4_700-steps-per-collect_32-checkpoints_051-turn-rate_penalties.pth (torch, 817999 bytes, 32 tensors)

actor.sigma_param f4 [3, 1]
-0.41846856 -0.13255027 -1.1122792
00000000: 8341 d6be 42bb 07be 2a5f 8ebf

actor.preprocess.net.0.weight f4 [32, 12, 8, 8]
0.010149639 0.0028296718 -0.004642758 -0.035642624 -0.07491427 -0.10101028 -0.016807389 0.046004508
-0.032926045 -0.009606552 -0.0028168203 -0.044798616 -0.061007634 -0.08806302 -0.06663583 0.00363814
-0.016966153 -0.0966483 -0.05134004 -0.044743203 -0.044200663 -0.08644055 -0.039684847 -0.007485102
0.020567145 -0.090321295 -0.02094312 -0.003395899 -0.08424695 -0.03591344 -0.0624875 -0.014593272
-0.060050577 -0.084863186 -0.07796792 -0.009989081 -0.074225865 0.025757685 -0.05441191 -0.016614864
-0.058977477 -0.06820292 -0.09206381 -0.027516585 -0.05000776 0.0029869701 -0.085672535 -0.008717109
-0.055781964 0.001145755 -0.0659314 -0.07137154 -0.007897649 0.031033283 -0.03518941 -0.042110946
-0.1437244 -0.028729806 -0.121718414 -0.047394905 -0.012373776 -0.0011918285 0.011618043 0.0069961143
0.017236292 0.022965383 0.043715067 -0.065596536 -0.016033443 -0.11851809 -0.060074642 0.011999491
-0.043417275 -0.036961667 -0.0040611187 -0.0519655 0.017292876 -0.08549224 -0.018537376 0.026639186
-0.016679792 -0.051880952 -0.065485306 -0.014659549 -0.0723483 -0.06323852 -0.06467196 -0.009788485
-0.005116965 -0.13534507 -0.06689467 -0.019431552 -0.06442767 0.037989404 -0.052276235 -0.0019584268
-0.034908514 -0.120735325 -0.084232666 -0.026164139 -0.04261532 0.013609217 -0.07226283 -0.009059385
-0.067590505 -0.044089623 -0.071027964 -0.055585343 -0.04859112 0.030579422 -0.08819293 0.002548561
-0.050315693 -0.038244266 -0.11084229 -0.05966171 -0.042104803 0.043861173 -0.0050682425 -0.03886442
-0.09932694 0.0052334988 -0.12776086 -0.061476603 -0.012986911 -0.0030191692 -0.006420224 -0.052132264
-0.032182734 -0.0059501426 0.022612784 -0.008241024 0.008228586 -0.057705436 -0.05366641 0.004540917
-0.023947798 0.03689493 0.029368285 0.012085265 0.05523558 -0.09243586 -0.009337309 0.03621628
-0.016503587 -0.11269104 -0.012942001 -0.042408854 -0.031713624 0.038175944 -0.03198678 0.03807246
0.041173004 -0.09164617 -0.050782308 0.011216453 -0.030668275 0.008472275 -0.012074727 0.0034545613
-0.03255246 -0.088579684 -0.12257576 -0.0068224533 -0.032022227 0.059819482 -0.020982433 0.025050925
-0.026610104 -0.09594768 -0.11295255 -0.05252095 -0.014324335 0.06619065 -0.02345088 0.032889746
-0.06853042 -0.040298704 -0.07854195 -0.025110187 0.008226081 0.030141853 0.03515133 -0.00082157983
-0.15552786 -0.050850563 -0.14112577 -0.069882885 0.0033325462 0.0005631248 0.03469948 -0.021707645
0.022004273 0.069993064 0.15114516 -0.04847459 0.0055493712 -0.09313834 -0.096048534 -0.036197063
-0.019460507 0.023519 0.07722019 -0.022378344 -0.0010935741 -0.032573603 -0.08144385 -0.02750972
0.010333413 -0.07523039 0.015725091 -0.008482852 -0.020207766 0.02125759 -0.040713634 0.016035737
0.0064565497 -0.096610434 -0.074658856 -0.0483142 -0.027081484 0.01925353 -0.062292956 0.052004024
0.0058080303 -0.08560825 -0.09135725 -0.06523482 -0.03640932 -0.00085215026 -0.11810239 0.051091567
-0.05043784 -0.041888013 -0.11569222 -0.023411479 -0.028002013 -0.010930972 0.0064171036 0.062246006
-0.049472302 -0.036844067 -0.14195026 -0.020354163 -0.02633829 0.056760926 0.027524741 0.009471019
-0.12309265 -0.062509365 -0.15498926 0.010805966 -0.031230941 0.06695151 0.1597979 -0.053201463
00000000: ac4a 263c 0472 393b 4722 98bb 00fe 11bd
00000010: a76c 99bd 7ade cebd a6af 89bc 396f 3c3d
00000020: 76dd 06bd cd64 1dbc 679a 38bb c17e 37bd
00000030: 24e3 79bd 625a b4bd 5e78 88bd dc6d 6e3b
00000040: 9afc 8abc 8bef c5bd ef49 52bd a644 37bd
00000050: c10b 35bd be07 b1bd 948c 22bd 9645 f5bb
00000060: 6e7c a83c 5ffa b8bd e890 abbc bb8d 5ebb
00000070: aa89 acbd f919 13bd e5f2 7fbd 9e18 6fbc
00000080: 98f7 75bd c0cc adbd a5ad 9fbd 3ea9 23bc
00000090: bb03 98bd c801 d33c 06df 5ebd e51b 88bc
000000a0: 5e92 71bd f9ad 8bbd f38b bcbd 766a e1bc
000000b0: f0d4 4cbd 0bc1 433b 1575 afbd 35d2 0ebc
000000c0: a17b 64bd 292d 963a 0b07 87bd 3e2b 92bd
000000d0: 2465 01bc 8339 fe3c c522 10bd 877c 2cbd
000000e0: 7d2c 13be c55a ebbc 8147 f9bd 2921 42bd
000000f0: 61bb 4abc 2137 9cba 9b59 3e3c a93f e53b
00000100: 2033 8d3c e621 bc3c 920e 333d 7a57 86bd
00000110: 9158 83bc 9db9 f2bd d410 76bd 8399 443c
00000120: 50d6 31bd 1e65 17bd 2213 85bb c7d9 54bd
00000130: caa9 8d3c 8e16 afbd b2db 97bc 6c3a da3c
00000140: 0fa4 88bc 1f81 54bd 291d 86bd 9b2e 70bc
00000150: 582b 94bd 3283 81bd bc72 84bd e25f 20bc
00000160: 37ac a7bb e697 0abe 1300 89bd eb2e 9fbc
00000170: a7f2 83bd c79a 1b3d 9b1f 56bd f358 00bb
00000180: 3bfc 0ebd 1544 f7bd 2d82 acbd 2d56 d6bc
00000190: 678d 2ebd 31f9 5e3c 89fe 93bd d16d 14bc
000001a0: e46c 8abd 5297 34bd 1c77 91bd 75ad 63bd
000001b0: 7b07 47bd b281 fa3c 7f9e b4bd c205 273b
000001c0: d417 4ebd 05a6 1cbd 4801 e3bd d65f 74bd
000001d0: 1676 2cbd c6a7 333d 8013 a6bb 4c30 1fbd
000001e0: ec6b cbbd c57d ab3b bed3 02be e4ce 7bbd
000001f0: 0ec7 54bc 41dd 45bb be60 d2bb a488 55bd
00000200: 0bd2 03bd 6af9 c2bb 723e b93c 5c05 07bc
00000210: 31d1 063c 895c 6cbd 4fd1 5bbd f9cb 943b
00000220: 2c2e c4bc 231f 173d c295 f03c 4601 463c
00000230: b43e 623d 034f bdbd 83fb 18bc 8657 143d
00000240: 8832 87bc 8fca e6bd b00a 54bc e8b4 2dbd
00000250: 25e6 01bd 615e 1c3d 9204 03bd def1 1b3d
00000260: 06a5 283d fdb0 bbbd 1c01 50bd 37c5 373c
00000270: 093c fbbc 4ccf 0a3c 13d5 45bc ec65 623b
00000280: ba55 05bd 4469 b5bd 0009 fbbd e38e dfbb
00000290: bd29 03bd 4605 753d 5ae3 abbc 9937 cd3c
000002a0: 6ffd d9bc 3880 c4bd ab53 e7bd 3520 57bd
000002b0: 9eb0 6abc f78e 873d 0f1c c0bc 66b7 063d
000002c0: ad59 8cbd 4110 25bd 9ada a0bd e1b3 cdbc
000002d0: afc6 063c 0cec f63c d7fa 0f3d 4a5f 57ba
000002e0: b242 1fbe ae48 50bd 4683 10be c21e 8fbd
000002f0: d966 5a3b aa9e 133a 0b21 0e3d 3bd4 b1bc
00000300: 4e42 b43c 8658 8f3d ccc5 1a3e 4b8d 46bd
00000310: 80d7 b53b 50bf bebd 18b5 c4bd 5f43 14bd
00000320: a46b 9fbc ebaa c03c 9e25 9e3d ca52 b7bc
00000330: 4256 8fba e66b 05bd 09cc a6bd 105c e1bc
00000340: 7a4d 293c 6412 9abd e8d1 803c a9fb 0abc
00000350: c28a a5bc 6624 ae3c 57c3 26bd 615d 833c
00000360: 7791 d33b b1db c5bd bee6 98bd 1ce5 45bd
00000370: fdd9 ddbc 94b9 9d3c e626 7fbd 2c02 553d
00000380: 4a51 be3b 6153 afbd 8319 bbbd d599 85bd
00000390: f021 15bd d662 5fba aadf f1bd 6445 513d
000003a0: e997 4ebd c492 2bbd 0bf0 ecbd 6ec9 bfbc
000003b0: 7a64 e5bc d217 33bc 9146 d23b abf5 7e3d
000003c0: 78a3 4abd cee9 16bd 695b 11be c6bd a6bc
000003d0: 66c3 d7bc 257e 683d 917b e13c 552c 1b3c
000003e0: 0018 fcbd e904 80bd 81b5 1ebe 820b 313c
000003f0: 08d8 ffbc e01d 893d 10a2 233e c7e9 59bd

actor.preprocess.net.0.bias f4 [32]
-0.061938547 0.023209715 -0.048139952 -0.08967034 -0.07038614 0.047116663 -0.054470535 -0.02450364
-0.026963226 -0.01467808 -0.022954492 0.03499819 0.068840496 0.086205564 0.064072244 0.005290263
-0.047570564 -0.006252268 0.05993944 -0.015847594 0.063427374 -0.024442641 -0.011180813 -0.016103655
0.036590364 0.05949733 0.051494636 0.063622676 0.079608046 0.027300658 0.04084433 -0.040691953
00000000: 46b3 7dbd 4d22 be3c 662e 45bd 15a5 b7bd
00000010: 9c26 90bd 67fd 403d 7f1c 5fbd dcbb c8bc
00000020: fce1 dcbc 547c 70bc 0f0b bcbc 435a 0f3d
00000030: 3ffc 8c3d 8b8c b03d 4f38 833d f159 ad3b
00000040: 5ad9 42bd d3df ccbb 0f83 753d d0d2 81bc
00000050: 36e6 813d ef3b c8bc bb2f 37bc d0eb 83bc
00000060: c7df 153d 79b3 733d 0aec 523d 9b4c 823d
00000070: 8b09 a33d a1a5 df3c 624c 273d 9bac 26bd

actor.preprocess.net.2.weight f4 [64, 32, 4, 4]
-0.05097989 0.044872135 -0.08348028 -0.05470467 -0.018975457 -0.019051392 0.03221225 0.027730951
-0.012798635 -0.040506095 -0.0067988997 -0.0150603345 0.018261451 0.025342328 -0.07202223 -0.039922204
0.043635685 0.046536047 0.022320284 0.00809327 0.062359124 -0.0036714012 0.024283195 0.0050952854
0.0241247 0.04412535 0.0044245864 0.042695332 0.029026028 0.06052351 -0.036995266 -0.012865765
-0.05053603 0.039424848 -0.010919386 -0.04437593 0.003374863 -0.008469877 0.008148143 -0.020799717
-0.034522694 -0.00079252175 0.043395724 -0.0427871 0.006105267 0.025728527 -0.03862271 -0.03802229
-0.018189903 -0.10125563 -0.040758796 -0.080829695 -0.0001509927 -0.0049699116 0.058265835 -0.06011811
-0.059060298 -0.083696835 0.027110282 -0.066715494 -0.08430226 -0.04615611 -0.06279902 -0.012495051
-0.024536537 0.034766637 -0.046356365 -0.039721325 0.018636977 0.006450488 -0.006459009 0.022066664
-0.032101914 -0.0069507696 -0.05131139 -0.023609476 -0.074024335 0.020341497 -0.02425975 -0.07641549
-0.0014960051 0.020118598 0.03702635 -0.015895063 0.04966549 0.031634316 -0.0012852742 0.012508428
0.016194653 0.024135035 -0.04037726 0.057350114 0.033477712 0.074195124 0.009952955 0.066667035
-0.0130883865 -0.028661868 -0.035976514 -0.02543525 -0.046379503 -0.0034874524 -0.0060371645 -0.01376263
-0.08753289 -0.055524666 0.0234772 -0.09153787 0.025437202 -0.039748102 -0.017117653 -0.0027552561
0.05336226 0.02071115 -0.011437054 0.0053092693 0.024149343 -0.043498755 0.04579599 -0.011332162
-0.0059449105 -0.033185292 -0.03114154 -0.010373046 -0.015128223 0.07025564 0.010073693 -0.024586333
0.056516733 -0.024227267 0.029523006 0.056848407 -0.005589352 -0.003098951 -0.023549777 -0.018348115
-0.020024791 -0.0407459 -0.031774182 0.015504594 0.00506215 0.04103867 -0.017645678 0.018428097
0.047107775 -0.0024350386 0.020525848 -0.017807921 0.026014635 -0.029479412 -0.00013437838 0.007997539
-0.02983083 -0.017212754 -0.026557004 0.017819306 -0.022649098 0.039672155 0.024615012 -0.015532409
-0.035473958 -0.016817706 -0.037911795 -0.039932787 -0.034976665 -0.020601781 -0.02327066 0.028728226
-0.036044624 -0.04979611 -0.04484732 0.04813282 0.03560919 0.031032834 0.017054651 0.014554424
0.021449918 0.0010887738 -0.015291682 -0.015380308 0.09120519 0.022137575 0.07290658 0.12655035
0.08332569 -0.036623795 -0.0036107295 0.08313104 0.037907343 -0.032591842 0.017042696 0.011561377
-0.0019150951 0.045540005 -0.02167164 0.025430528 0.03328193 0.029823052 -0.01824283 0.06701514
-0.03126149 0.019760082 0.022111444 0.04028896 -0.027506683 0.08937292 0.04666437 0.013366234
0.030034022 -0.01869536 0.008743412 0.032058474 -0.002201714 0.008346197 -0.009907783 0.03765531
0.042333163 -0.010766221 0.018573109 0.03641074 0.10482219 -0.015478238 0.045780055 0.077459425
0.0517428 0.015119908 0.023591904 0.054634426 0.05254111 0.08150415 0.014033976 0.0032524518
0.027427223 -0.002505444 -0.038661692 -0.0016093744 0.03705343 0.011793559 -0.013367208 0.11473193
0.09374049 0.019400539 -0.02316268 0.06638521 -0.0056717084 0.060834426 0.05893219 -0.032679357
0.01076239 0.027145999 0.029940698 0.08954086 0.02451549 -0.014541678 -0.052391637 0.08609474
00000000: 4ad0 50bd d8cb 373d b6f7 aabd 0112 60bd
00000010: 6b72 9bbc aa11 9cbc fef0 033d 052c e33c
00000020: 5eb1 51bc b8e9 25bd 4ec9 debb 9fbf 76bc
00000030: 0a99 953c b79a cf3c 6480 93bd 7785 23bd
00000040: 55bb 323d 959c 3e3d 07d9 b63c a299 043c
00000050: 486c 7f3d e49b 70bb 8ded c63c 5af6 a63b
00000060: 2aa1 c53c c8bc 343d 1ffc 903b 4de1 2e3d
00000070: fec7 ed3c 80e7 773d 5988 17bd eeca 52bc
00000080: defe 4ebd f37b 213d 39e7 32bc 89c3 35bd
00000090: ce2c 5d3b 3dc5 0abc ca7f 053c 2b64 aabc
000000a0: ab67 0dbd 3cc1 4fba b7bf 313d 8741 2fbd
000000b0: b10e c83b a2c4 d23c d932 1ebd 43bd 1bbd
000000c0: fe02 95bc 1d5f cfbd b2f2 26bd 0a8a a5bd
000000d0: cb53 1eb9 a4da a2bb 28a8 6e3d 683e 76bd
000000e0: 36e9 71bd 3f69 abbd 6216 de3c 22a2 88bd
000000f0: aaa6 acbd 300e 3dbd c69c 80bd 0bb8 4cbc
00000100: d900 c9bc 7667 0e3d 2ce0 3dbd d4b2 22bd
00000110: 93ac 983c 9e5e d33b 18a6 d3bb 26c5 b43c
00000120: 4c7d 03bd 48c3 e3bb e42b 52bd a968 c1bc
00000130: 129a 97bd 36a3 a63c 62bc c6bc b97f 9cbd
00000140: 9a15 c4ba c2cf a43c f1a8 173d 5d36 82bc
00000150: 0a6e 4b3d fc92 013d a576 a8ba 26f0 4c3c
00000160: a6aa 843c d6b6 c53c a062 25bd f4e7 6a3d
00000170: ed1f 093d 9df3 973d b811 233c ba88 883d
00000180: ac70 56bc 4bcc eabc 1c5c 13bd 965d d0bc
00000190: 6ff8 3dbd be8d 64bb 68d3 c5bb a77c 61bc
000001a0: 7244 b3bd d56d 63bd 4253 c03c 3578 bbbd
000001b0: ae61 d03c e8ce 22bd 523a 8cbc 8791 34bb
000001c0: 6392 5a3d 6eaa a93c 7b62 3bbc 61f9 ad3b
000001d0: d8d4 c53c c02b 32bd 9394 3b3d 88aa 39bc
000001e0: 86cd c2bb 4ded 07bd 8b1c ffbc b5f3 29bc
000001f0: 5edc 77bc 30e2 8f3d 210c 253c 4769 c9bc
00000200: 177e 673d 4378 c6bc 3bda f13c e0d9 683d
00000210: e226 b7bb c517 4bbb 76eb c0bc c94e 96bc
00000220: 080b a4bc 2ce5 26bd a525 02bd fb06 7e3c
00000230: 64e0 a53b 2a18 283d ab8d 90bc 85f6 963c
00000240: 15f4 403d 2b95 1fbb d325 a83c ebe1 91bc
00000250: a51c d53c cf7e f1bc ece7 0cb9 1c08 033c
00000260: c95f f4bc c301 8dbc 138e d9bc cbf9 913c
00000270: 9a8a b9bc 457f 223d 6ca5 c93c a57b 7ebc
00000280: 244d 11bd 49c5 89bc 6649 1bbd 9090 23bd
00000290: b143 0fbd 11c5 a8bc 1ca2 bebc 7557 eb3c
000002a0: 87a3 13bd 01f7 4bbd d3b1 37bd eb26 453d
000002b0: f1da 113d 9238 fe3c 32b6 8b3c ae75 6e3c
000002c0: bdb7 af3c 30b5 8e3a f789 7abc b0fd 7bbc
000002d0: c9c9 ba3d dc59 b53c 0c50 953d 6a96 013e
000002e0: a9a6 aa3d d502 16bd fda1 6cbb 9b40 aa3d
000002f0: bb44 1b3d 067f 05bd 209d 8b3c ee6b 3d3c
00000300: ee03 fbba 2888 3a3d b988 b1bc af53 d03c
00000310: a252 083d 794f f43c fd71 95bc 3c3f 893d
00000320: 0c0c 00bd e5df a13c 0f23 b53c 0906 253d
00000330: b255 e1bc 2609 b73d 2323 3f3d 0cfe 5a3c
00000340: e909 f63c 0327 99bc 8740 0f3c bf4f 033d
00000350: a24a 10bb 7dbe 083c 4154 22bc 743c 1a3d
00000360: 8a65 2d3d ce64 30bc a226 983c 6e23 153d
00000370: 04ad d63d 7098 7dbc de83 3b3d 0ca3 9e3d
00000380: 42f0 533d 7eb9 773c cf43 c13c 59c8 5f3d
00000390: 5935 573d a6eb a63d c3ee 653c 1627 553b
000003a0: 0eaf e03c 6032 24bb b95b 1ebd a5f1 d2ba
000003b0: 56c5 173d c639 413c 2202 5bbc 93f8 ea3d
000003c0: 04fb bf3d e1ed 9e3c a9bf bdbc f8f4 873d
000003d0: bdd9 b9bb 852d 793d e162 713d cada 05bd
000003e0: bc54 303c 4961 de3c 3246 f53c 3361 b73d
000003f0: b5d4 c83c 3840 6ebc 9d98 56bd 7052 b03d

actor.preprocess.net.2.bias f4 [64]
0.033094537 0.008125637 -0.041778702 -0.039440468 0.0023590769 -0.039241385 -0.010216979 0.006897917
-0.053447124 -0.035844002 0.0082528265 -0.001438677 0.05839287 -0.049958248 -0.040335286 0.031041512
-0.027219532 0.017843917 -0.028880646 -0.054248504 -0.033054244 -0.032890446 0.0052168462 0.020374298
0.0024558138 -0.012334384 -0.0026359123 -0.054752074 0.022454742 0.04065365 0.036869578 0.0011359976
0.016404418 0.029977212 0.0028793716 -0.010882763 -0.06688525 -0.030405119 -0.00451497 -0.059007905
-0.043764547 -0.0037265923 -0.038528014 0.045232493 -0.042604167 -0.033778053 0.016785374 0.013327873
-0.022693096 -0.0007288168 0.013044123 -0.029719042 -0.033271167 0.0058892644 0.008363703 -0.021517854
0.030995183 -0.032141667 -0.060234006 -0.044487763 -0.027562898 -0.048404884 -0.05508439 -0.031628426
00000000: 238e 073d 6421 053c 2520 2bbd 548c 21bd
00000010: be9a 1a3b 93bb 20bd 1e65 27bc ec07 e23b
00000020: 5feb 5abd 29d1 12bd dd36 073c fd91 bcba
00000030: 5d2d 6f3d 05a1 4cbd 9d36 25bd c54a fe3c
00000040: 7ffb debc 682d 923c 1b97 ecbc ae33 5ebd
00000050: e363 07bd 22b8 06bd 14f2 aa3b 00e8 a63c
00000060: b8f1 203b 2816 4abc 45bf 2cbb b643 60bd
00000070: 02f3 b73c 7184 263d 8e04 173d c1e5 943a
00000080: 8f62 863c c592 f53c d7b3 3c3b 9e4d 32bc
00000090: 22fb 88bd 2814 f9bc 50f2 93bb 46b2 71bd
000000a0: 7442 33bd d839 74bb 8dcf 1dbd b545 393d
000000b0: b581 2ebd db5a 0abd 7b81 893c 275d 5a3c
000000c0: dfe6 b9bc 110e 3fba 04b7 553c 5975 f3bc
000000d0: 5947 08bd bbfa c03b ea07 093c 3646 b0bc
000000e0: 9ce9 fd3c fba6 03bd efb7 76bd cd38 36bd
000000f0: 96cb e1bc 3344 46bd 2ba0 61bd cf8c 01bd

actor.preprocess.net.4.weight f4 [64, 64, 3, 3]
0.072171785 0.0044029043 -0.016329488 0.0012069766 -0.056773286 -0.014513839 0.024797281 -0.010122342
0.0017322879 -0.057328727 -0.028516192 -0.02451271 -0.032726023 0.012705159 -0.0013714551 0.011196618
-0.014121175 0.019831365 0.030464133 0.0052920813 0.005792077 -0.029200662 0.0038924434 0.0075968225
-0.050029572 0.020139877 -0.017945152 0.026668727 -0.024099046 -0.027314143 -0.020973153 -0.012398952
0.00033241522 0.0102206515 -0.00019720747 -0.038899336 -0.029984463 0.016823743 -0.025135908 0.053241633
0.039524995 0.009057528 -0.016179508 -0.026742958 -0.022963427 -0.03301595 0.011208601 -0.0038342655
0.0011097887 -0.029865537 0.0074313385 0.011546714 0.028630614 -0.03195583 0.023601731 0.021835834
-0.0350817 0.02296246 0.014876332 0.019609196 0.0053315163 -0.0005796533 0.02736213 -0.011049273
0.0018491716 -0.049984075 -0.0070132953 -0.041474048 -0.015600997 0.023274612 0.031622652 -0.01527582
-0.042570945 -0.00989995 0.019279227 -0.003395262 0.03238278 -0.017046297 0.02920721 -0.026958855
-0.015476812 -0.014604177 0.04426088 0.003805245 -0.047020297 0.008833367 0.0050292774 -0.021809002
-0.02875095 0.025137568 0.0037084573 0.023511881 0.0054334057 0.0361344 0.011360237 -0.020852711
-0.036560163 -0.004410129 0.01435661 0.02751343 0.029940363 -0.028115 0.014804983 -0.025145078
-0.0041382187 0.026305957 -0.0063262237 -0.031164534 0.020184986 0.03461303 -0.031770673 -0.041333616
0.011167798 0.0142282965 0.006877185 -0.012251475 0.010944212 -0.02553638 -0.01883625 0.020815428
0.013471102 -0.005060661 0.038021307 -0.019080175 0.030446224 0.007496928 -0.027046736 -0.04069759
-0.017102877 -0.020711727 0.020756105 -0.03421127 0.027931113 -0.03554668 -0.03924993 0.040927894
0.04940214 0.006095173 -0.006597297 0.009603331 -0.0407291 -0.025646726 -0.0016602409 -0.031986907
-0.03720508 0.03659908 -0.01719397 0.01858136 0.033472206 -0.012316677 -0.025218885 -0.026382843
0.011183207 0.0019980713 -0.026285227 -0.014290785 -0.026370507 -0.004316503 0.026354466 0.0023443617
0.007789482 -0.028854268 0.03549365 -0.019565865 0.010002106 -0.027086299 0.018780172 0.04142374
0.042356607 0.018495254 -0.026169987 0.017989622 0.009318777 0.017469607 -0.06438467 -0.057457983
-0.0334406 -0.027207315 0.0008439348 -0.03216857 -0.041556086 0.005479395 8.199655e-05 -0.019796163
0.037689757 0.038171675 0.021182455 0.017955638 0.030856611 0.03376877 -0.012974135 -0.02786644
0.012496258 -0.009531194 -0.0056547304 -0.0068824766 0.02809366 -0.027067803 -0.009038367 0.01455984
-0.02176445 -0.0007154605 0.018741637 -0.014893879 -0.02397892 -0.021648597 -0.017565805 -0.024670335
-0.049411345 -0.038609695 0.0071403384 0.028725892 -0.011365822 0.0067335567 0.031321213 0.028709967
0.0327534 0.008466513 -0.008758103 0.006429077 0.042247217 0.016957583 -0.03238816 0.015200239
0.0021117262 -0.036595628 0.007304579 0.031583425 0.0069346284 0.01112617 0.008561415 -0.02138106
-0.030977126 0.04229192 0.009824349 -0.018111682 0.023149153 0.01481852 0.04173266 -0.008797889
0.016479727 -0.00495686 0.017414793 -0.0059551406 0.0041805166 0.0035755357 0.0015694175 -0.026006635
0.032739356 -0.010012377 0.03813561 0.009391986 0.034266524 0.021135315 -0.04012784 0.02169296
00000000: cdce 933d 3d46 903b 6bc5 85bc 6a33 9e3a
00000010: 1b8b 68bd 74cb 6dbc ab23 cb3c 2ed8 25bc
00000020: f00d e33a 87d1 6abd ca9a e9bc e1ce c8bc
00000030: b90b 06bd 4d29 503c 66c2 b3ba 0572 373c
00000040: 805c 67bc 6375 a23c eb8f f93c 3269 ad3b
00000050: 77cb bd3b 3a36 efbc 5d18 7f3b c4ee f83b
00000060: cfeb 4cbd 62fc a43c b601 93bc 6078 da3c
00000070: 5d6b c5bc e9c1 dfbc e4cf abbc f924 4bbc
00000080: 0448 ae39 8574 273c 7ac9 4eb9 e954 1fbd
00000090: faa1 f5bc f2d1 893c d2e9 cdbc e613 5a3d
000000a0: f6e4 213d 0766 143c e38a 84bc 0c14 dbbc
000000b0: cc1d bcbc bc3b 07bd 48a4 373c 4d48 7bbb
000000c0: 5476 913a 92a8 f4bc 9682 f33b 6e2e 3d3c
000000d0: c08a ea3c 1ee4 02bd 6b58 c13c 10e1 b23c
000000e0: d4b1 0fbd c51b bc3c dcbb 733c 77a3 a03c
000000f0: 00b4 ae3b e0f3 17ba 8c26 e03c 0308 35bc
00000100: e75f f23a 1abc 4cbd c9cf e5bb b1e0 29bd
00000110: 539b 7fbc 66aa be3c c186 013d 6f47 7abc
00000120: df5e 2ebd 6633 22bc 78ef 9d3c 0b83 5ebb
00000130: cea3 043d ada4 8bbc f543 ef3c d1d8 dcbc
00000140: 7492 7dbc 5c46 6fbc e64a 353d 6b61 793b
00000150: 5b98 40bd d4b9 103c a3cc a43b cba8 b2bc
00000160: 1d87 ebbc 4ded cd3c 9709 733b fd9b c03c
00000170: b60a b23b aa01 143d 4a20 3a3c 4ed3 aabc
00000180: 1cc0 15bd d882 90bb fd37 6b3c d863 e13c
00000190: 7e45 f53c 6e51 e6bc 9990 723c 0dfd cdbc
000001a0: e599 87bb 977f d73c 364c cfbb c44c ffbc
000001b0: fc5a a53c 64c6 0d3d f721 02bd 704d 29bd
000001c0: 24f9 363c cd1d 693c 025a e13b 69ba 48bc
000001d0: 5a4f 333c ac31 d1bc 7b4e 9abc 1e85 aa3c
000001e0: e6b5 5c3c e7d3 a5bb 3bbc 1b3d 074e 9cbc
000001f0: 5c6a f93c caa8 f53b 1e91 ddbc 84b2 26bd
00000200: 551b 8cbc a4ab a9bc b508 aa3c 1e21 0cbd
00000210: cacf e43c 6599 11bd 89c4 20bd 02a4 273d
00000220: e659 4a3d 04ba c73b 232e d8bb 4a57 1d3c
00000230: 8fd3 26bd 1519 d2bc 719c d9ba b404 03bd
00000240: 5b64 18bd ebe8 153d 5eda 8cbc f037 983c
00000250: 271a 093d e3cb 49bc d697 cebc d520 d8bc
00000260: c539 373c 13f2 023b 1e54 d7bc e623 6abc
00000270: f606 d8bc 7471 8dbb 52e5 d73c dda3 193b
00000280: e93e ff3b c95f ecbc ca61 113d 9848 a0bc
00000290: e0df 233c 16e4 ddbc e0d8 993c f1ab 293d
000002a0: 1f7e 2d3d 5c83 973c 7162 d6bc f95e 933c
000002b0: c9ad 183c 6c1c 8f3c 1cdc 83bd 1059 6bbd
000002c0: 03f9 08bd e0e1 debc 813b 5d3a 31c3 03bd
000002d0: b736 2abd 7f8c b33b 90f5 ab38 902b a2bc
000002e0: 9360 1a3d e759 1c3d d486 ad3c b417 933c
000002f0: 01c7 fc3c 1f51 0a3d 7791 54bc 2948 e4bc
00000300: 1bbd 4c3c ba28 1cbc 514b b9bb 6686 e1bb
00000310: ad24 e63c 4cbd ddbc a915 14bc 658c 6e3c
00000320: 5c4b b2bc be8d 3bba 1088 993c 7505 74bc
00000330: 716f c4bc 6658 b1bc 2ae6 8fbc 7119 cabc
00000340: 8d63 4abd 3325 1ebd 80f9 e93b 9052 eb3c
00000350: b637 3abc 2ba5 dc3b ac4a 003d 2a31 eb3c
00000360: 6e28 063d 21b7 0a3c 257e 0fbc 02ab d23b
00000370: 6b0b 2d3d a1ea 8a3c 72a9 04bd 6c0a 793c
00000380: e364 0a3b 4ce5 15bd 405b ef3b 9f5d 013d
00000390: e13b e33b 8a4a 363c 2d45 0c3c 5527 afbc
000003a0: bec3 fdbc 4b3a 2d3d 4ef6 203c f35e 94bc
000003b0: 4ba3 bd3c 61c9 723c deef 2a3d 0525 10bc
000003c0: 7e00 873c 286d a2bb 78a9 8e3c 5723 c3bb
000003d0: b7fc 883b 8953 6a3b eab4 cd3a de0b d5bc
000003e0: b419 063d f40a 24bc 1634 1c3d d8e0 193c
000003f0: 0e5b 0c3d f823 ad3c 175d 24bd 6fb5 b13c

actor.preprocess.net.4.bias f4 [64]
-0.02752048 -0.055707946 -0.039916784 -0.049447443 -0.0073600328 -0.02565869 0.0105284685 -0.014633338
-0.04732634 0.03509882 -0.014904956 -0.056792643 0.019169027 -0.030789914 0.0025843706 -0.008156436
0.08568211 0.044197045 0.025275856 -0.018646639 -0.026409471 0.015888039 -0.020692764 -0.0056851213
-0.048234362 -0.025474096 -0.026652794 -0.04659355 0.10089836 -0.04920516 -0.0071047004 0.018216437
-0.04238414 -0.003515508 -0.02210781 -0.0066924025 0.036316667 -0.01304091 0.04541971 0.00021265312
0.03144022 0.09397029 -0.02853303 0.08389624 -0.032525796 -0.014666725 0.03421618 0.024083862
0.052373976 0.046935424 -0.015473689 -0.060033593 -0.085988194 0.018300395 -0.026054787 -0.019165479
-0.0011722165 -0.05735984 -0.05642991 -0.022819499 0.054641522 -0.021528684 -0.059805654 -0.005211905
00000000: a172 e1bc 042e 64bd c87f 23bd 6789 4abd
00000010: 6e2c f1bb 2c32 d2bc 997f 2c3c abc0 6fbc
00000020: 44d9 41bd c8c3 0f3d eb33 74bc 679f 68bd
00000030: 5d08 9d3c 213b fcbc 8b5e 293b 92a2 05bc
00000040: 1a7a af3d f607 353d 500f cf3c d6c0 98bc
00000050: ad58 d8bc a227 823c df83 a9bc 414a babb
00000060: 6591 45bd 0daf d0bc f656 dabc e1d8 3ebd
00000070: cda3 ce3d 5a8b 49bd 8cce e8bb a33a 953c
00000080: fe9a 2dbd 7064 66bb 701b b5bc f14b dbbb
00000090: c9c0 143d 8aa9 55bc 050a 3a3d a3fb 5e39
000000a0: 76c7 003d 7f73 c03d 1abe e9bc cbd1 ab3d
000000b0: c539 05bd b44c 70bc 4426 0c3d 854b c53c
000000c0: 1886 563d 5c3f 403d 5b85 7dbc c9e5 75bd
000000d0: 941a b0bd b6ea 953c d970 d5bc ec00 9dbc
000000e0: 0fa5 99ba 27f2 6abd 0d23 67bd f5ef babc
000000f0: cacf 5f3d ec5c b0bc c6f6 74bd a1c8 aabb

actor.mu.model.0.weight f4 [3, 3136]
0.019498162 0.01677157 -0.0043630744 -0.012192443 0.011782447 -0.0008413232 -0.024239501 -0.008798023
-0.012757974 -0.0061065764 0.0036088505 -0.053043853 0.0058371145 0.009536623 -0.0036047697 -0.004164767
-0.00095192733 -0.010654753 0.010240094 -0.053942915 0.0024633594 -0.005357101 -0.015546071 -0.047005903
0.017831974 -0.018392991 0.016306719 -0.002173322 0.021779351 -0.018888023 -0.0031063845 0.028652122
-0.017670682 0.0038103722 0.016384477 -0.047190767 -0.002309685 -0.0016549412 -0.012045376 -0.015801534
-0.036962267 -0.0037278496 -0.008215166 0.005695469 -0.021024136 0.013163916 0.0003535164 0.0030422523
0.022655865 -0.0017273298 -0.020506008 0.009525222 0.006932876 -0.009853401 -0.017542278 0.0050391615
0.0013755244 0.0030188593 -0.0035378423 0.013481637 -0.021317625 -0.017407836 -0.013273159 -0.018280704
-0.0015368108 0.005846749 -0.0030782733 -0.021096021 -0.026566345 0.004369839 -0.011354402 0.022533653
-0.0031933484 -0.024478449 0.01245293 0.005242782 0.031082913 0.013081107 0.035808407 -0.023592034
0.0075839655 -0.009857605 -0.010252042 -0.0009034998 -0.0069584567 -0.014587286 0.00068006956 0.005291831
-0.011189789 0.005333739 -0.019445764 -0.015223607 -0.014798355 0.024852997 -0.0015695054 0.015407686
0.008215989 0.020468075 -0.014740191 0.023936061 0.049570136 -0.031580642 0.0371115 -0.04204035
-0.03840296 -0.013468409 0.003496232 0.017127955 5.4469554e-05 0.018529698 0.018938318 0.009939004
-0.010080863 0.020150939 0.010937401 -0.008513748 0.009486135 0.021140302 0.0020132072 -0.038044415
0.02231545 -0.01026119 -0.00829149 0.016980702 0.034944296 0.0054146415 0.0060382234 0.014746219
-0.026815211 0.029818378 -0.0028086319 -0.032620214 0.008354621 0.021214971 0.0014522283 -0.035931163
0.0011145034 -0.020235777 0.0233427 0.01687899 0.006823446 -0.00040834962 0.04314014 -0.034204856
0.02930632 0.033654626 0.009395657 -0.01110395 0.0043733385 -0.015599054 -0.025124054 0.014428242
0.0009250676 0.022776283 -0.012893908 -0.017261423 0.002812031 0.012773769 0.01557923 0.002030714
0.023469763 -0.029174399 -0.0011873466 -0.02385983 -0.0125586055 -0.009830781 -0.02206199 0.01958983
-0.00036938293 0.015055991 0.023244362 -0.0159456 -0.015875991 0.03425922 0.003156746 -0.0014389391
0.019917326 -0.009291101 -0.015175989 0.028189277 -0.0037970047 0.014236242 -0.01893259 0.02043952
-0.02774939 -0.019077199 0.011761385 -0.03155744 0.03570542 0.009713329 0.010898436 -0.038995586
-0.0046115494 0.011249247 0.0015782735 0.030110639 -0.044203274 0.0209341 0.015245536 -0.042617187
-0.007867987 0.02291738 -0.010680089 0.007442998 0.03001969 0.027213464 -0.017382625 0.023674771
-0.04339463 -0.008175494 -0.051806882 -0.0039673583 -0.01773968 -0.0072001847 -0.0114604635 0.0026215704
0.014913508 -0.014288302 -0.04180183 0.054957703 0.00782004 0.008603665 0.036913093 -0.0031570946
-0.010273601 0.030567748 -0.02344233 0.0019052088 -0.011090783 -0.0398901 -0.010166511 -0.017860377
-0.02198078 -0.021866258 -0.01686627 -0.0023133834 0.01104783 0.0053604725 -0.0027013281 -0.020348016
0.051225394 -0.030608987 0.015960744 0.011681637 -0.01789589 -0.045964457 -0.036200047 0.04431343
-0.074364215 0.081138976 0.01950071 -0.0021574346 -0.1227429 -0.010365505 -0.023760332 0.025349932
00000000: 9cba 9f3c 8864 893c 1ff8 8ebb d0c2 47bc
00000010: 2a0b 413c 3f8c 5cba eb91 c6bc 9525 10bc
00000020: d206 51bc ad19 c8bb 7782 6c3b 8344 59bd
00000030: 4445 bf3b 7f3f 1c3c 003e 6cbb 9978 88bb
00000040: c38a 79ba 4691 2ebc 11c6 273c 3ff3 5cbd
00000050: 5070 213b 9f8a afbb f3b4 7ebc 4389 40bd
00000060: 5c14 923c e6ac 96bc ab95 853c 4b6e 0ebb
00000070: 9c6a b23c 0ebb 9abc 7c94 4bbb dbb7 ea3c
00000080: 1bc2 90bc 70b7 793b bd38 863c 1b4b 41bd
00000090: 165e 17bb 9dea d8ba f859 45bc 3872 81bc
000000a0: bf65 17bd f04e 74bb e798 06bc 0fa1 ba3b
000000b0: cf3a acbc 77ad 573c 2b58 b939 8660 473b
000000c0: cb98 b93c 9267 e2ba 37fc a7bc ad0f 1c3c
000000d0: 2e2d e33b 2970 21bc d3b4 8fbc 8d1f a53b
000000e0: f14a b43a 0ed8 453b 25db 67bb 16e2 5c3c
000000f0: 4da2 aebc e19a 8ebc aa77 59bc 6ac1 95bc
00000100: d06e c9ba 1696 bf3b dbbc 49bb 90d1 acbc
00000110: aaa1 d9bc de30 8f3b d007 3abc 7f98 b83c
00000120: 7f47 51bb 0787 c8bc 6007 4c3c a5cb ab3b
00000130: 98a1 fe3c 2452 563c d6ab 123d 1544 c1bc
00000140: ea82 f83b cb81 21bc 2ef8 27bc d8d8 6cba
00000150: c403 e4bb 83ff 6ebc b246 323a 1967 ad3b
00000160: 6055 37bc a5c6 ae3b b94c 9fbc 706c 79bc
00000170: cd74 72bc 8398 cb3c ddb7 cdba 8570 7c3c
00000180: 5b9c 063c aaac a73c d880 71bc 8f15 c43c
00000190: 0e0a 4b3d b45a 01bd 3a02 183d 8132 2cbd
000001a0: 6c4c 1dbd 9aaa 5cbc 0a21 653b ed4f 8c3c
000001b0: 3d76 6438 98cb 973c 8824 9b3c 34d7 223c
000001c0: 342a 25bc 9513 a53c c932 333c 3f7d 0bbc
000001d0: bc6b 1b3c 6d2e ad3c 03f0 033b 76d4 1bbd
000001e0: e4ce b63c 8d1e 28bc 08d9 07bc 1d1b 8b3c
000001f0: c021 0f3d 4e6d b13b 4adc c53b 209a 713c
00000200: 93ab dbbc ac45 f43c 0611 38bb c69c 05bd
00000210: d2e1 083c 05cb ad3c b258 be3a 8e2c 13bd
00000220: 8714 923a 80c5 a5bc 3139 bf3c cf45 8a3c
00000230: 3797 df3b c217 d6b9 b7b3 303d 641a 0cbd
00000240: cf13 f03c 6fd9 093d 3ef0 193c 58ed 35bc
00000250: 394e 8f3b 2d93 7fbc f6d0 cdbc 6f64 6c3c
00000260: 3c80 723a 5495 ba3c f840 53bc d467 8dbc
00000270: 0d4a 383b 1249 513c 0740 7f3c ba15 053b
00000280: a943 c03c 26ff eebc bea0 9bba b175 c3bc
00000290: 9cc2 4dbc 4911 21bc 59bb b4bc da7a a03c
000002a0: bda9 c1b9 67ad 763c f66a be3c 59a0 82bc
000002b0: 5e0e 82bc 6553 0c3d 69e1 4e3b c99a bcba
000002c0: a929 a33c b439 18bc b6a4 78bc 33ed e63c
000002d0: 2bd7 78bb 203f 693c 8518 9bbc c870 a73c
000002e0: b052 e3bc c947 9cbc d3b2 403c 6042 01bd
000002f0: d93f 123d a824 1f3c 5b8f 323c d6b9 1fbd
00000300: 7b1c 97bb c34e 383c 12de ce3a 96aa f63c
00000310: 7e0e 35bd fd7d ab3c 6ac8 793c 5c8f 2ebd
00000320: bbe8 00bc 3bbd bb3c 8afb 2ebc 64e4 f33b
00000330: daeb f53c c5ee de3c 0266 8ebc 98f1 c13c
00000340: 91be 31bd 82f2 05bc 7433 54bd 9d00 82bb
00000350: ce52 91bc 87ef ebbb abc4 3bbc a7ce 2b3b
00000360: c957 743c 7b19 6abc 6538 2bbd 541b 613d
00000370: a01f 003c 63f6 0c3c 2f32 173d 42e7 4ebb
00000380: 9b52 28bc 3769 fa3c 210a c0bc 33b8 f93a
00000390: 1eb6 35bc cd63 23bd 7091 26bc ed4f 92bc
000003a0: 0911 b4bc de20 b3bc 222b 8abc 229c 17bb
000003b0: f501 353c e7a6 af3b c408 31bb e2b0 a6bc
000003c0: b8d1 513d b3bf fabc 1bc0 823c 5664 3f3c
000003d0: 679a 92bc 3a45 3cbd 8046 14bd 0082 353d
000003e0: 444c 98bd 312c a63d f4bf 9f3c bf63 0dbb
000003f0: a160 fbbd 14d4 29bc 07a5 c2bc a9aa cf3c

actor.mu.model.0.bias f4 [3]
-0.043173995 0.037466336 -0.12868175
00000000: 37d7 30bd 4d76 193d 26c5 03be

critic.preprocess.net.0.weight f4 [32, 12, 8, 8]
0.029139599 -0.018147036 -0.0125983525 -0.022012511 0.0029737905 -0.01299564 0.0077566262 -0.015394995
0.0048179943 -0.010446143 0.017208947 0.016647855 0.008257293 0.0036913303 -0.018732596 -0.0144425705
-0.014518017 0.017975884 -0.0058351657 -0.011093403 -0.021223066 0.014929019 -0.021742277 -0.031486526
0.018496567 -0.0046208333 0.034474738 -0.02942418 -0.00939577 -0.023843413 0.0087744435 0.028933838
0.025980886 0.026466213 -0.00725877 0.01453645 0.025754478 0.01106169 0.0016101879 -0.029746449
-0.0030804148 -0.020911396 0.03937571 -0.014867352 -0.0076797307 -0.017671369 -0.021845182 0.029257065
0.020931292 0.028384157 0.025578443 0.010151968 0.011172039 -0.001364411 -0.0063981614 0.019539887
-0.014663795 0.016450875 -0.005825503 0.030381605 0.032829028 -0.008581009 -0.016238673 -0.017313544
-0.020322448 0.0047747283 -0.04093394 -0.017872997 0.013501498 0.035944868 -0.010092658 -0.039793584
-0.0332493 -0.032744624 -0.040829595 -0.012392703 -0.035516065 -0.011914687 0.0073083476 0.025567317
0.020635085 0.0005589593 -0.03857782 -0.02617047 -0.033551402 -0.0017583049 0.013097016 -0.015323615
0.030204143 -0.010869906 -0.011167462 -0.013094337 0.025336405 -0.0069040437 -0.01817594 0.022804156
-0.02991 0.020445231 0.029717816 0.025677754 -0.03215004 0.014995405 0.030805029 -0.019390834
0.00048825712 -0.020019094 -0.027691925 -0.007467197 -0.023126181 0.014300524 -0.021518972 -0.0030192507
-0.016746484 -0.035870392 0.00017081907 0.008766313 0.03371755 0.010741446 -0.029854061 0.028756412
0.005130729 -0.0027512165 0.0022952722 -0.0043483665 0.016005717 -0.005566166 0.020999571 0.005359921
0.026473831 -0.015329613 0.02231333 0.016201803 0.018288683 0.01724873 -0.026289878 0.025189381
0.0055290638 0.010004066 -0.016488666 0.019128097 0.026460439 -0.021019232 -0.009797082 -0.036955018
-0.0143599715 -0.027723791 -0.0073794927 -0.015294778 -0.012635841 -0.008989043 -0.015513076 -0.036459558
0.0012208438 -0.0014552746 0.001454055 0.0014223544 -0.033438444 0.028668316 -0.012297931 -0.028179724
0.03204081 0.020271812 -0.003044337 -0.010309972 0.019356044 -0.008667126 -0.034956582 0.015670396
-0.03240992 0.017450865 0.009636662 -0.032197148 0.018584484 -0.0155307045 -0.03142494 -0.039186932
-0.013658111 0.010243994 0.010550119 -0.036035597 0.009267025 0.021000808 0.01774072 -0.030148208
-0.021361047 0.015589515 0.024356885 0.0027852955 -0.032072876 0.019685691 -0.038975164 -0.038491488
-0.009212825 -0.0006189391 -0.028317107 -0.016383529 0.0055365176 -0.02034656 0.023317816 -0.046403542
0.008838683 0.0006742458 -0.029644068 -0.041259818 -0.040430993 -0.0015802011 0.003905648 0.022429861
-0.030963467 -0.015114648 -0.0018160308 -0.0005115239 0.007206736 0.022433009 0.025795264 0.021438455
-0.0028591098 0.018857181 0.015662262 0.0028114412 -0.0034586645 0.019258898 0.004644997 0.02985076
-0.031206766 0.020758813 -0.029997334 -0.033561967 -0.011856073 -0.02504767 -0.03395589 -0.02720192
-0.018106038 -0.02985402 -0.0052360534 0.018443752 -0.035636 0.03489174 0.010164119 -0.028627763
-0.010844595 -0.0058255 0.020880349 -0.028165985 -0.013298436 0.0104240365 0.02627568 -0.04045007
-0.023904173 0.028266845 0.009005265 0.0069529144 0.0051965583 -0.013258173 -0.028345995 0.023047967
00000000: 2bb6 ee3c 18a9 94bc 5269 4ebc 9553 b4bc
00000010: ede3 423b aaeb 54bc 4c2b fe3b 4a3b 7cbc
00000020: 44e0 9d3b 4d26 2bbc c7f9 8c3c 1561 883c
00000030: 9949 073c 3fea 713b 1a75 99bc 88a0 6cbc
00000040: fadc 6dbc 2942 933c eb34 bfbb 1bc1 35bc
00000050: ffdb adbc d898 743c dc1c b2bc 04f8 00bd
00000060: 1d86 973c 5c6a 97bb 6235 0d3d fa0a f1bc
00000070: b7f0 19bc 4353 c3bc afc2 0f3c a806 ed3c
00000080: ded5 d43c accf d83c fada edbb 4a2a 6e3c
00000090: 0efb d23c 173c 353c f10c d33a d3ae f3bc
000000a0: c9e0 49bb 604e abbc 6d48 213d 3296 73bc
000000b0: 40a6 fbbb 8cc3 90bc abf4 b2bc 83ac ef3c
000000c0: 1a78 ab3c e485 e83c e289 d13c 7154 263c
000000d0: ee0a 373c 09d6 b2ba aba7 d1bb 1d12 a03c
000000e0: 6a40 70bc fcc3 863c dce3 bebb d8e2 f83c
000000f0: bb77 063d 5c97 0cbc f706 85bc 22d5 8dbc
00000100: 437b a6bc 5375 9c3b 59aa 27bd 646a 92bc
00000110: 6335 5d3c ed3a 133d ad5b 25bc 99fe 22bd
00000120: 6b30 08bd 3a1f 06bd ef3c 27bd c40a 4bbc
00000130: 4b79 11bd d235 43bc dd7a ef3b 8d72 d13c
00000140: e90a a93c 2087 123a c703 1ebd 7463 d6bc
00000150: 326d 09bd ec76 e6ba de94 563c e60f 7bbc
00000160: ae6e f73c b117 32bc bbf7 36bc a189 56bc
00000170: 4b8e cf3c 513b e2bb b5e5 94bc c8cf ba3c
00000180: d105 f5bc c27c a73c c772 f33c 275a d23c
00000190: c3af 03bd 4aaf 753c d45a fc3c 87d9 9ebc
000001a0: c3fc ff39 15ff a3bc 2dda e2bc 63af f4bb
000001b0: 1e73 bdbc bf4c 6a3c 8e48 b0bc 9fde 45bb
000001c0: ec2f 89bc d5ec 12bd e51d 3339 95a0 0f3c
000001d0: 6a1b 0a3d e4fc 2f3c 8190 f4bc 9192 eb3c
000001e0: ad1f a83b c14d 34bb 476c 163b be7c 8ebb
000001f0: 6c1e 833c 6264 b6bb 4b07 ac3c 47a2 af3b
00000200: a6df d83c 0f29 7bbc 72ca b63c a5b9 843c
00000210: 26d2 953c 354d 8d3c df5d d7bc f659 ce3c
00000220: 262d b53b 18e8 233c 3d13 87bc 87b2 9c3c
00000230: 90c3 d83c 8630 acbc f183 20bc 255e 17bd
00000240: 1646 6bbc 011d e3bc accf f1bb f396 7abc
00000250: 8f06 4fbc c746 13bc 8f2a 7ebc 9e56 15bd
00000260: b804 a03a eabe beba fd95 be3a 4b6e ba3a
00000270: c0f6 08bd d1d9 ea3c 437d 49bc 2ad9 e6bc
00000280: 393d 033d 1211 a63c 8083 47bb 28eb 28bc
00000290: 9190 9e3c 9000 0ebc a22e 0fbd 345f 803c
000002a0: 44c0 04bd 1ef5 8e3c 17e3 1d3c 28e1 03bd
000002b0: 7d3e 983c 7f74 7ebc 70b7 00bd 7a82 20bd
000002c0: 45c6 5fbc 6dd6 273c 68da 2c3c 109a 13bd
000002d0: b8d4 173c e309 ac3c fd54 913c 60f9 f6bc
000002e0: 5dfd aebc 2a6b 7f3c 1788 c73c 8189 363b
000002f0: d95e 03bd e343 a13c 6ca4 1fbd 40a9 1dbd
00000300: 64f1 16bc 4d40 22ba 47f9 e7bc c036 86bc
00000310: ad6b b53b d4ad a6bc 0105 bf3c a411 3ebd
00000320: 20d0 103c dfbf 303a 1ed8 f2bc 0e00 29bd
00000330: f89a 25bd c01e cfba e6f5 7f3b d4be b73c
00000340: 19a7 fdbc 6ea3 77bc e207 eeba ca17 06ba
00000350: 7c26 ec3b 6ec5 b73c 9750 d33c b39f af3c
00000360: e75f 3bbb 607a 9a3c 254e 803c 2840 383b
00000370: c3aa 62bb d6c4 9d3c 0f35 983b 9589 f43c
00000380: 55a5 ffbc 630e aa3c f8bc f5bc 4678 09bd
00000390: f93f 42bc c530 cdbc 5515 0bbd 90d6 debc
000003a0: 1d53 94bc 6b90 f4bc 3393 abbb 5a17 973c
000003b0: 0ef7 11bd a4ea 0e3d 6887 263c c584 eabc
000003c0: 87ad 31bc d6e3 bebb 440d ab3c 5abc e6bc
000003d0: afe1 59bc 94c9 2a3c 1840 d73c f9ae 25bd
000003e0: afd2 c3bc df8f e73c d28a 133c 46d5 e33b
000003f0: e447 aa3b cf38 59bc dc35 e8bc 17cf bc3c

critic.preprocess.net.0.bias f4 [32]
0.006366425 0.014677667 -0.010028547 0.006826481 0.0056822165 -0.028038133 0.10766629 0.05628963
-0.0028199186 -0.030650659 -0.07486709 -0.012720829 -0.050421838 -0.035524774 -0.045865346 -0.0475774
-0.044886347 0.0030144532 -0.0044136066 0.08426614 -0.034079786 -0.04785412 0.0133716995 0.010255987
0.022371382 0.001251579 0.016670963 -0.021529468 -0.09096833 -0.027365524 -0.023298297 -0.01765232
00000000: 729d d03b 997a 703c c64e 24bc acb0 df3b
00000010: e331 ba3b 3ab0 e5bc 2580 dc3d f48f 663d
00000020: 62ce 38bb 1717 fbbc eb53 99bd 066b 50bc
00000030: 2187 4ebd 6d82 11bd 4ddd 3bbd 85e0 42bd
00000040: bfda 37bd 228e 453b 04a0 90bb ba93 ac3d
00000050: 3f97 0bbd af02 44bd f914 5b3c ba08 283c
00000060: 3044 b73c 060c a43a 8b91 883c 915e b0bc
00000070: 9b4d babd aa2d e0bc 12dc bebc 999b 90bc

critic.preprocess.net.2.weight f4 [64, 32, 4, 4]
-0.0006136417 0.03326914 0.0011738942 0.02913552 -0.031888306 0.0036028721 0.01692664 0.00021941395
0.0051442175 -0.008500446 -0.012894493 0.0266409 -0.023478258 0.020981824 -0.04179107 -0.00245845
0.014125879 0.03084928 0.026145352 -0.021852363 -0.0120789455 0.0191532 -0.0151524795 -0.014477291
-0.030626206 -0.006052521 -0.0015407095 0.0045961034 -0.037444424 -0.039533183 0.024796551 0.012763878
0.0005729067 -0.046455044 -0.010585265 0.0155011 0.024916457 -0.038838588 0.0025334498 0.026731823
-0.0012524382 -0.0723309 -0.017508227 -0.042567626 -0.067732885 -0.061873283 0.0066691726 -0.04372482
-0.017281838 -0.011657425 -0.0016992658 -0.022896497 -0.032801706 -0.03328552 0.02304376 -0.002331476
-0.037401192 -0.022882497 -0.019194005 0.025011413 -0.03659954 0.006306896 0.007055023 -0.026132694
0.018840639 -0.0059319986 -0.018495517 0.002557849 0.03918367 -0.05333244 -0.008932132 0.037582997
-0.056006525 -0.04761783 0.02177591 -0.06361568 0.008388956 0.01667615 0.026398629 -0.009185098
-0.015069849 0.031928774 -0.023442233 -0.022753717 -0.037917975 -0.052794352 -0.03253413 0.024142269
0.04501966 0.03722267 5.2576845e-05 0.009206185 -0.0404007 0.0018401204 -0.021738905 0.022336459
-0.040470816 0.015049063 -0.0027260256 0.026242787 0.0360708 -0.040782027 -0.033244815 -0.046772137
-0.018882772 -0.04475571 -0.0046764184 -0.053234044 0.017757699 0.024310445 -0.034303814 -0.008308966
-0.03833173 -0.011722555 -0.031410914 0.034367003 0.021579135 0.015500291 -0.03041788 -0.051637944
-0.04307523 0.017963545 -0.023310293 -0.013410939 0.010717614 -0.039257124 -0.053430453 -0.026255244
-0.0013269393 0.021278813 0.04503306 -0.054746754 -0.03350791 0.004237343 -0.0016163131 -0.064580515
-0.007642487 -0.0053168917 0.033460356 -0.009024357 -0.023568727 0.047682017 -0.016800711 -0.02154988
-0.039168604 -0.01726176 -0.002837323 0.016854465 0.00099856 -0.028253876 0.022021169 -0.06430918
-0.01454554 0.03438684 -0.021389902 -0.047427922 -0.027707733 0.043940008 0.0034231578 -0.017230568
-0.054729227 0.039975267 -0.01807826 -0.010854051 -0.036437653 -0.038046 -0.001986411 0.018393766
-0.05966589 -0.023826366 -0.019714585 -0.038837995 0.0068527893 0.037217826 0.03963279 -0.039419442
-0.03361949 0.011352402 0.035536736 -0.019433983 0.032743514 -0.029026816 0.045652885 0.011193716
-0.01799827 0.013905324 0.02392162 0.010318439 -0.005400311 0.030983038 0.008323897 0.020855818
0.028265867 -0.027561346 0.00193642 0.031854115 -0.017197218 -0.025295632 0.029745188 -0.04674837
-0.013341498 -0.04089936 -0.049232382 -0.020833988 0.0064951335 -0.047367286 -0.015700351 -0.038438756
0.03488498 0.029060613 0.042658713 -0.02060417 0.023871334 -0.013630169 -0.043090813 -0.038096514
0.006861044 -0.04357157 0.041186344 -0.04011418 0.0007859719 -0.01945806 0.0073096454 -0.004520956
-0.015742108 0.040500198 0.024574285 0.03704603 -0.04071437 0.01916239 -0.009229829 -0.006654703
-0.05843963 -0.007158518 -0.03168867 0.008780831 -0.028420124 -0.0037157638 -0.025838034 0.036630195
-0.024249464 -0.03388081 0.036962442 0.032714263 0.00035415936 -0.027475517 -0.039246514 0.032130677
-0.022792207 -0.015559503 -0.038768165 0.026419574 0.006877456 -0.029371839 -0.016406685 0.044071246
00000000: ccdc 20ba 3945 083d 5add 993a 9dad ee3c
00000010: 509d 02bd 2a1e 6c3b bda9 8a3c 7c12 6639
00000020: d390 a83b 7445 0bbc 6c43 53bc 043e da3c
00000030: 7a55 c0bc 13e2 ab3c 1d2d 2bbd f21d 21bb
00000040: 3b70 673c a1b7 fc3c c72e d63c ba03 b3bc
00000050: c5e6 45bc 2ce7 9c3c 1b42 78bc 2932 6dbc
00000060: cfe3 fabc 3a54 c6bb a2f1 c9ba e99a 963b
00000070: 535f 19bd 8ced 21bd 2322 cb3c 961f 513c
00000080: 1e2f 163a a547 3ebd d26d 2dbc 53f8 7d3c
00000090: 991d cc3c 3615 1fbd 3c08 263b b2fc da3c
000000a0: da28 a4ba 3922 94bd 6a6d 8fbc 645b 2ebd
000000b0: 8ab7 8abd d76e 7dbd 1389 da3b cc18 33bd
000000c0: a492 8dbc c9fe 3ebc e6b9 deba 6f91 bbbc
000000d0: 155b 06bd 6656 08bd 44c6 bc3c adcb 18bb
000000e0: fe31 19bd 1374 bbbc bf3c 9dbc bce4 cc3c
000000f0: 66e9 15bd 14aa ce3b d32d e73b 3b14 d6bc
00000100: af57 9a3c 3661 c2bb e983 97bc 96a1 273b
00000110: 0e7f 203d 1e73 5abd 1458 12bc a1f0 193d
00000120: 1967 65bd ea0a 43bd 6563 b23c f048 82bd
00000130: d571 093c 6c9c 883c f041 d83c 187d 16bc
00000140: 87e7 76bc bfc7 023d ed09 c0bc 0166 babc
00000150: e14f 1bbd e43e 58bd 8242 05bd 02c6 c53c
00000160: 8966 383d cc76 183d f585 5c38 8ad5 163c
00000170: 347b 25bd 3230 f13a ca15 b2bc f3fa b63c
00000180: bac4 25bd 5890 763c 1fa7 32bb 1dfb d63c
00000190: fabe 133d 0e0b 27bd b72b 08bd 2494 3fbd
000001a0: 0bb0 9abc c351 37bd a43c 99bb f10b 5abd
000001b0: 9878 913c b326 c73c 2882 0cbd 5422 08bc
000001c0: bb01 1dbd f60f 40bc bba8 00bd 6ac4 0c3d
000001d0: bac6 b03c eff4 7d3c eb2e f9bc 4f82 53bd
000001e0: a76f 30bd 4928 933c 3af5 bebc 8eb9 5bbc
000001f0: ee98 2f3c 14cc 20bd e4d9 5abd 3d15 d7bc
00000200: b2ec adba e850 ae3c 9674 383d 223e 60bd
00000210: 973f 09bd 69d9 8a3b 78da d3ba ca42 84bd
00000220: d46d fabb 5239 aebb ba0d 093d e6da 13bc
00000230: 3413 c1bc 384e 433d a5a1 89bc 6089 b0bc
00000240: 426f 20bd 8968 8dbc 61f2 39bb 6012 8a3c
00000250: 1de2 823a ac74 e7bc bd65 b43c 88b4 83bd
00000260: 6b50 6ebc 37d9 0c3d e039 afbc c843 42bd
00000270: 54fb e2bc 70fa 333d 0f57 603b 1f27 8dbc
00000280: c12b 60bd 1bbd 233d dc18 94bc 31d5 31bc
00000290: a63f 15bd 1fd6 1bbd 722e 02bb 86ae 963c
000002a0: 3864 74bd 832f c3bc 7b80 a1bc 9714 1fbd
000002b0: 5d8d e03b b871 183d fe55 223d 4876 21bd
000002c0: 97b4 09bd 6dff 393c f88e 113d 0434 9fbc
000002d0: 101e 063d a5c9 edbc 85fe 3a3d d965 373c
000002e0: 1c71 93bc 28d3 633c 46f7 c33c ac0e 293c
000002f0: 18f5 b0bb 24d0 fd3c f460 083c d2d9 aa3c
00000300: d28d e73c 55c8 e1bc 79cf fd3a 7679 023d
00000310: 2ee1 8cbc c938 cfbc 2eac f33c 387b 3fbd
00000320: 4c96 5abc 1686 27bd e5a7 49bd 0aac aabc
00000330: 21d5 d43b 3304 42bd 069e 80bc f571 1dbd
00000340: 8ee3 0e3d 8610 ee3c e7ba 2e3d 14ca a8bc
00000350: d18d c33c 1351 5fbc fe7f 30bd 170b 1cbd
00000360: 9cd2 e03b 1a78 32bd 03b3 283d c44e 24bd
00000370: ae09 4e3a 8266 9fbc c085 ef3b 8724 94bb
00000380: 98f5 80bc 89e3 253d 0350 c93c 94bd 173d
00000390: 1cc4 26bd 72fa 9c3c b538 17bc b20f dabb
000003a0: 655e 6fbd 0092 eabb fbcb 01bd 79dd 0f3c
000003b0: 52d1 e8bc 2c84 73bb 49aa d3bc 8b09 163d
000003c0: d0a6 c6bc 9bc6 0abd ee65 173d 64ff 053d
000003d0: 77ae b939 5614 e1bc f4c0 20bd 759b 033d
000003e0: b9b6 babc 49ed 7ebc 5ecb 1ebd dd6d d83c
000003f0: 485c e13b 369d f0bc 5067 86bc 0d84 343d

critic.preprocess.net.2.bias f4 [64]
0.008663658 -0.00053359114 -0.06512308 0.08768136 0.003288282 -0.02812615 -0.06353463 -0.07644008
-0.03180723 -0.02361277 -0.16062109 -0.013245204 -0.10707336 -0.04168804 -0.060391672 -0.009991351
0.013323297 -0.018499548 -0.024030393 -0.06866793 0.0060236123 -0.11855649 0.0019159663 -0.061761424
-0.14093503 0.07714403 0.025228724 0.004237789 0.0047504595 -0.03497632 0.028590916 -0.060110915
-0.104026034 -0.121905915 0.05900685 -0.054168858 -0.010894546 0.007571821 -0.024649603 -0.060399204
-0.011520787 0.026796121 -0.057564117 0.06648664 -0.04279393 0.037192572 -0.050146263 0.055523615
0.012826044 -0.05091755 -0.03975616 -0.020583695 -0.03315561 -0.091838956 0.02808749 -0.06252731
-0.025026644 -0.09599895 0.025958514 -0.023402628 0.007884651 0.01755124 0.033746354 -0.010740301
00000000: 04f2 0d3c b2e0 0bba 405f 85bd 4992 b33d
00000010: 3880 573b d068 e6bc 721e 82bd 9e8c 9cbd
00000020: 4c48 02bd 916f c1bc db79 24be 6a02 59bc
00000030: 4749 dbbd 14c1 2abd 425d 77bd c3b2 23bc
00000040: f549 5a3c 5d8c 97bc 63db c4bc c6a1 8cbd
00000050: b961 c53b bfcd f2bd 2921 fb3a 8cf9 7cbd
00000060: 4651 10be b0fd 9d3d 78ac ce3c 27dd 8a3b
00000070: bea9 9b3b 5443 0fbd 7f37 ea3c dd36 76bd
00000080: 9a0b d5bd cfa9 f9bd 2bb1 713d 2ae0 5dbd
00000090: 0a7f 32bc 0a1d f83b f7ed c9bc 2865 77bd
000000a0: afc1 3cbc 8a83 db3c 5ac8 6bbd 262a 883d
000000b0: b048 2fbd 3d57 183d 2b66 4dbd bb6c 633d
000000c0: 5424 523c ec8e 50bd 5bd7 22bd 239f a8bc
000000d0: 2dce 07bd 1016 bcbd bc17 e63c 510e 80bd
000000e0: ad04 cdbc 199b c4bd f3a6 d43c deb6 bfbc
000000f0: a02e 013c 9ec7 8f3c 9e39 0a3d 16f8 2fbc
