log/ppo/ppo_1-car_4-frames_lr1e-4_700-steps-per-collect.pth (torch, 816042 bytes, 32 tensors)

actor.sigma_param f4 [3, 1]
0	0xbec6ce87	-0.38829443
1	0xbe3a28dc	-0.18179649
2	0xbf59d00b	-0.85083073

actor.preprocess.net.0.weight f4 [32, 12, 8, 8]
0	0x3d8d6e87	0.06905847
1	0x3d8e5bf7	0.06951135
2	0x3d4afd46	0.049557947
3	0x3c4a32ae	0.012341185
4	0xbc9d0a32	-0.0191699
5	0xbd53d231	-0.051714126
6	0xbb65fff8	-0.0035095196
7	0x3d1afef6	0.037840806
8	0x3c7877be	0.0151652675
9	0x3d151955	0.03640111
10	0x3d090e07	0.033460643
11	0x3bf6f0ae	0.0075360155
12	0xbbe4d34f	-0.0069831978
13	0xbcf5a34f	-0.029985098
14	0xbd5dfb7a	-0.054194905
15	0x3c79a2d6	0.015236577
16	0x3cfce098	0.030868813
17	0xbd8cf8be	-0.06883381
18	0xbc69ec54	-0.014277536
19	0x3c6d59eb	0.01448677
20	0x3c1bee8c	0.009517323
21	0xbc990fe0	-0.018684328
22	0xbc800a92	-0.01563004
23	0x39bb2419	0.00035694314
24	0x3d83128f	0.06400024
25	0xbd65fb13	-0.056147646
26	0x3c62734d	0.013821435
27	0x3d3579ef	0.044305738
28	0xbd575223	-0.052568566
29	0x3ba1bcca	0.0049358355
30	0xbcdb086a	-0.02673741
31	0x3ba3d0b6	0.0049992455
32	0xbc279102	-0.010227444
33	0xbd2a00e7	-0.041504767
34	0xbce4bc85	-0.027921924
35	0x3ccb3fb9	0.024810659
36	0xbd37c04b	-0.04486112
37	0x3d628b74	0.055308774
38	0xbc8cff62	-0.01721162
39	0x3c68c412	0.014206903
40	0xbc0f2174	-0.008736003
41	0xbcc57e45	-0.024108062
42	0xbd4d5a2c	-0.050134823
43	0x3bfed235	0.0077765235
44	0xbcef5780	-0.029216528
45	0x3cb5a55d	0.022173578
46	0xbcf3a1b0	-0.029740185
47	0x3cfcab31	0.03084335
48	0xbc7603d5	-0.015015562
49	0x3d1b1256	0.037859283
50	0xbc8acb7a	-0.016942728
51	0xbd259632	-0.04042644
52	0x3c2e0e92	0.010623591
53	0x3d76a439	0.06021521
54	0xbba38c8e	-0.0049911207
55	0xbc588205	-0.013214593
56	0xbdb47233	-0.08810844
57	0x3c893d1c	0.016752772
58	0xbd757911	-0.05992991
59	0x3ba95d60	0.005168602
60	0x3ca68363	0.020326322
61	0x3d25d9c6	0.040490888
62	0x3d2d8ed8	0.042372555
63	0x3cecfc01	0.028928759
64	0x3d4f7e3f	0.050657507
65	0x3da00184	0.07812789
66	0x3daded47	0.08492523
67	0xbd12da2d	-0.0358526
68	0x3cf2cd3d	0.02963888
69	0xbdba1f05	-0.09087948
70	0xbd3c0998	-0.045907587
71	0x3ca91318	0.020638987
72	0xbb53d344	-0.003232197
73	0x3c2a8b08	0.010409124
74	0x3d1d0e0e	0.03834348
75	0xbd0646ee	-0.032782488
76	0x3d2bf820	0.041984677
77	0xbd6eed34	-0.058331683
78	0xbcf92df4	-0.03041742
79	0x3cb861c3	0.022507554
80	0x3d150100	0.036377907
81	0xbbffe2be	-0.007809012
82	0xbc73ee24	-0.01488832
83	0x3cbe6122	0.023239676
84	0xbd335857	-0.04378542
85	0xbc975aa7	-0.018475844
86	0xbd6cc17b	-0.057801705
87	0xbc96f261	-0.018426122
88	0x3d3b879a	0.045783617
89	0xbdac1e2f	-0.084041946
90	0xbc9ef7f7	-0.019405348
91	0x3be92c74	0.007115895
92	0xbd32c72b	-0.043646973
93	0x3d991888	0.07475382
94	0xbd1fb60b	-0.03899197
95	0xbb56889b	-0.0032735232
96	0x3c943896	0.018093389
97	0xbdb42ab2	-0.08797206
98	0xbd2217dc	-0.039573535
99	0x3ccd5157	0.0250632
100	0xbc279ca5	-0.010230218
101	0x3d30559f	0.043050405
102	0xbd664efc	-0.05622767
103	0xbb28ce8a	-0.0025757872
104	0xbcb63da4	-0.02224619
105	0xbb2c371e	-0.002627797
106	0xbd099dd9	-0.0335978
107	0xba60569f	-0.00085578294
108	0xbc70a633	-0.0146880625
109	0x3d687804	0.05675508
110	0xbd40a344	-0.047030702
111	0x3ce76c9f	0.028250037
112	0x3a276a67	0.00063863996
113	0x3ba87062	0.00514035
114	0xbd79de3d	-0.06100296
115	0xbc7edd8b	-0.01555575
116	0xbc9cf489	-0.019159572
117	0x3d992bd2	0.07479061
118	0x3d262cea	0.040570177
119	0xbb931398	-0.0044884197
120	0xbd566c90	-0.052349627
121	0x3d2b689d	0.041847814
122	0xbda00656	-0.078137085
123	0xbc37fce1	-0.011229725
124	0x3c66ef37	0.014095119
125	0x3d0a54da	0.033772327
126	0x3d6709a8	0.056405693
127	0xbc0f5763	-0.008748862
128	0x3a2696f3	0.00063548906
129	0x3d21f5b6	0.03954097
130	0x3d509473	0.050922822
131	0xbbbd0573	-0.005768472
132	0x3c7438a2	0.01490608
133	0xbd58bf0a	-0.052916564
134	0xbd2c1f41	-0.042021994
135	0x3cb9fe08	0.02270414
136	0x3bf2795c	0.007399721
137	0x3d8fcf34	0.07021943
138	0x3d6d282c	0.05789964
139	0xbb58f374	-0.0033104094
140	0x3d35da1b	0.044397455
141	0xbdbe8a45	-0.093037166
142	0xbcaeb067	-0.02132435
143	0x3cf398bb	0.029735914
144	0x3c80c4e9	0.015718894
145	0xbd8f2f2b	-0.069914185
146	0x3c22380d	0.009901059
147	0xbd239dc0	-0.039945364
148	0xbcc3ee6e	-0.023917403
149	0x3d2ec8e9	0.04267207
150	0xbcb5cbfb	-0.022191992
151	0x3d23d2aa	0.039995827
152	0x3d86f6ca	0.0659004
153	0xbd84c7b1	-0.064834006
154	0xbcbdc86a	-0.023166854
155	0x3ccc2ff8	0.024925217
156	0xbcb9025e	-0.022584137
157	0x3cca7d9d	0.0247181
158	0xbbf80c06	-0.0075697927
159	0xbacd56d3	-0.0015666134
160	0x3c8f6598	0.017504498
161	0xbd44eca5	-0.048077244
162	0xbd9b683e	-0.07588242
163	0x3cee35ff	0.029078482
164	0xbc8ead70	-0.017416686
165	0x3d972462	0.07379986
166	0xbbd66168	-0.0065423734
167	0x3cb658e4	0.022259183
168	0x3cb4ce0a	0.022070903
169	0xbd47a5cd	-0.048742104
170	0xbd9662bf	-0.07343053
171	0xbbf26e00	-0.007398367
172	0x3c5a13f8	0.013310425
173	0x3d993c06	0.07482152
174	0xbba7ca5c	-0.0051205587
175	0x3d34e830	0.044166744
176	0xbcd910a5	-0.026497195
177	0xbc91355a	-0.017725635
178	0xbd38b7f7	-0.045097318
179	0x3cacab83	0.021077877
180	0x3d07e44c	0.033176705
181	0x3d5755c5	0.05257203
182	0x3d82e674	0.06391612
183	0x3bedab8a	0.007253115
184	0xbdb79da5	-0.08965615
185	0x3c2c0ce3	0.010501119
186	0xbd9b7b8d	-0.07591925
187	0xbca29fe6	-0.019851636
188	0x3d129e0e	0.035795264
189	0x3d153626	0.036428593
190	0x3d6ec9ff	0.058298107
191	0xbc8f2546	-0.017473828
192	0x3cf2ad37	0.02962361
193	0x3dbc0a8d	0.091817
194	0x3e1b50d2	0.15167549
195	0xbd1a20c5	-0.037628908
196	0x3c424992	0.011858361
197	0xbdc361be	-0.09540127
198	0xbd951b20	-0.07280564
199	0xbbddd39c	-0.0067696106
200	0xbc9e3f0a	-0.019317169
201	0x3d01b958	0.0316709
202	0x3d990d55	0.07473246
203	0xbc894892	-0.016758237
204	0xbadbdef2	-0.0016774817
205	0xbd06e1d1	-0.0329302
206	0xbda38da4	-0.07986
207	0xbcd069f7	-0.025441153
208	0x3bcb03a1	0.006195501
209	0xbd7ea697	-0.06217059
210	0x3bd1ee7e	0.0064066043
211	0xbbf90f94	-0.007600734
212	0xbc89e237	-0.0168315
213	0x3c80ce8e	0.015723493
214	0xbd1aae88	-0.037764102
215	0x3caf3489	0.021387355
216	0x3ca6e784	0.020374067
217	0xbd9ee8a7	-0.07759219
218	0xbd547c63	-0.051876437
219	0xbd111a5c	-0.03542553
220	0xbca7b49e	-0.020471867
221	0x3cd1823c	0.025574796
222	0xbda1b7c7	-0.07896381
223	0x3cf51ed3	0.029921925
224	0x3d91091a	0.07081814
225	0xbd0b07ed	-0.033943105
226	0xbd16670c	-0.036719367
227	0xbcd90a7b	-0.026494255
228	0xbcdd0254	-0.02697865
229	0x3b9ef4e9	0.004850973
230	0xbde49d72	-0.11162843
231	0x3cec2995	0.028828422
232	0x3c58f39b	0.013241674
233	0x3c7cb9ab	0.015425126
234	0xbd76e057	-0.06027254
235	0x3b06114a	0.0020457082
236	0xbc991136	-0.018684965
237	0xbc203df5	-0.009780397
238	0x3c6479b3	0.013945031
239	0x3d611fd2	0.054961987
240	0x3c8d6bbc	0.017263286
241	0x3c040df9	0.008059972
242	0xbdaf4b78	-0.085593164
243	0x3ca7351c	0.020411067
244	0xbc9480fe	-0.018127915
245	0x3d8de6d2	0.06928791
246	0x3d1f8b9d	0.038951505
247	0xbc1f4a57	-0.009722314
248	0xbd69a566	-0.057042502
249	0xbba771d2	-0.005110004
250	0xbdb3ce41	-0.08779574
251	0x3d71cca9	0.05903307
252	0xbb892b55	-0.004186074
253	0x3db1ef5b	0.086882316
254	0x3e28490e	0.16434118
255	0xbd81b3c1	-0.063331135

actor.preprocess.net.0.bias f4 [32]
0	0xbcb37a04	-0.021908768
1	0x3d0f71b5	0.03502055
2	0xbd3b4c6d	-0.045727182
3	0xbccfe523	-0.025377816
4	0xbcbceec3	-0.02306307
5	0x3d399192	0.045304842
6	0xbb98f610	-0.004668005
7	0x3abcb9e3	0.001439866
8	0xbcdce1fc	-0.026963226
9	0xbc707c54	-0.01467808
10	0xbcbc0b0f	-0.022954492
11	0x3d1f4456	0.03888353
12	0x3d312520	0.043248296
13	0x3d8fde40	0.07024813
14	0x3d5a9275	0.05336233
15	0xbb73ef7b	-0.00372216
16	0xbcba95be	-0.02277648
17	0x3c56718b	0.013088594
18	0x3d531d16	0.05154141
19	0xbc81d2d0	-0.015847594
20	0x3d06be1a	0.03289614
21	0xbcc89bea	-0.024488408
22	0xbc49fc2a	-0.012328187
23	0x3bc4b011	0.006002434
24	0x3d05ead2	0.032694645
25	0x3cf9d4bc	0.030496947
26	0x3d1f6234	0.038912013
27	0x3cdbb624	0.02682025
28	0x3d380d1e	0.044934385
29	0x3cca2a80	0.024678469
30	0x3cf5b89e	0.029995259
31	0xbd26ac9b	-0.040691953

actor.preprocess.net.2.weight f4 [64, 32, 4, 4]
0	0xbd4537d6	-0.048148952
1	0x3d11c6de	0.035590045
2	0xbd8babbf	-0.06819867
3	0xbd541e6d	-0.05178683
4	0xbd0e90b7	-0.03480598
5	0xbce2a1be	-0.027665015
6	0x3cfd68bc	0.03093373
7	0x3c6a68bf	0.0143072
8	0xbcd29272	-0.025704596
9	0xbcc092c6	-0.023507487
10	0xbcc877bf	-0.024471162
11	0xbce1a4ba	-0.027544368
12	0x3c9fbaa1	0.019498171
13	0x3c6d523a	0.014484936
14	0xbd5cf637	-0.053945746
15	0xbd222d7a	-0.03959415
16	0x3d261651	0.040548626
17	0x3d5a6253	0.053316426
18	0x3c993553	0.018702185
19	0x3b488349	0.003059583
20	0x3d7c1991	0.06154782
21	0xba3077ef	-0.00067317387
22	0x3c8b8ed2	0.017035875
23	0x3b55307c	0.003253012
24	0x3cb34fce	0.02188864
25	0x3d2dc7f5	0.042427022
26	0x3aaea127	0.0013323174
27	0x3d25bc82	0.04046298
28	0x3cd05890	0.025432855
29	0x3d8afed6	0.06786887
30	0xbd26906b	-0.04066507
31	0xbc91229f	-0.017716704
32	0xbd44602c	-0.04794328
33	0x3d217bf3	0.039424848
34	0xbc5b3ea9	-0.013381639
35	0xbd35c389	-0.04437593
36	0x3b5d2cce	0.003374863
37	0xbc0ac53d	-0.008469877
38	0x3c057fca	0.008148143
39	0xbcaa642b	-0.020799717
40	0xbd0d67ab	-0.034522694
41	0xba4fc13c	-0.00079252175
42	0x3d31bfb7	0.043395724
43	0xbd2f4187	-0.0427871
44	0x3bc80eb1	0.006105267
45	0x3cd2c4a2	0.025728527
46	0xbd1e32d9	-0.03862271
47	0xbd1bbd43	-0.03802229
48	0xbd6953a5	-0.056964535
49	0xbdb39564	-0.087687284
50	0xbcb232f2	-0.021752808
51	0xbdfc1316	-0.12308328
52	0xbbe8623b	-0.007091788
53	0x3caa0db4	0.020758487
54	0x3d3befba	0.045882918
55	0xbd7e6c63	-0.062115084
56	0xbd50eeab	-0.05100886
57	0xbd8f647a	-0.07001586
58	0x3c688e4f	0.014194085
59	0xbd6842a7	-0.05670419
60	0xbdf46935	-0.11934129
61	0xbd10d931	-0.03536338
62	0xbd2988fa	-0.041390397
63	0xbd7538b8	-0.059868544
64	0x3cdf06a3	0.027224844
65	0x3d2d49eb	0.04230682
66	0xbd5e297c	-0.05423878
67	0x3c533501	0.012891055
68	0x3cf1f1e8	0.029534295
69	0x3c54ed3e	0.012996016
70	0x3c4e8f10	0.012607351
71	0x3d06f69b	0.032950025
72	0xbd326c52	-0.043560334
73	0x3ce4c068	0.027923778
74	0xbc861e27	-0.0163718
75	0xbd19805a	-0.03747592
76	0xbcce8066	-0.02520771
77	0x3ce9c23f	0.028535007
78	0xbd09b646	-0.033621095
79	0xbcdcc86e	-0.026951041
80	0xba7777ed	-0.00094401726
81	0x3ce014d6	0.027353685
82	0x3d0c32c9	0.03422812
83	0xbc9359b4	-0.01798711
84	0x3d413e8d	0.047178794
85	0x3d0ac21b	0.03387652
86	0xbbe03cab	-0.0068431697
87	0x3c1ad7c1	0.009450854
88	0x3c3fa588	0.011697181
89	0x3cbea0ae	0.023269977
90	0xbd2c3dc9	-0.04205111
91	0x3d639b0d	0.05556779
92	0x3d065565	0.032796282
93	0x3da5d3a9	0.080970116
94	0x3bcfa5b8	0.006336894
95	0x3d8053cf	0.06265985
96	0xbcde8b10	-0.02716592
97	0x3c6a210f	0.014290108
98	0xbc680c05	-0.014163022
99	0xbd282333	-0.041049194
100	0xbcd25431	-0.025674911
101	0x3c4243e8	0.01185701
102	0xbcb704e6	-0.022341203
103	0x3c4ae8ef	0.012384637
104	0xbd323c3f	-0.043514486
105	0xbd1be6d4	-0.03806193
106	0x3d333ab7	0.043757167
107	0xbd4a2fc0	-0.049361944
108	0x3c6170f8	0.013759844
109	0x3b434e70	0.002980139
110	0x3bc410c5	0.0059834444
111	0xbc987534	-0.018610574
112	0x3d7d1e09	0.061796222
113	0x3ca4851c	0.020083003
114	0xbd1a0be9	-0.037609015
115	0x3c37f668	0.011228181
116	0x3d10fb80	0.0353961
117	0xbd51ba6f	-0.051203188
118	0x3cfdb354	0.0309693
119	0x3af12a26	0.0018399402
120	0xbc77df9e	-0.015128998
121	0xbd0d9693	-0.034567427
122	0xbd086143	-0.03329588
123	0xbca1de23	-0.019759243
124	0xbbb6852c	-0.0055700745
125	0x3d92123c	0.07132384
126	0xbc5b2c16	-0.01337721
127	0xbca87029	-0.020561295
128	0x3d677e17	0.056516733
129	0xbcc67843	-0.024227267
130	0x3cf1da3b	0.029523006
131	0x3d68d9e0	0.056848407
132	0xbbb726e2	-0.005589352
133	0xbb4b17c5	-0.003098951
134	0xbcc0eb76	-0.023549777
135	0xbc964ec9	-0.018348115
136	0xbca40b08	-0.020024791
137	0xbd26e52c	-0.0407459
138	0xbd0225a5	-0.031774182
139	0x3c7e06fb	0.015504594
140	0x3ba5e064	0.00506215
141	0x3d28182a	0.04103867
142	0xbc908dab	-0.017645678
143	0x3c96f685	0.018428097
144	0x3d40f415	0.047107775
145	0xbb1f952b	-0.0024350386
146	0x3ca825d3	0.020525848
147	0xbc91e1eb	-0.017807921
148	0x3cd51ca5	0.026014635
149	0xbcf17ecf	-0.029479412
150	0xb90ce7ec	-0.00013437838
151	0x3c03081c	0.007997539
152	0xbcf45fc9	-0.02983083
153	0xbc8d01c3	-0.017212754
154	0xbcd98e13	-0.026557004
155	0x3c91f9cb	0.017819306
156	0xbcb98a9a	-0.022649098
157	0x3d227f45	0.039672155
158	0x3cc9a56c	0.024615012
159	0xbc7e7ba5	-0.015532409
160	0xbd114d24	-0.035473958
161	0xbc89c549	-0.016817706
162	0xbd1b4966	-0.037911795
163	0xbd239090	-0.039932787
164	0xbd0f43b1	-0.034976665
165	0xbca8c511	-0.020601781
166	0xbcbea21c	-0.02327066
167	0x3ceb5775	0.028728226
168	0xbd13a387	-0.036044624
169	0xbd4bf701	-0.04979611
170	0xbd37b1d3	-0.04484732
171	0x3d4526eb	0.04813282
172	0x3d11daf1	0.03560919
173	0x3cfe3892	0.031032834
174	0x3c8bb632	0.017054651
175	0x3c6e75ae	0.014554424
176	0xbca000bb	-0.019531598
177	0x3bb46edb	0.005506379
178	0xbc5dd9bf	-0.013540684
179	0xbd5bcc11	-0.05366141
180	0x3ce66da0	0.028128445
181	0x3c7956af	0.015218421
182	0x3d7d0f40	0.06178212
183	0x3d85b002	0.065277115
184	0x3d43dcb4	0.0478179
185	0xbd09376a	-0.033500113
186	0xbba39ea2	-0.0049932757
187	0x3d47411b	0.048646074
188	0xbbdd6d58	-0.0067574196
189	0xbd176a39	-0.036966536
190	0x3cace354	0.021104492
191	0xbcdd38e4	-0.027004667
192	0x3c2b6d7d	0.010463116
193	0x3c7aa20d	0.015297425
194	0xbd0ea481	-0.034824852
195	0x3d053ac6	0.032526754
196	0x3cfbac87	0.030721916
197	0x3b80db81	0.003932417
198	0xbcfd2692	-0.03090218
199	0x3d7efef9	0.06225488
200	0xbc3bc9f4	-0.011461724
201	0x3cc934e5	0.024561355
202	0x3c304e77	0.010760895
203	0x3d3b3a89	0.04571012
204	0xbc52593a	-0.012838656
205	0x3d7c2509	0.061558757
206	0x3cd03035	0.025413612
207	0x3ccbe2d7	0.02488844
208	0x3cc1f94d	0.023678446
209	0xbc964304	-0.018342502
210	0xba218db9	-0.0006162781
211	0x3ccec40a	0.025239963
212	0xbbc4615f	-0.005993053
213	0xbb511496	-0.003190314
214	0xbcc9dcb5	-0.024641374
215	0x3d08e9ac	0.033425972
216	0x3d12244d	0.03567915
217	0x3ab5b44f	0.001386294
218	0xb996d940	-0.00028772093
219	0x3ce0b308	0.027429119
220	0x3dc86eb6	0.097867414
221	0xbc6fb33b	-0.014630134
222	0x3d167e5f	0.03674161
223	0x3d9168e9	0.07100088
224	0x3d2cdcc5	0.04220273
225	0x3bf3bb5a	0.0074381055
226	0x3d01e619	0.03171358
227	0x3d3552e3	0.0442685
228	0x3d535e17	0.051603403
229	0x3d6ed0a8	0.05830446
230	0x3b25d1ce	0.0025302055
231	0xbab8a35f	-0.0014086774
232	0x3c32bddb	0.010909523
233	0xbc92768e	-0.017878797
234	0xbd588656	-0.052862488
235	0xbc8b0426	-0.016969752
236	0x3ccfb676	0.025355559
237	0x3b7f6b62	0.0038973917
238	0xbb821075	-0.003969247
239	0x3dd30769	0.10304148
240	0x3d8b88f8	0.06813234
241	0xbc549fd0	-0.012977555
242	0xbba17cf0	-0.004928224
243	0x3d3a8fd4	0.04554732
244	0xbc86a1ed	-0.016434634
245	0x3d43b154	0.047776535
246	0x3d48317d	0.04887532
247	0xbd47019a	-0.04858551
248	0x3be061e8	0.006847609
249	0xb950c523	-0.00019909865
250	0x3c45f670	0.012082681
251	0x3d9d8709	0.076917715
252	0x392f09f2	0.00016693005
253	0xbd36bf00	-0.044615746
254	0xbd2ba68c	-0.04190688
255	0x3d855027	0.065094285

actor.preprocess.net.2.bias f4 [64]
0	0x3d5998fa	0.053124405
1	0x3c052164	0.008125637
2	0xbb986eaa	-0.004651864
3	0xbd283a65	-0.041071314
4	0x3a824739	0.0009939439
5	0xbd20bb93	-0.039241385
6	0xbc002208	-0.007820614
7	0x3b2e7830	0.002662193
8	0xbd408768	-0.047004133
9	0xbca89574	-0.020579077
10	0x3ca1cc77	0.019750817
11	0xbcae73f6	-0.021295529
12	0x3d81ced1	0.06338275
13	0xbd486f55	-0.0489343
14	0xbd2368bb	-0.0398948
15	0x3cfb124d	0.030648375
16	0xbcd8a389	-0.026445167
17	0x3cee20b8	0.029068336
18	0xbcc59e3a	-0.0241233
19	0xbd55f825	-0.052238602
20	0xbd01ac6a	-0.031658567
21	0xbcd5e2f3	-0.026109194
22	0x3c4be9b4	0.012445856
23	0x3c13a651	0.009011821
24	0x3c15002d	0.00909428
25	0xbc1a8991	-0.009432212
26	0x3c3d9f2d	0.011573595
27	0xbd31f675	-0.04344793
28	0x3d0c2fb5	0.034225184
29	0x3d19b826	0.037529133
30	0x3d443961	0.047906283
31	0x3d14ac1d	0.036296953
32	0x3cf2f7e5	0.029659221
33	0x3d204f39	0.039138053
34	0x3b273ce1	0.0025518464
35	0xbc324d9e	-0.010882763
36	0xbd37b99e	-0.044854753
37	0xbcf8b7f6	-0.030361157
38	0xbbbbfa95	-0.005736659
39	0xbd5b82fb	-0.05359171
40	0xbd3b5e53	-0.04574425
41	0xbb6eac89	-0.0036418757
42	0xbd2743cf	-0.04083615
43	0x3d26f14b	0.04075746
44	0xbd1a1a61	-0.037622813
45	0xbd07da86	-0.033167385
46	0x3c6d7b26	0.014494693
47	0x3bdd79c7	0.0067589018
48	0x3ca278c1	0.01983297
49	0x3d2b5738	0.041831225
50	0x3c7ce234	0.01543479
51	0xbcbedba8	-0.0232981
52	0xbcd7c54a	-0.026339192
53	0x3c06d99b	0.008230592
54	0x398233d4	0.00024834147
55	0xbc9369b7	-0.017994745
56	0x3d433ee7	0.04766741
57	0xbcd67148	-0.026177064
58	0xbd3b0c56	-0.04566606
59	0xbd361b65	-0.04445972
60	0xbcce3270	-0.025170535
61	0xbd3b772e	-0.045767955
62	0xbd371458	-0.044697136
63	0x3c37633c	0.011193093

actor.preprocess.net.4.weight f4 [64, 64, 3, 3]
0	0x3d8eccb4	0.06972638
1	0x3ca0644c	0.019579075
2	0xbc8d1d5a	-0.01722591
3	0x3b0af1cb	0.0021201249
4	0xbd4630f0	-0.048386514
5	0xbcb422f7	-0.021989329
6	0x3bccc535	0.006249095
7	0x3b9c85f7	0.004776712
8	0x3c2e586d	0.0106412
9	0xbd6ad187	-0.057328727
10	0xbce99aca	-0.028516192
11	0xbcc8cee1	-0.02451271
12	0xbd060bb9	-0.032726023
13	0x3c50294d	0.012705159
14	0xbab3c266	-0.0013714551
15	0x3c377205	0.011196618
16	0xbc675c80	-0.014121175
17	0x3ca27563	0.019831365
18	0x3cf98feb	0.030464133
19	0x3bad6932	0.0052920813
20	0x3bbdcb73	0.0057920753
21	0xbcef363a	-0.029200662
22	0x3b7f185d	0.0038924434
23	0x3bf8eec4	0.0075968225
24	0xbd4cebcf	-0.050029572
25	0x3ca4fc62	0.020139877
26	0xbc9301b6	-0.017945152
27	0x3cbbbf16	0.022918265
28	0xbc9f953c	-0.01948034
29	0xbc801ceb	-0.01563879
30	0xbce86a10	-0.028370887
31	0xbc7257bf	-0.014791428
32	0xbb160632	-0.0022891876
33	0x3c663d0c	0.014052641
34	0xbabadec6	-0.0014257065
35	0xbd11a0e9	-0.035553847
36	0xbcf5a1fa	-0.029984463
37	0x3c89d1f2	0.016823743
38	0xbccde9d2	-0.025135908
39	0x3d5a13e6	0.053241633
40	0x3d21e4f6	0.039524995
41	0x3c146607	0.009057528
42	0xbc848ae3	-0.016179508
43	0xbcdb140c	-0.026742958
44	0xbcbc1dcc	-0.022963427
45	0xbd073bbc	-0.03301595
46	0x3c37a448	0.011208601
47	0xbb7b484d	-0.0038342655
48	0x3a917654	0.0011097887
49	0xbcf4a892	-0.029865537
50	0x3bf38296	0.0074313385
51	0x3c3d2e6e	0.011546714
52	0x3cea8ac0	0.028630614
53	0xbd02e41e	-0.03195583
54	0x3cc1586b	0.023601731
55	0x3cb2e110	0.021835834
56	0xbd0fb1d4	-0.0350817
57	0x3cbc1bc5	0.02296246
58	0x3c73bbdc	0.014876332
59	0x3ca0a377	0.019609196
60	0x3baeb400	0.0053315163
61	0xba17f3e0	-0.0005796533
62	0x3ce0268c	0.02736213
63	0xbceb1d5c	-0.028700523
64	0x3b1e5719	0.00241608
65	0xbd6c8f81	-0.057754043
66	0xbcb175a6	-0.021662544
67	0xbd34e44c	-0.044163033
68	0xbc93b1a2	-0.018029038
69	0x3cb18504	0.021669872
70	0x3c4b0af0	0.012392744
71	0xbb30e691	-0.0026992897
72	0xbd2e5edf	-0.042570945
73	0xbc223366	-0.00989995
74	0x3c9def78	0.019279227
75	0xbb5e832a	-0.0033952692
76	0x3d04a3ce	0.03238278
77	0xbc8ba64a	-0.017047066
78	0x3cef43ed	0.029207194
79	0xbcecb199	-0.028893279
80	0xbc7891f7	-0.0151715195
81	0xbc6f4a76	-0.014605155
82	0x3d354ab2	0.044260688
83	0x3b79616b	0.003805245
84	0xbd409a28	-0.047022015
85	0x3c10b9bf	0.008833348
86	0x3ba63c3d	0.005073099
87	0xbcb2a8cb	-0.021809002
88	0xbceb8829	-0.02875145
89	0x3ccded4d	0.025137568
90	0x3b730997	0.0037084573
91	0x3cc09bfd	0.023511881
92	0x3bb20ab6	0.0054334057
93	0x3d1401aa	0.0361344
94	0x3c3a204a	0.011360237
95	0xbcaad34e	-0.020852711
96	0xbd15c01c	-0.036560163
97	0xbb9082d8	-0.004410129
98	0x3c6b37fd	0.01435661
99	0x3c731b55	0.014838059
100	0x3cef2f6f	0.029197423
101	0xbcc9d9bf	-0.024639962
102	0x3c8a634d	0.016893053
103	0xbcb37bbb	-0.021909585
104	0xbbfb0969	-0.007661034
105	0x3ce97d22	0.02850205
106	0x3b682d27	0.0035427304
107	0xbc95fae8	-0.018308118
108	0x3c9b0065	0.018921087
109	0x3d2382d4	0.03991969
110	0xbd0892c3	-0.033343088
111	0xbd1c9320	-0.038226247
112	0x3c8c71c5	0.017144093
113	0x3c5f2580	0.013619781
114	0x3ba32670	0.0049789473
115	0xbbe42a9d	-0.0069630877
116	0x3b0ee23a	0.0021802322
117	0xbcf19377	-0.029489262
118	0xbcf5217b	-0.029923191
119	0x3c995e0c	0.018721603
120	0x3c5d58eb	0.013509969
121	0xbc067b01	-0.008208037
122	0x3d11e7af	0.03562134
123	0xbcb46d5d	-0.022024805
124	0x3ca5d049	0.02024092
125	0x3c0b8fed	0.008518201
126	0xbcdd90ed	-0.027046645
127	0xbd26b28b	-0.040697616
128	0xbc8c1b55	-0.017102877
129	0xbc8df980	-0.017330885
130	0x3cc01728	0.023448542
131	0xbcfdb2b3	-0.030969
132	0x3ce4cfd7	0.027931137
133	0xbd1818c1	-0.037132982
134	0xbd20c489	-0.03924993
135	0x3d27a402	0.040927894
136	0x3d4a59e6	0.04940214
137	0x3bc7ba04	0.006095173
138	0xbbd82e23	-0.006597297
139	0x3c1d574a	0.009603331
140	0xbd26d38f	-0.0407291
141	0xbcd21915	-0.025646726
142	0xbad99c71	-0.0016602409
143	0xbd0304b4	-0.031986907
144	0xbd18645b	-0.03720508
145	0x3d15e8eb	0.03659908
146	0xbc8cda5e	-0.01719397
147	0x3c9837f0	0.01858136
148	0x3d091a27	0.033472206
149	0xbc49cbe3	-0.012316677
150	0xbcce97d6	-0.025218885
151	0xbcd820d5	-0.026382843
152	0x3c3739c5	0.011183207
153	0x3b02f213	0.0019980713
154	0xbcd7541e	-0.026285227
155	0xbc6a23e6	-0.014290785
156	0xbcd806f6	-0.026370507
157	0xbb8d7174	-0.004316503
158	0x3cd7e552	0.026354466
159	0x3b19a3dd	0.0023443617
160	0x3bff3ee9	0.007789482
161	0xbcec5fc9	-0.028854268
162	0x3d1161ca	0.03549365
163	0xbca04898	-0.019565865
164	0x3c23dfe0	0.010002106
165	0xbcdde416	-0.027086299
166	0x3c99d8e0	0.018780172
167	0x3d29abf1	0.04142374
168	0x3d2d7e1f	0.042356607
169	0x3c97835c	0.018495254
170	0xbcd66271	-0.026169987
171	0x3c8c45ac	0.017123066
172	0x3c555ad8	0.013022147
173	0x3c7c0434	0.0153818615
174	0xbd806759	-0.06269712
175	0xbd43c984	-0.047799602
176	0xbcfaf503	-0.030634409
177	0xbc975f39	-0.018478023
178	0xba12ce62	-0.00056002114
179	0xbcfc3332	-0.03078613
180	0xbd2a36b7	-0.041556086
181	0x3bb38c7f	0.005479395
182	0x38abf590	8.199655e-05
183	0xbca22b90	-0.019796163
184	0x3d1a6093	0.037689757
185	0x3d1c59e7	0.038171675
186	0x3cad86d4	0.021182455
187	0x3c9317b4	0.017955638
188	0x3cfcc701	0.030856611
189	0x3d0a5347	0.033770826
190	0xbc5487e3	-0.012971851
191	0xbce4482d	-0.027866447
192	0x3c4c9ff9	0.012489312
193	0xbc2a4d7f	-0.010394453
194	0xbbb91e35	-0.005649353
195	0xbbe24193	-0.0069047897
196	0x3ce515c8	0.027964488
197	0xbcddc1f8	-0.02707003
198	0xbc1415a9	-0.009038367
199	0x3c6e8c65	0.01455984
200	0xbcb24b5c	-0.02176445
201	0xba3b8dbe	-0.0007154605
202	0x3c998810	0.018741637
203	0xbc740575	-0.014893879
204	0xbcc46f71	-0.02397892
205	0xbcb15866	-0.021648597
206	0xbc8fe62a	-0.017565805
207	0xbcca1971	-0.024670335
208	0xbd4a638d	-0.049411345
209	0xbd1e2533	-0.038609695
210	0x3be9f980	0.0071403384
211	0x3ceb5290	0.028725892
212	0xbc3a37b6	-0.011365822
213	0x3bdca52b	0.0067335567
214	0x3d004aac	0.031321213
215	0x3ceb312a	0.028709967
216	0x3d06286e	0.0327534
217	0x3c0ab721	0.008466513
218	0xbc0f7e25	-0.008758103
219	0x3bd2ab02	0.006429077
220	0x3d2d0b6b	0.042247217
221	0x3c8aeaa1	0.016957583
222	0xbd04a972	-0.03238816
223	0x3c790a6c	0.015200239
224	0x3b0a64e3	0.0021117262
225	0xbd3449a2	-0.044015534
226	0x3c5c1432	0.013432549
227	0x3cb6af80	0.022300482
228	0xbaa7c647	-0.001280018
229	0x3cda36e6	0.026637506
230	0x3aec421e	0.0018025076
231	0xbcbedb76	-0.023298007
232	0xbc510e77	-0.012759796
233	0x3d0ba03a	0.03408835
234	0x3c1f7460	0.009732336
235	0xbc94c488	-0.01816012
236	0x3cbe5e71	0.023238393
237	0x3c54b30a	0.012982139
238	0x3d2a0182	0.041505344
239	0xbc068c28	-0.008212127
240	0x3c880683	0.016604668
241	0xbbb0d396	-0.0053963168
242	0x3c935c7e	0.01798844
243	0xbb3f343d	-0.0029175424
244	0x3b9caca7	0.004781324
245	0xba115a2a	-0.00055447465
246	0x3add759b	0.0016896011
247	0xbcd50bc1	-0.026006581
248	0x3d06e169	0.03292981
249	0xbc086a26	-0.008326089
250	0x3d269e3c	0.040678248
251	0x3bdab4d7	0.00667439
252	0x3d0dedf2	0.03465075
253	0x3cad23f8	0.021135315
254	0xbd2460ec	-0.040131494
255	0x3cbe6d85	0.023245582

actor.preprocess.net.4.bias f4 [64]
0	0xbca97474	-0.020685412
1	0xbd627c4a	-0.055294313
2	0xbd297f8c	-0.041381404
3	0xbd27cf1b	-0.040968996
4	0xbbac29a4	-0.0052539874
5	0xbc11a854	-0.00889023
6	0x3cacd81c	0.021099143
7	0x3c2634ee	0.010144455
8	0xbd18c409	-0.03729633
9	0x3d293125	0.041306634
10	0xbce27216	-0.027642291
11	0xbcd9cbcb	-0.026586434
12	0x3d26a809	0.040687595
13	0xbcb8ded5	-0.022567192
14	0x3d238697	0.039923277
15	0xbada9942	-0.0016677754
16	0x3d99bc49	0.07506616
17	0x3d242437	0.0400736
18	0x3d0d5eb3	0.03451414
19	0xbb96cc45	-0.0046019875
20	0xbcc08eb1	-0.02350554
21	0x3bba93d1	0.0056938906
22	0xbc983a17	-0.018582387
23	0xbbc1ad60	-0.0059105605
24	0xbd1ef356	-0.038806282
25	0xbce43c88	-0.027860895
26	0xbcda56f6	-0.026652794
27	0xbd0cbab0	-0.034357727
28	0x3d507059	0.050888393
29	0xbd46ed7d	-0.04856633
30	0xbac910ed	-0.0015340127
31	0x3d7838db	0.060601097
32	0xbd0f7a75	-0.035028894
33	0x3d27b315	0.04094227
34	0xbc97e715	-0.018542806
35	0x3cc6b038	0.02425395
36	0x3d755bbb	0.059901934
37	0x3ae055ae	0.0017115378
38	0x3d7318cf	0.05934983
39	0xbbf878fa	-0.007582781
40	0x3cf6454d	0.030062342
41	0x3d81610a	0.06317337
42	0xbc84de77	-0.01621936
43	0x3d0857dc	0.033286914
44	0xbc9cfc4c	-0.019163273
45	0xbc0f8bf0	-0.008761391
46	0x3bd0629e	0.0063594123
47	0x3be03c83	0.006843151
48	0x3d7c0bd1	0.061534707
49	0x3c35f733	0.0111063
50	0xbc40f19e	-0.011776356
51	0xbd571b4b	-0.052516263
52	0xbda6091b	-0.081072055
53	0x3c36502d	0.011127514
54	0xbb739746	-0.0037169023
55	0xbd42e979	-0.047585938
56	0x3c0e586e	0.0086880755
57	0xbd3b36e7	-0.045706656
58	0xbd547fda	-0.05187974
59	0xbb57e372	-0.0032941964
60	0x3d13e269	0.036104593
61	0xbc3bbeff	-0.011459111
62	0xbd6a74b4	-0.057240203
63	0x3c4a4540	0.012345612

actor.mu.model.0.weight f4 [3, 3136]
0	0x3c80fbd6	0.015745085
1	0x3cca123f	0.024666904
2	0x3bfa5043	0.0076389625
3	0xbc880bed	-0.01660725
4	0x3c47f355	0.012204011
5	0x3c8ecc9b	0.017431548
6	0xbcce76d2	-0.025203142
7	0x3abdd9de	0.0014484485
8	0x3b97b0f4	0.0046292488
9	0xba3527ba	-0.0006910522
10	0x3b70906f	0.0036707183
11	0xbd27e669	-0.04099122
12	0x3bc6ddde	0.006068929
13	0x3c932f1a	0.017966796
14	0x3c47b2c4	0.012188617
15	0xbbb283d5	-0.0054478445
16	0xbbb6226c	-0.0055583026
17	0x3b14d480	0.0022709668
18	0x3bede0c4	0.00725946
19	0xbd5f6902	-0.054543503
20	0x3c47eedb	0.012202944
21	0xbb275a81	-0.0025536122
22	0xbc03bd4b	-0.008040736
23	0xbcc37af5	-0.023862341
24	0x3bffbf07	0.0078047547
25	0xbbec4d7d	-0.0072113858
26	0x3cb519fe	0.02210712
27	0xbc2a788e	-0.010404719
28	0x3cfbee61	0.030753316
29	0xbb3f0bec	-0.0029151393
30	0xbaff4ec0	-0.0019478425
31	0x3d14f332	0.03636474
32	0xbbb3cb10	-0.0054868534
33	0xbc1599ed	-0.009130937
34	0x3cd92ace	0.026509669
35	0xbcdf6cf5	-0.027273634
36	0x3c66bc04	0.014082912
37	0xbb4736c9	-0.0030397645
38	0xbb657033	-0.0035009503
39	0xbb6a7101	-0.0035772922
40	0xbcef4202	-0.02920628
41	0xbaf45766	-0.001864177
42	0xbbcba44f	-0.0062146555
43	0x3ca2b0f5	0.01985977
44	0xbb823135	-0.003973151
45	0x3c3851fc	0.011250015
46	0x3c2b7006	0.01046372
47	0x3c3c8612	0.011506574
48	0x3c8cadf2	0.017172787
49	0xbae26792	-0.0017273298
50	0xbca7fc37	-0.020506008
51	0x3c1c0fad	0.009525222
52	0x3be32d2e	0.006932876
53	0xbc217029	-0.009853401
54	0xbc8fb4d3	-0.017542278
55	0x3ba51f8d	0.0050391615
56	0x3ab44af1	0.0013755244
57	0x3b45d80e	0.0030188593
58	0xbb67db25	-0.0035378423
59	0x3c5ce216	0.013481637
60	0xbcaea24d	-0.021317625
61	0xbc8e9ae1	-0.017407836
62	0xbc5977aa	-0.013273159
63	0xbc95c16a	-0.018280704
64	0xbac96ed0	-0.0015368108
65	0x3bbf9616	0.005846749
66	0xbb49bcdb	-0.0030782733
67	0xbcacd190	-0.021096021
68	0xbcd9a1aa	-0.026566345
69	0x3b8f30de	0.004369839
70	0xbc3a07d0	-0.011354402
71	0x3cb8987f	0.022533653
72	0xbb51477f	-0.0031933484
73	0xbcc88707	-0.024478449
74	0x3c4c0760	0.01245293
75	0x3babcba5	0.005242782
76	0x3cfea198	0.031082913
77	0x3c565224	0.013081107
78	0x3d12abd6	0.035808407
79	0xbcc14415	-0.023592034
80	0x3bf882ea	0.0075839655
81	0xbc2181cb	-0.009857605
82	0xbc27f82e	-0.010252042
83	0xba6cd8d8	-0.0009034998
84	0xbbe403c4	-0.0069584567
85	0xbc6eff83	-0.014587286
86	0x3a3246b2	0.00068006956
87	0x3bad6719	0.005291831
88	0xbc375560	-0.011189789
89	0x3baec6a5	0.005333739
90	0xbc9f4cb9	-0.019445764
91	0xbc796c70	-0.015223607
92	0xbc7274cd	-0.014798355
93	0x3ccb9883	0.024852997
94	0xbacdb7dd	-0.0015695054
95	0x3c7c7085	0.015407686
96	0x3c069c5b	0.008215989
97	0x3ca7acaa	0.020468075
98	0x3bdeb35f	0.006796285
99	0x3c29c382	0.010361554
100	0x3d408ef5	0.047011334
101	0xbbfc243e	-0.00769475
102	0x3d12b50b	0.035817187
103	0xbd133fa6	-0.03594937
104	0xbc8d328b	-0.017236015
105	0xbc986f25	-0.018607685
106	0xba99e6b6	-0.0011741731
107	0x3cc183f2	0.023622487
108	0xbbca860c	-0.0061805304
109	0x3c0ecfb7	0.008716515
110	0x3cf5ce3c	0.030005567
111	0x3c3de82b	0.011590998
112	0xb8ecb340	-0.00011286745
113	0x3cace1df	0.021103797
114	0x3bef8010	0.0073089674
115	0xbb9cd481	-0.0047860746
116	0x3c3e6d51	0.011622743
117	0x3cd7804e	0.026306298
118	0x3a62c047	0.00086498674
119	0xbc9fd7bb	-0.019512048
120	0x3c08a84e	0.008340908
121	0xbc624bbe	-0.013812004
122	0x3c3f9841	0.011694015
123	0x3c7e5738	0.015523724
124	0x3d1d3087	0.038376357
125	0x3c35a93f	0.011087715
126	0x3bbe49f7	0.005807157
127	0x3bc67e51	0.0060575386
128	0xbca3d0bb	-0.019996991
129	0x3cac0256	0.020997208
130	0xbb7e246a	-0.0038779029
131	0xbcc38daa	-0.023871262
132	0xba193d8b	-0.00058456574
133	0x3cf5600e	0.029953029
134	0x3c0aea47	0.008478708
135	0xbd03b1f6	-0.03215214
136	0x3b38e033	0.0028209805
137	0xbcc76b4c	-0.024343155
138	0x3d0b5d48	0.034024507
139	0x3c8d6e67	0.017264558
140	0x3cb8f504	0.02257777
141	0xbc3666ba	-0.01113289
142	0x3d21d87e	0.039513104
143	0xbca8964f	-0.020579485
144	0x3cd0dbae	0.025495376
145	0x3d1438f0	0.036187112
146	0x3c3397ec	0.010961514
147	0xbc35ed58	-0.01110395
148	0x3b8f4e39	0.0043733385
149	0xbc7f932d	-0.015599054
150	0xbccdd0f6	-0.025124054
151	0x3c6c646f	0.014428242
152	0x3a72803c	0.0009250676
153	0x3cba9554	0.022776283
154	0xbc5340f8	-0.012893908
155	0xbc8d67d4	-0.017261423
156	0x3b384a0d	0.002812031
157	0x3c514912	0.012773769
158	0x3c81cbcc	0.015844248
159	0x3b0515ba	0.002030714
160	0x3cc043a9	0.023469763
161	0xbceeff26	-0.029174399
162	0xbb5821f7	-0.003297923
163	0xbcc375b1	-0.02385983
164	0xbc4dc29c	-0.0125586055
165	0xbc211149	-0.009830781
166	0xbcb4bb59	-0.02206199
167	0x3ca07ada	0.01958983
168	0xb9c1a9bd	-0.00036938293
169	0x3c76ad67	0.015055991
170	0x3cbe6af6	0.023244362
171	0xbc82a059	-0.0159456
172	0xbc820e5e	-0.015875991
173	0x3d0c5365	0.03425922
174	0x3b4ee169	0.003156746
175	0xbabc9ac9	-0.0014389391
176	0x3ca329a9	0.019917326
177	0xbc1839b4	-0.009291101
178	0xbc78a4b6	-0.015175989
179	0x3ce6ed33	0.028189277
180	0xbb78d72b	-0.0037970047
181	0x3c693f20	0.014236242
182	0xbc9b1885	-0.01893259
183	0x3ca770c8	0.02043952
184	0xbce352b0	-0.02774939
185	0xbc9c47c9	-0.019077199
186	0x3c40b2d3	0.011761385
187	0xbd014260	-0.03155744
188	0x3d123fd9	0.03570542
189	0x3c1f24a8	0.009713329
190	0x3c328f5b	0.010898436
191	0xbd1fb9d6	-0.038995586
192	0xbb971c7b	-0.0046115494
193	0x3c384ec3	0.011249247
194	0x3acede12	0.0015782735
195	0x3cf6aa96	0.030110639
196	0xbd13be1a	-0.036069967
197	0x3cb9eb11	0.022695096
198	0x3c5a9631	0.0133414725
199	0xbd362155	-0.04446538
200	0xbb908e03	-0.0044114604
201	0x3cdbe773	0.026843762
202	0xbc8569da	-0.016285826
203	0x3c584ebd	0.013202366
204	0x3cf5ebda	0.03001969
205	0x3cdeeec5	0.027213464
206	0xbc005422	-0.007832559
207	0x3cba10e2	0.022713128
208	0xbd31be91	-0.04339463
209	0xbb917b0b	-0.0044397167
210	0xbd565cf5	-0.052334744
211	0xbabbe64e	-0.0014335604
212	0xbcb8f44d	-0.02257743
213	0xbbebf857	-0.0072012353
214	0xbc0fec1b	-0.008784319
215	0x38c0b622	9.189198e-05
216	0x3c85a14a	0.01631226
217	0xbbbc2b34	-0.005742455
218	0xbd1588fe	-0.0365076
219	0x3d6353a0	0.055499673
220	0x3bea70c2	0.007154555
221	0x3c30756b	0.010770182
222	0x3d1550ba	0.03645394
223	0xbbd9c804	-0.006646158
224	0xbc4d2035	-0.012519886
225	0x3d0a4650	0.03375846
226	0xbcc00a21	-0.02344233
227	0x3bd072de	0.0063613495
228	0xbc0e277a	-0.008676404
229	0xbd2363cd	-0.0398901
230	0xbc0b4408	-0.008500107
231	0xbc89a7af	-0.01680359
232	0xbcb97504	-0.022638805
233	0xbd03f7db	-0.032218795
234	0xbc89e867	-0.01683445
235	0xbb179c22	-0.0023133834
236	0x3c0b01fe	0.008484362
237	0x3bd051e3	0.006357418
238	0x394f0d15	0.00019745932
239	0xbc71e2fe	-0.014763592
240	0x3d566dbb	0.05235074
241	0xbce6cbb2	-0.028173301
242	0x3c6c6ee6	0.014430737
243	0x3c8ae23e	0.016953584
244	0xbc937233	-0.01799879
245	0xbd8a84e2	-0.06763627
246	0xbd7ae8f8	-0.061257333
247	0x3d5f8a76	0.054575406
248	0xbd1c04bc	-0.038090453
249	0x3cc4b182	0.024010424
250	0x3d6bf0e9	0.057602797
251	0xbce9b927	-0.02853067
252	0xbd142631	-0.036169235
253	0x3d07735b	0.033068996
254	0x3ba8a4a5	0.0051465803
255	0xbc9871f3	-0.018609023

actor.mu.model.0.bias f4 [3]
0	0xbcd18d81	-0.02558017
1	0x3d2af718	0.041739553
2	0xbdd7e824	-0.10542324

critic.preprocess.net.0.weight f4 [32, 12, 8, 8]
0	0x3d031e8d	0.032011557
1	0xbc7e625d	-0.015526381
2	0xbc4e6952	-0.0125983525
3	0xbcb45395	-0.022012511
4	0x3b42e3ed	0.0029737905
5	0xbc40ed64	-0.011775348
6	0x3c168ee5	0.009189342
7	0xbc683d04	-0.0141747035
8	0x3b9de044	0.0048179943
9	0xbc2b264d	-0.010446143
10	0x3c8cf9c7	0.017208947
11	0x3c886115	0.016647855
12	0x3c074999	0.008257293
13	0x3b71ea3f	0.0036913303
14	0xbc99751a	-0.018732596
15	0xbc6ca088	-0.0144425705
16	0xbc6ddcfa	-0.014518017
17	0x3c934229	0.017975884
18	0xbbbf34eb	-0.0058351657
19	0xbc35c11b	-0.011093403
20	0xbcaddbff	-0.021223066
21	0x3c7498d8	0.014929019
22	0xbcb21cdc	-0.021742277
23	0xbd00f804	-0.031486526
24	0x3c97861d	0.018496567
25	0xbb976a5c	-0.0046208333
26	0x3d0d3562	0.034474738
27	0xbcf10afa	-0.02942418
28	0xbc19f0b7	-0.00939577
29	0xbcc35343	-0.023843413
30	0x3c0fc2af	0.0087744435
31	0x3ced06a8	0.028933838
32	0x3cd4d5de	0.025980886
33	0x3cd8cfac	0.026466213
34	0xbbeddafa	-0.00725877
35	0x3c6e2a4a	0.01453645
36	0x3cd2fb0e	0.025754478
37	0x3c353c17	0.01106169
38	0x3ad30cf1	0.0016101879
39	0xbcf3aed3	-0.029746449
40	0xbb49e0c9	-0.0030804148
41	0xbcab4e60	-0.020911396
42	0x3d21486d	0.03937571
43	0xbc739632	-0.014867352
44	0xbbfba640	-0.0076797307
45	0xbc90c38c	-0.017671369
46	0xbcb2f4ab	-0.021845182
47	0x3cefac83	0.029257065
48	0x3cab781a	0.020931292
49	0x3ce885e4	0.028384157
50	0x3cd189e2	0.025578443
51	0x3c265471	0.010151968
52	0x3c370aee	0.011172039
53	0xbab2d609	-0.001364411
54	0xbbd1a7ab	-0.0063981614
55	0x3ca0121d	0.019539887
56	0xbc70406a	-0.014663795
57	0x3c86c3fc	0.016450875
58	0xbbbee3dc	-0.005825503
59	0x3cf8e2d8	0.030381605
60	0x3d0677bb	0.032829028
61	0xbc0c975c	-0.008581009
62	0xbc8506f7	-0.016238673
63	0xbc8dd522	-0.017313544
64	0xbc8ef453	-0.017450487
65	0x3bf25514	0.007395396
66	0xbd1cc167	-0.03827038
67	0xbc755ba7	-0.014975465
68	0x3c846c92	0.016165052
69	0x3d183a7e	0.037165157
70	0xbc0de26d	-0.008659941
71	0xbd1dff08	-0.038573295
72	0xbd08306b	-0.0332493
73	0xbd061f3a	-0.032744624
74	0xbd273cef	-0.040829595
75	0xbc4b0ac4	-0.012392703
76	0xbd11794b	-0.035516065
77	0xbc4335d2	-0.011914687
78	0x3bef7add	0.0073083476
79	0x3cd1728d	0.025567317
80	0x3ca90ae9	0.020635085
81	0x3a128720	0.0005589593
82	0xbd1e03c7	-0.03857782
83	0xbcd66374	-0.02617047
84	0xbd096d32	-0.033551402
85	0xbae676ec	-0.0017583049
86	0x3c5694de	0.013097016
87	0xbc7b0fe6	-0.015323615
88	0x3cf76eae	0.030204143
89	0xbc3217b1	-0.010869906
90	0xbc36f7bb	-0.011167462
91	0xbc5689a1	-0.013094337
92	0x3ccf8e4b	0.025336405
93	0xbbe23b51	-0.0069040437
94	0xbc94e5b5	-0.01817594
95	0x3cbacfc8	0.022804156
96	0xbcf505d1	-0.02991
97	0x3ca77cc2	0.020445231
98	0x3cf372c7	0.029717816
99	0x3cd25a27	0.025677754
100	0xbd03afc3	-0.03215004
101	0x3c75af4a	0.014995405
102	0x3cfc5ad4	0.030805029
103	0xbc9ed987	-0.019390834
104	0x39fffcc3	0.00048825712
105	0xbca3ff15	-0.020019094
106	0xbce2da2d	-0.027691925
107	0xbbf4af63	-0.007467197
108	0xbcbd731e	-0.023126181
109	0x3c6a4cbf	0.014300524
110	0xbcb0488e	-0.021518972
111	0xbb45de9f	-0.0030192507
112	0xbc892fec	-0.016746484
113	0xbd12ecd5	-0.035870392
114	0x39331de5	0.00017081907
115	0x3c0fa095	0.008766313
116	0x3d0a1b6a	0.03371755
117	0x3c2ffce4	0.010741446
118	0xbcf49081	-0.029854061
119	0x3ceb9291	0.028756412
120	0x3ba81fad	0.005130729
121	0xbb344dc1	-0.0027512165
122	0x3b166c47	0.0022952722
123	0xbb8e7cbe	-0.0043483665
124	0x3c831e6c	0.016005717
125	0xbbb66462	-0.005566166
126	0x3cac074b	0.020999571
127	0x3bafa247	0.005359921
128	0x3cf06696	0.029345792
129	0xbc50392f	-0.012708946
130	0x3cd6417c	0.026154272
131	0x3ca7fd2f	0.02050647
132	0x3cb54930	0.022129625
133	0x3c987d68	0.018614486
134	0xbccae6fc	-0.024768345
135	0x3cd98a29	0.026555138
136	0x3bb52d26	0.0055290638
137	0x3c23e818	0.010004066
138	0xbc87133d	-0.016488666
139	0x3c9cb287	0.019128097
140	0x3cd8c390	0.026460439
141	0xbcac3086	-0.021019232
142	0xbc2083f1	-0.009797082
143	0xbd175e25	-0.036955018
144	0xbc6b4616	-0.0143599715
145	0xbce31d01	-0.027723791
146	0xbbf1cfac	-0.0073794927
147	0xbc7a96f3	-0.015294778
148	0xbc4f068f	-0.012635841
149	0xbc1346c7	-0.008989043
150	0xbc7e2a8f	-0.015513076
151	0xbd15569e	-0.036459558
152	0x3aa004b8	0.0012208438
153	0xbabebeea	-0.0014552746
154	0x3abe95fd	0.001454055
155	0x3aba6e4b	0.0014223544
156	0xbd08f6c0	-0.033438444
157	0x3cead9d1	0.028668316
158	0xbc497d43	-0.012297931
159	0xbce6d92a	-0.028179724
160	0x3d033d39	0.03204081
161	0x3ca61112	0.020271812
162	0xbb478380	-0.003044337
163	0xbc28eb28	-0.010309972
164	0x3c9e9091	0.019356044
165	0xbc0e0090	-0.008667126
166	0xbd0f2ea2	-0.034956582
167	0x3c805f34	0.015670396
168	0xbd04c044	-0.03240992
169	0x3c8ef51e	0.017450865
170	0x3c1de317	0.009636662
171	0xbd03e128	-0.032197148
172	0x3c983e7d	0.018584484
173	0xbc7e747f	-0.0155307045
174	0xbd00b770	-0.03142494
175	0xbd20827a	-0.039186932
176	0xbc5fc645	-0.013658111
177	0x3c27d66d	0.010243994
178	0x3c2cda68	0.010550119
179	0xbd139a10	-0.036035597
180	0x3c17d4b8	0.009267025
181	0x3cac09e3	0.021000808
182	0x3c9154fd	0.01774072
183	0xbcf6f960	-0.030148208
184	0xbcaefd5d	-0.021361047
185	0x3c7f6b2a	0.015589515
186	0x3cc78817	0.024356885
187	0x3b368981	0.0027852955
188	0xbd035ed9	-0.032072876
189	0x3ca143e3	0.019685691
190	0xbd1fa46c	-0.038975164
191	0xbd1da940	-0.038491488
192	0xbbdac683	-0.0066764965
193	0x3ade5998	0.0016963957
194	0xbcd45c19	-0.025922822
195	0xbc5fdf3e	-0.013664065
196	0x3c01f03c	0.0079308115
197	0xbc8e1643	-0.0173446
198	0x3cda6200	0.026658058
199	0xbd31c5dd	-0.043401588
200	0x3c10d020	0.008838683
201	0x3a30bfdf	0.0006742458
202	0xbcf2d81e	-0.029644068
203	0xbd29000e	-0.041259818
204	0xbd259af8	-0.040430993
205	0xbacf1ec0	-0.0015802011
206	0x3b7ff5e6	0.003905648
207	0x3cb7bed4	0.022429861
208	0xbcfda719	-0.030963467
209	0xbc77a36e	-0.015114648
210	0xbaee07e2	-0.0018160308
211	0xba0617ca	-0.0005115239
212	0x3bec267c	0.007206736
213	0x3cb7c56e	0.022433009
214	0x3cd35097	0.025795264
215	0x3caf9fb3	0.021438455
216	0xbb3b5fe7	-0.0028591098
217	0x3c9a7a60	0.018857181
218	0x3c804e25	0.015662262
219	0x3b384028	0.0028114412
220	0xbb62aac3	-0.0034586645
221	0x3c9dc4d6	0.019258898
222	0x3b98350f	0.004644997
223	0x3cf48995	0.02985076
224	0xbcffa555	-0.031206766
225	0x3caa0e63	0.020758813
226	0xbcf5bcf8	-0.029997334
227	0xbd097846	-0.033561967
228	0xbc423ff9	-0.011856073
229	0xbccd30c5	-0.02504767
230	0xbd0b1555	-0.03395589
231	0xbcded690	-0.02720192
232	0xbc94531d	-0.018106038
233	0xbcf4906b	-0.02985402
234	0xbbab9333	-0.0052360534
235	0x3c97175a	0.018443752
236	0xbd11f70e	-0.035636
237	0x3d0eeaa4	0.03489174
238	0x3c268768	0.010164119
239	0xbcea84c5	-0.028627763
240	0xbc31ad87	-0.010844595
241	0xbbbee3d6	-0.0058255
242	0x3cab0d44	0.020880349
243	0xbce6bc5a	-0.028165985
244	0xbc59e1af	-0.013298436
245	0x3c2ac994	0.0104240365
246	0x3cd74018	0.02627568
247	0xbd25aef9	-0.04045007
248	0xbcc3d2af	-0.023904173
249	0x3ce78fdf	0.028266845
250	0x3c138ad2	0.009005265
251	0x3be3d546	0.0069529144
252	0x3baa47e4	0.0051965583
253	0xbc5938cf	-0.013258173
254	0xbce835dc	-0.028345995
255	0x3cbccf17	0.023047967

critic.preprocess.net.0.bias f4 [32]
0	0xbcbb3a1c	-0.022854857
1	0xbb2eaaeb	-0.0026652168
2	0xba4f3e80	-0.00079057366
3	0xbd061310	-0.032733023
4	0x3d43923f	0.047746893
5	0xbbb86011	-0.0056266864
6	0x3d4f1499	0.050556753
7	0x3cfc1c1e	0.030775126
8	0xbc1c8f50	-0.009555653
9	0x3cdcb948	0.026943818
10	0xbd543625	-0.05180945
11	0xbc1e7202	-0.009670736
12	0xbd6973d3	-0.056995224
13	0xbd11826d	-0.035524774
14	0xbd404ea2	-0.04694999
15	0xbd42e085	-0.0475774
16	0xbd37dabf	-0.044886347
17	0x3ab5abdd	0.0013860423
18	0xba566f17	-0.0008180006
19	0x3d4cd68d	0.0500093
20	0xbcf1b080	-0.029503107
21	0xbd427a9d	-0.047480214
22	0xbb8eabf7	-0.004353996
23	0x3c68a2e4	0.014198992
24	0x3c14dc26	0.009085691
25	0x3d12b7a6	0.035819672
26	0xbc1e9e3a	-0.009681279
27	0xbb644ab8	-0.0034834575
28	0xbd51df7c	-0.051238522
29	0xbc2100c4	-0.009826843
30	0xbba840f1	-0.0051346947
31	0xbc1798cb	-0.009252737

critic.preprocess.net.2.weight f4 [64, 32, 4, 4]
0	0xba20dccc	-0.0006136417
1	0x3d084539	0.03326914
2	0x3a99dd5a	0.0011738942
3	0x3ceead9d	0.02913552
4	0xbd029d50	-0.031888306
5	0x3b6c1e2a	0.0036028721
6	0x3c8aa9bd	0.01692664
7	0x3966127c	0.00021941395
8	0x3ba890d3	0.0051442175
9	0xbc0b4574	-0.008500446
10	0xbc53436c	-0.012894493
11	0x3cda3e04	0.0266409
12	0xbcc0557a	-0.023478258
13	0x3cabe213	0.020981824
14	0xbd2b2d1d	-0.04179107
15	0xbb211df2	-0.00245845
16	0x3c67703b	0.014125879
17	0x3cfcb7a1	0.03084928
18	0x3cd62ec7	0.026145352
19	0xbcb303ba	-0.021852363
20	0xbc45e6c5	-0.0120789455
21	0x3c9ce72c	0.0191532
22	0xbc78421b	-0.0151524795
23	0xbc6d3229	-0.014477291
24	0xbcfae3cf	-0.030626206
25	0xbbc6543a	-0.006052521
26	0xbac9f1a2	-0.0015407095
27	0x3b969ae9	0.0045961034
28	0xbd195f53	-0.037444424
29	0xbd21ed8c	-0.039533183
30	0x3ccb2223	0.024796551
31	0x3c511f96	0.012763878
32	0x3a162f1e	0.0005729067
33	0xbd3e47a5	-0.046455044
34	0xbc2d6dd2	-0.010585265
35	0x3c7df853	0.0155011
36	0x3ccc1d99	0.024916457
37	0xbd1f1536	-0.038838588
38	0x3b26083c	0.0025334498
39	0x3cdafcb2	0.026731823
40	0xbaa428da	-0.0012524382
41	0xbd942239	-0.0723309
42	0xbc8f6d6a	-0.017508227
43	0xbd2e5b64	-0.042567626
44	0xbd8ab78a	-0.067732885
45	0xbd7d6ed7	-0.061873283
46	0x3bda8913	0.0066691726
47	0xbd3318cc	-0.04372482
48	0xbc8d92a4	-0.017281838
49	0xbc3efec9	-0.011657425
50	0xbadeb9e6	-0.0016992658
51	0xbcbb916f	-0.022896497
52	0xbd065b15	-0.032801706
53	0xbd085666	-0.03328552
54	0x3cbcc644	0.02304376
55	0xbb18cbad	-0.002331476
56	0xbd1931fe	-0.037401192
57	0xbcbb7413	-0.022882497
58	0xbc9d3cbf	-0.019194005
59	0x3ccce4bc	0.025011413
60	0xbd15e966	-0.03659954
61	0x3bceaa14	0.006306896
62	0x3be72dd3	0.007055023
63	0xbcd6143b	-0.026132694
64	0x3c9a57af	0.018840639
65	0xbbc26136	-0.0059319986
66	0xbc9783e9	-0.018495517
67	0x3b27a196	0.002557849
68	0x3d207f0e	0.03918367
69	0xbd5a731e	-0.05333244
70	0xbc125814	-0.008932132
71	0x3d19f0a1	0.037582997
72	0xbd656719	-0.056006525
73	0xbd430aea	-0.04761783
74	0x3cb26365	0.02177591
75	0xbd8248f0	-0.06361568
76	0x3c0971d5	0.008388956
77	0x3c889c6c	0.01667615
78	0x3cd841f0	0.026398629
79	0xbc167d18	-0.009185098
80	0xbc76e787	-0.015069849
81	0x3d02c7bf	0.031928774
82	0xbcc009ed	-0.023442233
83	0xbcba6601	-0.022753717
84	0xbd1b4fe1	-0.037917975
85	0xbd583ee4	-0.052794352
86	0xbd054282	-0.03253413
87	0x3cc5c602	0.024142269
88	0x3d386689	0.04501966
89	0x3d1876cc	0.03722267
90	0x385c85f5	5.2576845e-05
91	0x3c16d58a	0.009206185
92	0xbd257b34	-0.0404007
93	0x3af13032	0.0018401204
94	0xbcb215ca	-0.021738905
95	0x3cb6faf3	0.022336459
96	0xbd25c4ba	-0.040470816
97	0x3c769058	0.015049063
98	0xbb32a71f	-0.0027260256
99	0x3cd6fb1d	0.026242787
100	0x3d13befa	0.0360708
101	0xbd270b0e	-0.040782027
102	0xbd082bb7	-0.033244815
103	0xbd3f9424	-0.046772137
104	0xbc9ab00b	-0.018882772
105	0xbd3751c3	-0.04475571
106	0xbb993ca4	-0.0046764184
107	0xbd5a0bf1	-0.053234044
108	0x3c917898	0.017757699
109	0x3cc726b3	0.024310445
110	0xbd0c8228	-0.034303814
111	0xbc082254	-0.008308966
112	0xbd1d01bb	-0.03833173
113	0xbc400ff6	-0.011722555
114	0xbd00a8bb	-0.031410914
115	0x3d0cc46a	0.034367003
116	0x3cb0c6ba	0.021579135
117	0x3c7df4ef	0.015500291
118	0xbcf92eeb	-0.03041788
119	0xbd53824f	-0.051637944
120	0xbd306fa7	-0.04307523
121	0x3c932849	0.017963545
122	0xbcbef53a	-0.023310293
123	0xbc5bb98e	-0.013410939
124	0x3c2f98ee	0.010717614
125	0xbd20cc14	-0.039257124
126	0xbd5ad9e4	-0.053430453
127	0xbcd7153d	-0.026255244
128	0xbaadecb2	-0.0013269393
129	0x3cae50e8	0.021278813
130	0x3d387496	0.04503306
131	0xbd603e22	-0.054746754
132	0xbd093f97	-0.03350791
133	0x3b8ad969	0.004237343
134	0xbad3da78	-0.0016163131
135	0xbd8442ca	-0.064580515
136	0xbbfa6dd4	-0.007642487
137	0xbbae3952	-0.0053168917
138	0x3d090dba	0.033460356
139	0xbc13dae6	-0.009024357
140	0xbcc11334	-0.023568727
141	0x3d434e38	0.047682017
142	0xbc89a1a5	-0.016800711
143	0xbcb08960	-0.02154988
144	0xbd206f42	-0.039168604
145	0xbc8d6889	-0.01726176
146	0xbb39f261	-0.002837323
147	0x3c8a1260	0.016854465
148	0x3a82e21d	0.00099856
149	0xbce774ac	-0.028253876
150	0x3cb465bd	0.022021169
151	0xbd83b488	-0.06430918
152	0xbc6e506b	-0.01454554
153	0x3d0cd937	0.03438684
154	0xbcaf39e0	-0.021389902
155	0xbd4243c8	-0.047427922
156	0xbce2fb54	-0.027707733
157	0x3d33fa70	0.043940008
158	0x3b60570f	0.0034231578
159	0xbc8d271f	-0.017230568
160	0xbd602bc1	-0.054729227
161	0x3d23bd1b	0.039975267
162	0xbc9418dc	-0.01807826
163	0xbc31d531	-0.010854051
164	0xbd153fa6	-0.036437653
165	0xbd1bd61f	-0.038046
166	0xbb022e72	-0.001986411
167	0x3c96ae86	0.018393766
168	0xbd746438	-0.05966589
169	0xbcc32f83	-0.023826366
170	0xbca1807b	-0.019714585
171	0xbd1f1497	-0.038837995
172	0x3be08d5d	0.0068527893
173	0x3d1871b8	0.037217826
174	0x3d2255fe	0.03963279
175	0xbd217648	-0.039419442
176	0xbd09b497	-0.03361949
177	0x3c39ff6d	0.011352402
178	0x3d118ef8	0.035536736
179	0xbc9f3404	-0.019433983
180	0x3d061e10	0.032743514
181	0xbcedc9a5	-0.029026816
182	0x3d3afe85	0.045652885
183	0x3c3765d9	0.011193716
184	0xbc93711c	-0.01799827
185	0x3c63d328	0.013905324
186	0x3cc3f746	0.02392162
187	0x3c290eac	0.010318439
188	0xbbb0f518	-0.005400311
189	0x3cfdd024	0.030983038
190	0x3c0860f4	0.008323897
191	0x3caad9d2	0.020855818
192	0x3ce78dd2	0.028265867
193	0xbce1c855	-0.027561346
194	0x3afdcf79	0.00193642
195	0x3d027976	0.031854115
196	0xbc8ce12e	-0.017197218
197	0xbccf38c9	-0.025295632
198	0x3cf3ac2e	0.029745188
199	0xbd3f7b38	-0.04674837
200	0xbc5a964c	-0.013341498
201	0xbd278616	-0.04089936
202	0xbd49a7e5	-0.049232382
203	0xbcaaac0a	-0.020833988
204	0x3bd4d521	0.0064951335
205	0xbd420433	-0.047367286
206	0xbc809e06	-0.015700351
207	0xbd1d71f5	-0.038438756
208	0x3d0ee38e	0.03488498
209	0x3cee1086	0.029060613
210	0x3d2ebae7	0.042658713
211	0xbca8ca14	-0.02060417
212	0x3cc38dd1	0.023871334
213	0xbc5f5113	-0.013630169
214	0xbd307ffe	-0.043090813
215	0xbd1c0b17	-0.038096514
216	0x3be0d29c	0.006861044
217	0xbd32781a	-0.04357157
218	0x3d28b303	0.041186344
219	0xbd244ec4	-0.04011418
220	0x3a4e09ae	0.0007859719
221	0xbc9f6682	-0.01945806
222	0x3bef85c0	0.0073096454
223	0xbb942487	-0.004520956
224	0xbc80f598	-0.015742108
225	0x3d25e389	0.040500198
226	0x3cc95003	0.024574285
227	0x3d17bd94	0.03704603
228	0xbd26c41c	-0.04071437
229	0x3c9cfa72	0.01916239
230	0xbc1738b5	-0.009229829
231	0xbbda0fb2	-0.006654703
232	0xbd6f5e65	-0.05843963
233	0xbbea9200	-0.007158518
234	0xbd01cbfb	-0.03168867
235	0x3c0fdd79	0.008780831
236	0xbce8d152	-0.028420124
237	0xbb73842c	-0.0037157638
238	0xbcd3aa49	-0.025838034
239	0x3d16098b	0.036630195
240	0xbcc6a6d0	-0.024249464
241	0xbd0ac69b	-0.03388081
242	0x3d1765ee	0.036962442
243	0x3d05ff64	0.032714263
244	0x39b9ae77	0.00035415936
245	0xbce11456	-0.027475517
246	0xbd20c0f4	-0.039246514
247	0x3d039b75	0.032130677
248	0xbcbab6b9	-0.022792207
249	0xbc7eed49	-0.015559503
250	0xbd1ecb5e	-0.038768165
251	0x3cd86ddd	0.026419574
252	0x3be15c48	0.006877456
253	0xbcf09d36	-0.029371839
254	0xbc866750	-0.016406685
255	0x3d34840d	0.044071246

critic.preprocess.net.2.bias f4 [64]
0	0x3c0df204	0.008663658
1	0x3b2b06a8	0.0026096497
2	0xbd68554b	-0.056721967
3	0x3da6cfb1	0.08145083
4	0x3b578038	0.003288282
5	0xbc9efad4	-0.019406714
6	0xbd7a24db	-0.061070304
7	0xbd1f4b87	-0.038890388
8	0xbd02484c	-0.03180723
9	0xbcb51360	-0.022103965
10	0xbda7746c	-0.081765026
11	0xbca29cdd	-0.019850189
12	0x3a73cb9f	0.0009300056
13	0xbd22c8c6	-0.039742254
14	0xbc85ba15	-0.016324082
15	0xbbe5331c	-0.006994618
16	0x3c5a49f5	0.013323297
17	0xbca2c04f	-0.01986709
18	0xbc8d0c12	-0.01721767
19	0xbd82e840	-0.063919544
20	0xbc4af003	-0.012386325
21	0xbd7ad925	-0.06124224
22	0x3b37aaa9	0.0028025305
23	0xbc8760de	-0.016525682
24	0xbd771594	-0.060323313
25	0x3d34f402	0.044178016
26	0x3d007824	0.031364575
27	0x3bb56c26	0.005536574
28	0x3bffe261	0.007808969
29	0xbd048c30	-0.032360256
30	0x3cbcd9e5	0.023053119
31	0xbd69e280	-0.057100773
32	0xbc7d6c3c	-0.0154677
33	0xbd6b1a66	-0.057398222
34	0x3d015f1c	0.031584844
35	0xbd52f6a7	-0.051504757
36	0xbbff8e0b	-0.0077989153
37	0x3c2ac0e2	0.010421963
38	0xbcc9edf7	-0.024649603
39	0xbd6612fe	-0.056170456
40	0xbc0f1440	-0.008732855
41	0x3cdb838a	0.026796121
42	0xbd5ec10c	-0.054383323
43	0x3d8ce164	0.06878927
44	0xbd2d1058	-0.042251915
45	0x3ce78f2d	0.028266514
46	0xbd420653	-0.047369312
47	0x3d5442cd	0.05182152
48	0x3c522454	0.012826044
49	0xbd183337	-0.037158217
50	0xbd236cef	-0.03989881
51	0xbc20159a	-0.009770775
52	0xbd02b1bf	-0.031907793
53	0xbd32c6eb	-0.043646734
54	0x3cecfc39	0.028928863
55	0xbd733eea	-0.05938617
56	0xbc92289e	-0.017841633
57	0xbca4b6ba	-0.020106662
58	0x3cd4a6f3	0.025958514
59	0x3b745e64	0.0037287707
60	0xbabce793	-0.0014412276
61	0x3cc2f1ed	0.023797
62	0x3cec65c8	0.028857127
63	0x3cb07af0	0.021542996
