scripts/log/ppo/ppo_1-car_remove-grass_4-frames_lr2e-4.pth (torch, 684799 bytes, 32 tensors)

actor.sigma_param f4 [3, 1]
000000 52 91 72 be f1 f4 f9 bd 3b 9d 12 bf
       -0.23688248 -0.12204922 -0.57271165

actor.preprocess.net.0.weight f4 [32, 4, 8, 8]
000000 8c 38 e2 bc 75 84 8a bd c9 af 64 bc ea 2d a6 bd
       -0.027614854 -0.067635454 -0.013957926 -0.08114226
000010 c1 1d 80 3c f0 ba 1b bd 41 d3 8e 3c d5 56 27 bd
       0.015639188 -0.038020074 0.017434718 -0.040854294
000020 29 c7 7b bd 1f 86 1b bd db d5 32 bd 27 ac d4 bc
       -0.06146923 -0.037969705 -0.04366098 -0.025960995
000030 20 b8 ab bc 71 fc af 3c 79 28 bf 3c 9c 21 18 bd
       -0.020961821 0.021482678 0.023334729 -0.037141427
000040 04 2f 43 bd 3b 1a a0 b9 40 b9 8f bd 4c 49 bf bc
       -0.04765226 -0.0003053712 -0.070177555 -0.02335038
000050 50 6e b3 bd 1e 68 0f 3d 14 d3 24 bd 0e 5a d1 3c
       -0.08761275 0.035011403 -0.040240362 0.025555637
000060 53 e9 72 bd ab c3 47 bd f4 37 eb bb 45 8e 12 bd
       -0.059304547 -0.048770588 -0.007178301 -0.03578021
000070 ea 47 1c 3d 11 ec 7c bb da 4c f9 bc d8 5e 19 3b
       0.03815452 -0.0038592855 -0.030432153 0.0023402479
000080 2c 65 0b bd 57 16 50 bc 48 9c b0 3c 54 59 22 bd
       -0.034032032 -0.012700639 0.021558896 -0.03963597
000090 a8 87 58 bc 81 90 8c bd 40 52 8b bd 89 6a 4d bc
       -0.013215937 -0.068634994 -0.06802797 -0.012537607
0000a0 4e d4 30 3c 68 8d 5b 3c c9 95 b2 bd 4c 01 6e bb
       0.010792805 0.013400413 -0.087199755 -0.003631669
0000b0 21 e3 32 3c 83 d2 03 3d 20 b3 3c bd 59 c6 ca bb
       0.01091841 0.03218318 -0.046069264 -0.0061881957
0000c0 c1 3c 22 ba 29 9e ee 3c 17 96 1f 3c 7a a6 b6 bd
       -0.00061888626 0.029128151 0.009740374 -0.08918472
0000d0 54 c0 bf bd 68 a2 87 bd 60 d6 2f bd 8e dd dd bd
       -0.093628556 -0.066227734 -0.042929053 -0.10833274
0000e0 8e 8f 52 bb 08 42 57 bd 09 86 6f 3c 37 70 ae bc
       -0.0032129022 -0.052553207 0.014619359 -0.021293743
0000f0 ee 42 28 3d 61 f9 97 bd 23 d5 54 3c c4 ad 3e bd
       0.041079454 -0.07420612 0.012990269 -0.046552435
000100 16 24 2d bd dd fc 1b bc de 24 5a 3c 01 8e 68 bd
       -0.042270742 -0.0095207365 0.013314454 -0.05677605
000110 81 e8 65 bd c1 0a 66 bd 7b 38 96 bc ca 18 27 3d
       -0.056129936 -0.0561626 -0.018337479 0.040795125
000120 f4 6e 7b bb a0 45 91 3d 19 37 4c 3d 38 eb 09 bd
       -0.0038365694 0.07093358 0.049857233 -0.033671588
000130 de 78 cc 3a 31 10 0d 3d 71 7f 18 bd 21 81 7e 3d
       0.0015599986 0.03443927 -0.037230913 0.062134866
000140 90 71 52 bd 5a 1a 80 bc 55 fb 88 bd 9f 18 46 bd
       -0.051377833 -0.015637565 -0.06688563 -0.048363324
000150 b1 55 2e 3d 02 20 b5 bd 9f 3d 09 be fc d6 36 bd
       0.04256219 -0.08843996 -0.13402413 -0.04463862
000160 da 6e 6b bd 6a 1e 4e bc 71 e5 72 bd 0b 5e de bd
       -0.057478763 -0.012580493 -0.059300844 -0.10857781
000170 57 d1 a7 bd 0d 7b 9e bd 9b 65 ed bd 5b 25 2e bd
       -0.08194225 -0.07738314 -0.11591645 -0.042516094
000180 b8 79 a2 bd 32 7b b2 bc ca 74 37 bd ef 54 69 3d
       -0.07933372 -0.02178726 -0.044789113 0.056965765
000190 bc e4 24 3d ca 57 71 bd 5b 6e 36 bd eb 68 76 bd
       0.0402572 -0.058921613 -0.044538837 -0.06015865
0001a0 61 e1 70 bd 7b 63 43 bb 05 ab 24 3c 6f 24 ce 3c
       -0.058808688 -0.0029813934 0.01005054 0.025163857
0001b0 ed 8d 7d bd e8 d4 30 3c 3a 66 ff bc 24 f9 f3 bc
       -0.06190293 0.010792948 -0.031176675 -0.029781885
0001c0 f2 8c 35 bc d7 7f a2 bd 64 f1 07 bd 27 ee a1 bd
       -0.011080967 -0.0793454 -0.033189192 -0.07906752
0001d0 52 e9 84 bd 51 54 a2 bd 0b 74 b9 bd 2b 84 15 bd
       -0.06489815 -0.07926238 -0.090553366 -0.036503
0001e0 2e 3e 81 bd 68 b4 db bb b4 36 22 bd 8c 12 b9 bd
       -0.06310688 -0.0067048557 -0.03960295 -0.09036741
0001f0 49 51 28 bd 95 f7 a6 bd 19 27 66 bd 5b 3c e7 bd
       -0.041093145 -0.08152691 -0.05618963 -0.11290809
000200 15 ce 03 3d e9 47 7d bd 95 0a 53 bd 6c ec a3 bd
       0.032178957 -0.061836157 -0.051523764 -0.08004078
000210 cf b2 de 3c 75 bf 20 3b 35 ed 5a bc cf 3e 4c bb
       0.027184872 0.002452818 -0.013362219 -0.0031165367
000220 81 8b ca 3c 74 e5 16 bd 7d 92 d5 bc 80 14 ae bd
       0.024724724 -0.036839917 -0.026070828 -0.08500004
000230 b6 be 44 bb 85 20 d8 bc 84 21 2e 3c 03 c2 95 bd
       -0.00300209 -0.026382694 0.010628108 -0.073123954
000240 ca e6 98 3c cd a1 5b bd ff b6 99 bd 46 72 f9 3b
       0.018664736 -0.053621102 -0.07505607 0.0076124994
000250 59 63 c0 bd 62 67 9f bd 4d f5 92 39 3c 5e 61 bc
       -0.09393949 -0.077833906 0.00028030053 -0.013755377
000260 98 4a d7 bc 7a a6 a8 3c 89 bf 7e bc 21 da 65 3d
       -0.026280686 0.020587195 -0.015548595 0.056116227
000270 ba 98 d7 bc 67 ab 48 3d af b5 88 3d 33 6e 9e 3c
       -0.026317943 0.048991587 0.066752784 0.019339656
000280 1b f4 d2 bc 69 fe 62 bd ac b7 ed bc 01 a1 b1 3c
       -0.025751164 -0.055418406 -0.029018246 0.021683218
000290 08 19 18 bd 3c 80 37 bd ca a4 17 3c df be 90 bd
       -0.037133247 -0.04480003 0.009255597 -0.07067656
0002a0 68 e8 20 bc 4a 94 b6 bd a7 65 b2 bd 79 63 ed bc
       -0.009821035 -0.08915003 -0.08710795 -0.028978096
0002b0 16 69 51 3d 0d 7e ce 3c 51 c2 2f bb 77 1c e3 bb
       0.05112561 0.02520659 -0.0026818702 -0.0069308835
0002c0 65 9d 89 3b 97 fa d6 bd 7a 2a b4 bd c2 20 8c 3b
       0.004199671 -0.10497015 -0.08797164 0.004276366
0002d0 33 df 4e bd d0 39 5b bd 49 23 6f bd fc 8f ac bd
       -0.050505828 -0.05352193 -0.05838326 -0.084259
0002e0 3a cc 79 bc bc dd 31 3d 78 e1 de 38 75 fe a0 3d
       -0.015246445 0.043424353 0.00010627782 0.07861034
0002f0 08 7d 67 bd 9f 95 16 bd 5c 9a b9 3c 0b 7b bf 3d
       -0.056515723 -0.036763784 0.022656612 0.093496405
000300 f4 e6 a0 bc 85 32 2e bd d0 d4 fa bc a5 54 4a bd
       -0.019641377 -0.042528648 -0.030619055 -0.04939713
000310 9b 6c 9f 3c 85 79 b5 bb ef cc 52 3c 87 a3 35 3d
       0.019460967 -0.005538168 0.012866243 0.044345405
000320 de 68 80 bd 6c 04 24 bd ca 5f ad bd 2c 84 d9 bc
       -0.06270002 -0.04004328 -0.08465536 -0.026552282
000330 1f 78 51 bd 93 1a 17 3c 50 1e 82 bc 08 37 b2 bd
       -0.051139947 0.009222644 -0.015883595 -0.08701903
000340 75 f5 24 bd ac 86 a7 bc 54 b9 bc bb 36 57 66 bc
       -0.04027315 -0.020449959 -0.0057593975 -0.014058879
000350 ed 95 08 3c 4d 09 20 bc 0c 76 69 bd 1f 4d 45 bd
       0.008336526 -0.0097678425 -0.056997344 -0.04816925
000360 34 32 14 bd 7c 58 95 3d c8 84 8f 3d b4 50 63 3d
       -0.03618069 0.07292268 0.07007748 0.055496886
000370 9b a6 b1 bc b6 8d 85 3d 09 a1 3d bd 7c 32 ee bc
       -0.021685889 0.0652117 -0.046296153 -0.029076807
000380 50 d6 05 bd 3e f6 a6 3c cb 3d f8 bc 95 5a 9d bc
       -0.032675087 0.02038109 -0.030302903 -0.019208232
000390 79 35 08 3d 90 ca 37 bc 09 c8 48 3d c8 cf 36 bd
       0.03325412 -0.011217728 0.049018893 -0.04463175
0003a0 8a 27 97 bc 1f 57 4b bd fd 8c cc bc 41 44 0b bd
       -0.01845147 -0.049643632 -0.024969572 -0.03400064
0003b0 b8 5e af 3c 4d 49 b1 bd 17 16 98 bd c7 16 a1 bd
       0.02140747 -0.08656559 -0.07426088 -0.078656726
0003c0 c8 7a a9 3c d0 3f 79 bd e6 d1 2d bd 80 a3 6b bd
       0.02068843 -0.060851872 -0.042436503 -0.057528973
0003d0 31 5f f4 bc f0 17 ab bd a1 7b f0 ba 6e 0e 68 bd
       -0.029830547 -0.08354175 -0.0018347391 -0.056654386
0003e0 75 65 6d 3d d0 0a f7 3c 8f c9 b9 bc c2 38 31 3d
       0.057958085 0.030156523 -0.022679118 0.04326702
0003f0 4c c5 a5 bc ee cb 82 3d 69 b5 3b bd 47 bc 08 bc
       -0.02023568 0.06386553 -0.045827303 -0.00834567

actor.preprocess.net.0.bias f4 [32]
000000 3d fd b4 bc ac ff 14 3c 8d 38 db ba 3c 8f 8b bd
       -0.02209341 0.00909416 -0.0016725227 -0.06814429
000010 97 d3 f7 bc 8a f3 47 bd ef 21 3f bd 3d cc c0 3c
       -0.030252261 -0.04881624 -0.04666322 0.023534888
000020 65 23 81 bd 3d 29 d8 bd 5a 7d 83 bc e9 1a 8b bb
       -0.06305579 -0.105547406 -0.016050983 -0.0042451513
000030 a3 23 83 3b 16 42 41 bd 17 a6 76 bd a0 f3 0b 3d
       0.004002051 -0.047182165 -0.06021699 0.034167886
000040 0c 28 a3 3c 61 b3 9c bc eb 79 29 bd 4f 61 fb bd
       0.019916557 -0.019128503 -0.041376036 -0.122744195
000050 64 bd 85 bd ef cd 58 bd d8 d1 2a bd 29 45 a7 bc
       -0.06530264 -0.05293077 -0.04170403 -0.02041872
000060 9d a6 84 bd 55 3c 17 3c 96 a2 89 ba 66 aa d1 bc
       -0.064770915 0.009230693 -0.0010500725 -0.025593948
000070 1e 03 03 3c 8e 14 4b bc 40 14 a5 bd 75 c2 1a bd
       0.007996349 -0.012395037 -0.08060503 -0.037783105

actor.preprocess.net.2.weight f4 [64, 32, 4, 4]
000000 70 96 bc 3c 08 fa 21 bd 4f d7 27 3b 6b de 4a bd
       0.023020953 -0.03954509 0.0025610512 -0.04952852
000010 24 c1 9e 3b 15 c0 33 bd 22 ce ce bc 88 24 9a bb
       0.0048448015 -0.043884356 -0.025244776 -0.004704062
000020 95 9c e6 bc 4e 70 5e bc 89 3f 74 3a c0 85 24 bd
       -0.028150836 -0.01357658 0.0009317329 -0.040166616
000030 15 6c 00 bd 16 30 c9 bc 4c 97 22 3c 3a de 65 3c
       -0.031353075 -0.024559062 0.009923767 0.014030034
000040 2c 55 20 bc 92 e9 5b bc 72 f4 07 bd 66 58 57 ba
       -0.009785932 -0.013422387 -0.033192106 -0.00082147715
000050 4a de 17 3d 7a 4a 9f bc fa 87 50 bd 22 5c 79 3c
       0.037077226 -0.019444693 -0.050910927 0.01521972
000060 e5 68 bc 3c e8 05 08 3c 7c 16 a2 3c 6e 01 86 3c
       0.022999236 0.008302189 0.019786112 0.016358104
000070 d4 87 4d 3c 8e f0 08 3b 5e 8d 24 bd 17 a3 6f bd
       0.012544591 0.0020895335 -0.04017388 -0.058505144
000080 64 60 09 3d 95 e3 bc bc ea c8 8e bc 30 28 93 bb
       0.03353919 -0.023057738 -0.017429788 -0.0044908747
000090 bf 71 9f bc 93 57 51 3d 2b 00 0f bd a8 ef 12 3d
       -0.019463418 0.051108908 -0.03491227 0.035873085
0000a0 48 cc 08 3d e3 ac 7f 3c f9 c3 32 bd cd c4 f3 bc
       0.033397943 0.015605184 -0.043643925 -0.029756928
0000b0 34 41 fb bc 41 b0 40 bd 89 a7 51 ba 18 61 a9 bc
       -0.03067074 -0.04704309 -0.0007997682 -0.02067618
0000c0 7e d2 42 3a 51 bb 81 3c aa 3f 82 3c cf e6 b1 3c
       0.00074318785 0.01583639 0.015899498 0.021716503
0000d0 c0 cc 13 3d 9b 3f 0d bd aa 82 3b bd ca d8 2d bd
       0.036083937 -0.034484487 -0.045778908 -0.042443074
0000e0 06 d5 7f 3c 35 ac 5b bc 58 37 df 3a 18 9c 8d 3c
       0.015614754 -0.013407757 0.0017030044 0.017286345
0000f0 fa 06 b0 3b 53 39 e4 3c 75 da 9a bb 8d 56 30 bd
       0.0053719254 0.027859366 -0.004725749 -0.04305129
000100 1a 84 b6 ba 5d eb 12 bc bf c5 80 bc 66 c8 c0 3b
       -0.0013924867 -0.008967248 -0.015719293 0.0058832644
000110 d0 5a 60 bd 5d 76 eb 3c 9c 4a 06 3c 06 8c 27 bd
       -0.054774106 0.028742963 0.008196499 -0.04090502
000120 34 c6 99 3c 46 d4 4e 3c 1f ae ea bb d3 0f fa 3a
       0.018771268 0.012623852 -0.00716187 0.0019078202
000130 6c 27 52 3c 95 aa 4b bd 37 5d 3a bd 50 92 4f bd
       0.012826782 -0.049723227 -0.045499053 -0.050676644
000140 98 b1 6e 3b 14 a9 26 bd 00 32 ec 3c 2d 1e 83 bc
       0.0036421772 -0.04068859 0.028832436 -0.0160056
000150 ce 03 d0 3c fb fe 8b bc b3 b8 96 3b 41 82 3a bd
       0.02539244 -0.017089358 0.0045996546 -0.045534376
000160 36 a7 4e bd 8a 58 a9 bc cf 8b af 3a f0 87 a5 3c
       -0.050452434 -0.020672102 0.0013393107 0.020206422
000170 4f cb 41 bd 18 35 64 bc 1b 31 21 3d 88 a0 4a 3c
       -0.04731303 -0.013928674 0.03935347 0.012367375
000180 ae 90 27 bd 5b 21 74 bc a1 29 fe bc 8c 2a 06 bd
       -0.04090946 -0.014900531 -0.03102571 -0.03275542
000190 65 5d 02 3c 30 a0 a1 3a 7e a3 19 3d fb 0d 99 ba
       0.007956837 0.0012331065 0.037509434 -0.001167714
0001a0 dc 7d 23 bd ba 11 10 3d ec 3c d1 3c d9 6d 3a bd
       -0.03991495 0.035173155 0.025541745 -0.045514915
0001b0 f5 13 3f bd 35 e2 2a 3c ac e9 00 3d 3b a6 89 bc
       -0.046649892 0.0104299085 0.031472847 -0.016802898
0001c0 aa 74 a1 bc 9d 10 20 bd 5f f9 1b ba 6f 81 f3 bc
       -0.01970895 -0.039078344 -0.000594994 -0.029724805
0001d0 e5 d4 14 bd 8f 25 cf bc ab 21 96 3c 06 3d 33 3c
       -0.036335845 -0.025286464 0.018326601 0.010939842
0001e0 ab 04 01 3d b3 65 c1 3c 25 59 ce 3c 2c c6 cf bc
       0.031498592 0.023608064 0.025188992 -0.02536305
0001f0 77 ff 48 3c 4c 52 b0 bc 48 7b 3a bc fc 04 44 bd
       0.012267939 -0.021523617 -0.011381932 -0.047856316
000200 38 0b db 3c 26 a6 22 bd d5 4e 2b bd d2 4a e3 bb
       0.026738748 -0.039709233 -0.041823227 -0.0069364095
000210 00 dd 9f 3c b8 b2 d6 3c ad 42 0f 3d b4 e8 78 3c
       0.01951456 0.026208267 0.034975696 0.0151921995
000220 0a c6 d2 3a e5 ef fb bb 7a 4f 16 bd d7 21 88 ba
       0.0016080749 -0.0076885098 -0.03669689 -0.0010386062
000230 9a 9d be 3c 76 c1 8e 3c eb 70 7a 3c c1 f3 07 3c
       0.02326851 0.017426234 0.015285711 0.008297862
000240 f0 a6 ff 3c 5a 83 0a bd e1 90 2c bd 79 a3 35 bd
       0.031207532 -0.033816673 -0.042130355 -0.044345353
000250 37 26 fe bc 2b 34 eb 3c 3d 39 9c bb d1 27 15 3d
       -0.031024082 0.028711399 -0.0047675655 0.036414925
000260 4e d2 37 3c 78 5b 55 bc 4c 93 f9 bb 18 1d 23 bd
       0.011219574 -0.013022296 -0.007616436 -0.039822668
000270 e8 62 0f bd d1 6f f9 bc e3 9b 1e bc f6 67 bb 3c
       -0.035006434 -0.030448826 -0.009680721 0.02287672
000280 f3 32 9c 3c 65 f0 4e 3c 69 18 3a 3c e3 17 2d bb
       0.019067263 0.012630557 0.011358359 -0.0026411943
000290 7b 10 1d bd ed cc 00 3d 1a ef 06 bd ca 2c 2a 3c
       -0.038345795 0.031445432 -0.03294287 0.010386655
0002a0 1b cd b6 bc 7f af 23 bd d6 cf fd 3b bb 97 07 3d
       -0.022314599 -0.039962288 0.0077457232 0.033103686
0002b0 ee 0c b8 3a 46 d0 31 bd b3 ca f4 3c 99 ec 01 3d
       0.0014041939 -0.043411516 0.02988181 0.031719778
0002c0 57 64 6c 3c fb ad ff 3c 04 37 d9 3b a8 55 95 bc
       0.01442822 0.03121089 0.006628873 -0.01822932
0002d0 e8 ed 6b 3c 14 8d c0 bc 5e 11 cb 3c 65 df 25 bd
       0.014399983 -0.023504771 0.024788555 -0.04049625
0002e0 69 cf 99 3c f4 f5 6e bc 91 e8 1c 3c 21 c7 4e bc
       0.018775659 -0.014585007 0.0095769325 -0.012620718
0002f0 8f 12 81 bc f0 cd f2 bc ca 28 ff bc 46 53 f7 bb
       -0.01575592 -0.029639214 -0.03114738 -0.0075477688
000300 e8 b1 c5 3c b5 4d b7 bc 88 ad 55 bc 8d a4 c6 bc
       0.024132684 -0.02237592 -0.013041861 -0.024248386
000310 8c b0 36 3c 0b 08 c8 bb bc 96 35 bd d0 2f 03 bd
       0.0111504905 -0.0061044744 -0.044333205 -0.03202802
000320 35 48 4a bd 84 db d6 bc 3e e0 75 3b 54 c4 26 bb
       -0.04938527 -0.02622772 0.0037517692 -0.002544661
000330 74 0b 10 bc e1 28 35 bd 27 20 cf bc c7 88 85 3c
       -0.008791793 -0.04422844 -0.025283886 0.016300572
000340 69 2c 7d bc f1 f7 3d bd 0e 36 10 3d c1 01 51 bd
       -0.015452483 -0.046379033 0.0352078 -0.051027063
000350 0a 1a 07 3b 09 b7 01 bd b4 70 2d bb a9 bf c8 ba
       0.0020614886 -0.031668697 -0.0026464881 -0.0015315908
000360 76 b8 10 bd 64 d6 c3 3c 83 f3 23 3d ab 39 dd bc
       -0.035332166 0.02390594 0.040027153 -0.027005037
000370 6a c9 6a bc 41 42 11 bd 78 ef 69 bc 15 7a b2 3c
       -0.014330247 -0.035463575 -0.014278285 0.021786729
000380 cf 3d eb 3c 08 cb a2 bc f9 a1 34 bc 6b 58 bd bb
       0.028715996 -0.019872203 -0.011024945 -0.0057783625
000390 00 fd 06 bd de 5f 27 bd 7a 6e c8 3c e0 87 3b bd
       -0.032956123 -0.04086291 0.024466742 -0.045783877
0003a0 1c 7d 08 bd bf d4 0a bd ac 7c 65 bc 3e ce 43 bd
       -0.03332244 -0.033894297 -0.014006775 -0.04780411
0003b0 ef ff 3e bd cf 61 b5 bc fb f2 26 bd d3 d9 e2 bc
       -0.046630796 -0.022141365 -0.040759068 -0.027691757
0003c0 8f a4 21 bd b7 8e 93 bc 41 98 54 b8 93 6d f1 bb
       -0.039463576 -0.018012388 -5.0686536e-05 -0.0073677986
0003d0 ce 17 f6 bc 66 73 14 bd 6a fb 06 3d 21 f5 c6 3c
       -0.030040648 -0.036242865 0.03295461 0.024286808
0003e0 eb ef 56 3a 66 e7 f2 bb d9 6e 24 bd fb 20 52 bc
       0.0008199203 -0.0074128387 -0.040144775 -0.012825246
0003f0 95 60 9e bc 6f 26 e5 39 ea 7b 6d 3c b2 06 ca 3c
       -0.019333163 0.0004370692 0.014494875 0.024661396

actor.preprocess.net.2.bias f4 [64]
000000 2c 67 31 bd 22 fc 3f bd 54 e6 b4 bd 36 06 a2 bc
       -0.043311283 -0.046871312 -0.08832994 -0.019778352
000010 58 9b 13 3d 10 b9 07 bd d2 c0 60 bd c6 4c d4 3b
       0.03603682 -0.033135474 -0.054871388 0.0064788787
000020 45 5f 81 bc b1 02 19 bd c5 50 8e 3d f9 77 b2 3a
       -0.015792498 -0.037356082 0.06948999 0.0013616077
000030 35 d0 a0 3c 92 0b 0f 3c ce e2 0b 3d 7f 5e 6c 3d
       0.01963053 0.008730786 0.034151845 0.057707306
000040 fc 20 03 bd 91 cf 1a 3d 15 83 16 bd 65 7b 8c bd
       -0.03201388 0.037795607 -0.036746103 -0.06859473
000050 23 5f 9f bd 53 2d 6b bd 8f a1 87 3d d9 99 bb 3d
       -0.07781818 -0.05741627 0.06622612 0.091602035
000060 e3 87 6e bd 0e f7 6a bd 57 38 31 bd 04 0b 4a 3d
       -0.05823506 -0.057364516 -0.04326662 0.04932691
000070 95 05 32 3d b6 65 e4 3c d9 52 05 bd b0 6f 82 3c
       0.043462355 0.02788053 -0.032549713 0.015922397
000080 85 22 0e bc b1 35 2c bd b5 eb a0 3d 3d 40 ef bc
       -0.008675222 -0.04204339 0.078574575 -0.029205436
000090 d8 68 1d bd 4a 48 8a 3d 88 fe a8 bc 52 94 44 3d
       -0.038430065 0.06752069 -0.020629182 0.04799301
0000a0 7d 67 1e bd a1 c6 1d bd d3 dc 6b 3b 5e cd 2d bd
       -0.038672913 -0.038519505 0.0035989776 -0.04243218
0000b0 34 6c d7 bb 37 0f 89 bd 79 e2 12 3c 31 51 19 bd
       -0.006574178 -0.06692355 0.008965128 -0.037430946
0000c0 ef 71 94 bb 19 30 8a bb a1 fa 1a bc b7 82 34 3d
       -0.0045301835 -0.0042171595 -0.009459169 0.044069972
0000d0 45 d3 19 bd 14 0f 85 ba bf e8 97 bb 1c 1a 81 3c
       -0.037554998 -0.0010151588 -0.0046359 0.01575952
0000e0 89 2a 96 3b ef ae 8d bd 00 13 a0 bc 9f a3 0b bc
       0.0045827073 -0.069181316 -0.01954031 -0.008522897
0000f0 62 e6 6f 3d 6a f3 d9 bc d3 61 0f bd 9f 64 5e bd
       0.05856932 -0.026605327 -0.0350054 -0.05429518

actor.preprocess.net.4.weight f4 [64, 64, 3, 3]
000000 57 80 71 3c 29 77 0e bb 0c 87 dd bc a3 28 d4 bc
       0.014740071 -0.0021738505 -0.027041934 -0.025898283
000010 a9 e3 02 3d 06 d4 1f 3d 9c d4 ba bb 8a 7d 50 bc
       0.031955395 0.03902056 -0.0057016145 -0.012725243
000020 d5 d7 07 3d 02 1b ce bb 9e 1f 1f 3d b3 a3 84 3b
       0.033164818 -0.0062898407 0.038848512 0.004047835
000030 d6 15 0c 3c 99 99 65 bc 3f 29 94 3a b2 c1 22 bc
       0.008550128 -0.014013671 0.0011303796 -0.009933876
000040 ca d2 06 3d 18 2f 12 3d 0e 7c 15 3c eb 1c ff bc
       0.032915868 0.035689443 0.009123815 -0.031141719
000050 0a d4 e0 bc 74 5f 7f bc d6 97 25 bd 16 b0 36 bd
       -0.027444858 -0.015586723 -0.040428005 -0.044601522
000060 a1 01 06 bc 97 c4 11 bd ee 58 3e 3a 89 b5 ba 3c
       -0.008179099 -0.035587873 0.00072611764 0.02279164
000070 25 19 9b bc ae f9 47 3d a8 6a 0e 3c 1c 49 c9 bc
       -0.018932888 0.048822097 0.008692421 -0.024570994
000080 bf 16 0d 3d 55 9c 51 3c d8 b2 51 bd 11 d8 75 3c
       0.03444552 0.01279362 -0.05119595 0.0150051275
000090 da 6d b5 38 0e fa a9 bd 8f b2 3e bc 0f 47 7b bd
       8.651214e-05 -0.08299647 -0.011639251 -0.061347064
0000a0 32 28 58 bd 96 da b4 bc 01 5c 37 bd a2 1a 10 bd
       -0.05277271 -0.022076886 -0.044765476 -0.03518165
0000b0 4e 36 a6 3c 03 65 91 bc 85 81 e0 bd a3 71 52 bc
       0.020289566 -0.017748361 -0.10962204 -0.012844476
0000c0 bd 6d 65 bc cb ad b4 bd f2 80 6d bd 3f 13 b4 bc
       -0.014003214 -0.08822211 -0.0579843 -0.021981834
0000d0 cd ec 02 bd 8f 2b 6f bd 00 7e 3d bd 02 b6 0e bd
       -0.031964112 -0.05839115 -0.04626274 -0.034841545
0000e0 0c f4 34 3d 7b 60 6f 3c fb ac 81 bd a8 6b 5d bb
       0.044178054 0.014610405 -0.063318215 -0.0033786092
0000f0 3b 93 d8 bc 7d 33 41 bd 0e 3c a4 bc d2 c5 0a 3d
       -0.026437392 -0.047168244 -0.020048168 0.033880062
000100 59 0c f7 bc e9 35 73 bb 0a d7 f1 bb a9 1f c5 3c
       -0.030157255 -0.003711099 -0.007380371 0.024062948
000110 81 ea 0e bc 89 38 a1 3c b4 a5 1f 3c 3f 3e fd 3c
       -0.008722902 0.019680278 0.009744097 0.03091347
000120 9a 28 22 3d 45 d1 e1 bc fa 80 58 bc 82 d1 bb ba
       0.039589502 -0.027565608 -0.013214344 -0.0014329406
000130 e0 00 37 3d c7 af 31 3c f4 05 ba bb e9 90 77 3b
       0.04467857 0.010845131 -0.005676979 0.0037775582
000140 24 5c dc ba d4 5d 87 bb 67 9c ed bb 28 40 ed bb
       -0.0016812128 -0.004131058 -0.0072513106 -0.007240314
000150 36 02 98 3c 84 69 17 bc 80 32 96 3c 31 55 fb ba
       0.018555742 -0.0092414655 0.018334627 -0.0019175169
000160 32 44 5c bc 2c e0 d8 bc 73 01 23 bd 2e 35 c5 bc
       -0.013443993 -0.026474081 -0.039796304 -0.02407321
000170 f4 07 43 3b c8 cc 34 b9 e3 d0 2d bd ac bf 90 3c
       0.002975938 -0.00017242425 -0.042435538 0.017669521
000180 f0 bd f1 3b 17 b2 f1 3c d5 47 2e bb b2 4e 01 bc
       0.0073773786 0.029503865 -0.0026593108 -0.007892298
000190 64 95 8a bc ec 2c 14 bd ac ec 49 bd 4f 02 05 bd
       -0.016916938 -0.036175653 -0.049297974 -0.032472905
0001a0 99 2c 32 bd ce 61 5e bd 96 27 c7 bd 3a 07 73 bd
       -0.043499563 -0.054292493 -0.09724347 -0.059333064
0001b0 58 a0 3e bd 80 c2 ad bd 61 e3 9d ba 02 d3 ce bc
       -0.046539634 -0.084843636 -0.0012045914 -0.0252471
0001c0 70 6d 1b bb 61 db fc 3b a8 aa 30 3d 1e ce 12 bd
       -0.0023716353 0.0077165817 0.0431315 -0.0358411
0001d0 e3 e8 74 bc 95 c3 83 3c 63 25 f3 3c 63 ca 01 3c
       -0.014948103 0.016084472 0.029680913 0.007921788
0001e0 93 0d e5 3c b3 57 5f 3d c4 2f 42 3c 59 2f 8e 3b
       0.027960574 0.054526996 0.0118522085 0.0043391404
0001f0 16 da 98 3d 9d 51 35 3b 02 67 8f bd bc b8 ec bd
       0.074634716 0.0027667054 -0.07002069 -0.11558673
000200 a9 d9 a7 bd ed ac 85 bd 0b 38 cb bd 38 43 95 bd
       -0.08195812 -0.065271236 -0.09922799 -0.072882116
000210 38 aa a3 bd 31 32 10 be 59 89 a7 bc 96 07 be 3c
       -0.07991451 -0.14081647 -0.020451235 0.023196977
000220 46 b4 05 3d c5 8a 1a bd a3 49 a5 bc dd 82 c6 bc
       0.032642625 -0.037729997 -0.020176714 -0.024232322
000230 aa 28 d8 3c 8a 94 37 3d bc 20 77 3d ac 76 04 3d
       0.026386578 0.044819392 0.060333952 0.032339737
000240 ad 9b c2 bd 8a 00 3e bd fd 0e 04 3c 9a d6 29 bd
       -0.09502349 -0.046387233 0.008060214 -0.041464426
000250 da 0e 85 bd 1b 2e 0b bd b6 4f 90 3c d8 03 58 3c
       -0.06496973 -0.033979516 0.017616134 0.01318451
000260 05 f0 31 bd 1b ad bf b9 db 7e 14 bd 34 dd 4b 3c
       -0.04344179 -0.00036559333 -0.03625379 0.012442876
000270 96 a2 39 bd 18 2a af bd 00 5b c0 3c a4 ca 31 bc
       -0.04532107 -0.085529506 0.023480892 -0.010851536
000280 b8 15 98 3c 90 13 02 3d e0 2d 36 3d 8a 73 80 3c
       0.018565044 0.031756938 0.044477344 0.015680093
000290 a9 f6 84 3c c2 1a b7 3c dd fe 18 3d a2 66 1a bd
       0.016230898 0.022351626 0.03735243 -0.037695535
0002a0 cd c8 12 3d 55 0e 97 3d 39 42 93 3a 07 c9 d5 bb
       0.03583603 0.073757805 0.0011234946 -0.0065242085
0002b0 61 96 c1 bc 8a 87 fe bc e5 9e f6 3c d7 45 d3 bb
       -0.023631277 -0.03107049 0.030105064 -0.0064475345
0002c0 3d 83 b2 ba 14 12 0e 3d f6 82 88 bc 9c 7b c2 bc
       -0.0013619434 0.03468521 -0.01666401 -0.023740582
0002d0 f6 b1 a7 3c ea c0 12 3d 8b 9c 5e 3d 13 3b 4c 3d
       0.0204706 0.03582851 0.05434851 0.049861025
0002e0 34 a7 d7 3b 69 4d 42 3d 68 27 aa 3b 97 5e f0 3b
       0.0065812115 0.047437105 0.005192686 0.0073354947
0002f0 84 c2 35 3c 2d 91 2d 3c 2d b4 07 3d a5 f7 52 3c
       0.011093739 0.010593695 0.033130813 0.012876426
000300 d9 76 20 3c 02 3b ac bc d0 b9 ea 39 ab d6 e9 3c
       0.0097939605 -0.02102423 0.000447704 0.028544744
000310 47 05 36 3b 0b 25 08 3c 89 d2 33 bd 97 78 31 bc
       0.0027774142 0.008309613 -0.043901954 -0.0108319735
000320 8a c5 79 3b b5 e5 08 bd 91 2b 3e 3b 81 bc bd 3c
       0.0038112127 -0.03342219 0.0029017667 0.023161175
000330 84 a0 10 3c 88 72 5f 3c 7d ce d2 bb 46 83 99 3c
       0.008827332 0.013638146 -0.0064333067 0.018739354
000340 17 cd e8 ba 40 9a b2 3c 8a 45 51 3a 43 41 f2 3c
       -0.0017761317 0.021802068 0.00079830794 0.029572135
000350 c0 d3 c9 3c 96 eb 19 bc 10 50 7d 3d c6 a2 20 3d
       0.024637103 -0.009394547 0.06184393 0.039217733
000360 24 35 3c bd 31 2e 0f 3c 6b 43 ce bc eb dd fc 3b
       -0.045949116 0.00873904 -0.025178632 0.0077168844
000370 14 de 05 3d 21 a1 f2 3c 8f a4 f0 bb e2 68 b1 3c
       0.032682493 0.029617848 -0.0073438357 0.021656457
000380 47 68 63 bb ef 63 85 3d 69 f4 b2 3c 36 51 89 bb
       -0.0034699605 0.065132014 0.02184506 -0.0041905893
000390 b7 37 a6 3c cd e9 6f 3c 17 4c 12 bd 1c 63 61 3d
       0.020290239 0.014643145 -0.035717096 0.05502616
0003a0 c3 ff a5 bc e2 c7 4e 3c 0e 5e 98 3c 59 dd d8 3c
       -0.020263558 0.012620898 0.018599536 0.026472734
0003b0 d8 04 e1 bc b3 36 5d 3c af 47 34 3b 99 f7 32 bd
       -0.02746813 0.013501811 0.0027508547 -0.04369316
0003c0 02 f0 3c bc 48 a0 9a 3b b0 e4 05 ba 73 10 38 bd
       -0.011531832 0.004718814 -0.00051076245 -0.044937562
0003d0 56 a6 08 3c df 60 94 bc 95 69 ae 3c f9 e0 1f 3c
       0.008340439 -0.018112598 0.02129058 0.0097582275
0003e0 da 50 ad bd 8b 35 05 bd 0e 60 39 bc ed a4 b2 bd
       -0.08462687 -0.032521766 -0.011314405 -0.08722863
0003f0 ee 93 7e bd 1c 0b 6b bd 87 f5 5b bc d6 1e 53 bd
       -0.062152795 -0.05738364 -0.0134252375 -0.05154308

actor.preprocess.net.4.bias f4 [64]
000000 42 1d 8c 3d dd 6b 2e bd 12 58 4f bd 33 37 aa bc
       0.06841518 -0.042583335 -0.0506211 -0.020778274
000010 d9 99 a4 3d 2e 68 d3 bc da 4a 70 bd cf 00 bc 3b
       0.080371566 -0.025806513 -0.058665134 0.005737401
000020 35 9e 44 bd ca 1b b7 bc 2e b9 35 bd 4b ec 01 bd
       -0.04800244 -0.022352118 -0.044366054 -0.031719487
000030 e0 26 56 bd ff 5e 17 bd e1 a9 b2 bc 82 d4 79 3b
       -0.052283168 -0.03695583 -0.02180952 0.003812105
000040 be 98 8a bc 42 b9 17 bd d2 4f 86 3c 10 d5 ee bc
       -0.016918536 -0.03704191 0.016395483 -0.02915433
000050 a7 ff a7 3b b2 f3 0c bd 33 04 9c 3d ed cb 3e bc
       0.0051269117 -0.034412093 0.076179884 -0.011645299
000060 db 50 94 3d 79 44 92 3d 0b 78 95 bc 2c 2d 09 3d
       0.072419845 0.071419664 -0.018245718 0.033490345
000070 b5 e7 29 bd 37 73 83 bc 5e 85 3f 3c c6 92 a3 bc
       -0.04148074 -0.01604615 0.011689512 -0.019967448
000080 eb f0 47 bc 25 f2 01 3d 67 0a 0b bd dd 6c 75 bd
       -0.012203435 0.031725068 -0.033945467 -0.059918273
000090 03 ba ec bc 13 c2 0c bd b6 62 61 bd e7 98 26 3d
       -0.028897291 -0.03436477 -0.05502578 0.040673163
0000a0 10 78 aa bd b1 fe f0 3c 50 a5 39 bd 21 cc 65 3d
       -0.08323681 0.029418321 -0.04532367 0.056102876
0000b0 0a 7c 65 3c 9a bc c1 3d 4d 53 1f bd b9 4d 8e 3d
       0.014006624 0.09459801 -0.0388978 0.06948418
0000c0 46 4e be 3c 71 7c 1c 3c c6 50 98 3d a2 72 30 bd
       0.023230683 0.0095511535 0.07437281 -0.043078072
0000d0 c7 99 65 3d 63 c5 fd bc f5 60 59 3c d6 42 27 bd
       0.056054857 -0.03097791 0.013267745 -0.040835224
0000e0 0d 9b 74 bd 20 ec 0b 3d c9 50 0d bc fb 19 59 bd
       -0.05971818 0.034160733 -0.008625218 -0.053003293
0000f0 52 14 aa bc 2f 0f 5b bd 6a 10 c3 bc 22 ba 01 bb
       -0.020761643 -0.053481277 -0.023811538 -0.0019794782

actor.mu.model.0.weight f4 [3, 3136]
000000 a3 e3 8e bd 81 5b 7e bd a5 14 65 bd 70 a7 b6 bc
       -0.06977012 -0.062098984 -0.05592789 -0.022296637
000010 07 3a 7f 39 7e 53 4b 3c b8 88 c5 3c d4 c8 92 bd
       0.00024340312 0.012410043 0.024113044 -0.07167211
000020 93 14 0b bd c1 6f 12 bd eb 46 ee ba 71 17 9a 3b
       -0.033955168 -0.035751108 -0.0018179094 0.0047025015
000030 1c b8 bc bb ae 23 db 3c 8a d8 70 bd 2a a7 98 bd
       -0.0057592522 0.026750412 -0.058800258 -0.07453759
000040 93 8d 30 bd 71 77 7f bb 17 ef e5 3c 7c 8d 82 3c
       -0.043103766 -0.0038981105 0.028068108 0.015936606
000050 7d 1c f9 3c e9 79 53 bd 8d 76 ee bc 6e 52 9e b9
       0.030409092 -0.051629934 -0.029109264 -0.00030197523
000060 43 aa ab bc a3 ba 8b bc d0 79 88 3c d0 3d 51 3c
       -0.02095521 -0.017056769 0.016659647 0.012771085
000070 8e 75 be bd 6d c1 80 bc 89 32 57 bd 48 97 f0 bc
       -0.092997655 -0.015717233 -0.05253843 -0.029369012
000080 60 1b 56 bc c9 f3 6f 3c ab 88 36 3d dd 32 b8 bd
       -0.01306805 0.014645525 0.04456393 -0.089940764
000090 7f 25 8b bc f4 dc 6b bd 07 ae c0 bc 02 e5 92 bd
       -0.016985653 -0.057583764 -0.023520483 -0.07172586
0000a0 79 f5 b3 3c f3 b5 01 3d 4c 5f c4 bd db 55 63 bb
       0.021967636 0.03166766 -0.09588489 -0.0034688625
0000b0 fc d4 88 bd b4 55 a1 bc bc ed 63 bc 06 d5 17 bc
       -0.066812485 -0.019694187 -0.013911661 -0.009267097
0000c0 bf 01 02 3d 86 68 a9 3c 37 97 8e 3b 06 b6 3d 3c
       0.031739946 0.020679723 0.0043515223 0.011579042
0000d0 e2 9e 44 bb 23 06 b1 bc 56 68 fa bc b7 dc 11 bd
       -0.0030001928 -0.021609372 -0.03056733 -0.03561088
0000e0 4d 80 61 bc 5b 44 04 bd 11 19 eb b9 78 08 76 bc
       -0.013763499 -0.03229175 -0.0004484137 -0.015016668
0000f0 7c 68 92 3c 6b 53 0d 3c d1 57 bb 3c 00 a0 a9 bc
       0.017872088 0.008625845 0.022869023 -0.020706177
000100 03 5a f0 bc 88 ea 09 bd 9c 96 a0 bc 54 4c c1 3c
       -0.029339796 -0.033670932 -0.019603066 0.023595966
000110 30 f0 5e bc a9 19 92 bc e6 e7 b3 3b 6e 8b 4f 3b
       -0.01360707 -0.017834501 0.005490291 0.00316688
000120 8d 01 5c bd 5a e1 29 bd bf 67 01 bd e8 f1 36 3c
       -0.053712416 -0.041474678 -0.03159308 0.011166073
000130 e3 bf 69 bd b6 b5 17 bb b0 92 4e 3c 16 72 2f bc
       -0.057067763 -0.002314908 0.012608215 -0.010708353
000140 54 b8 26 3b 92 72 c3 bc 69 97 4b 3b 83 70 33 bd
       0.0025439458 -0.023858342 0.003106559 -0.04380847
000150 c6 41 69 bb 3c 5e 0f bd a3 e5 0e bd 62 7c 26 bc
       -0.0035592183 -0.03500198 -0.034886967 -0.010161491
000160 a1 6c c0 b7 bb db c1 bc e2 92 b4 bc 7b ee 20 3b
       -2.2938768e-05 -0.023664346 -0.022042695 0.0024556208
000170 1e 84 38 bc 11 64 96 bc 63 4c 22 bd a2 86 c1 bc
       -0.011261968 -0.018358262 -0.03962363 -0.023623768
000180 bb 97 ab bc 9f 29 f4 bc 10 98 6d 3d 7f 58 25 bd
       -0.020946374 -0.029805003 0.058006346 -0.0403676
000190 1a e5 8c 3c b7 62 2c 3b 4b bf 33 3d c8 72 72 3b
       0.017199088 0.0026303956 0.043883603 0.0036994684
0001a0 96 a6 7a 3c 00 0e 9d 3d 1e 83 ae bc 6e f3 83 bc
       0.015298506 0.07668686 -0.021302756 -0.016107287
0001b0 82 e1 9c 3c 1a af 42 3b aa 33 10 3c 87 39 58 3b
       0.0191505 0.002970642 0.00880138 0.0032993273
0001c0 dd 47 b8 3b 11 88 2e 3d 3b ea b7 3a 6e 04 89 3c
       0.005623801 0.04261023 0.0014031598 0.016725745
0001d0 e8 af 26 3d 80 5c 25 bd a9 b9 22 3d fe 3f 4f 3d
       0.0406951 -0.040371418 0.03972784 0.050598137
0001e0 fe 0d b3 bc 09 e1 a2 bc ba 20 83 bc 13 7b 99 3c
       -0.021857258 -0.019882696 -0.016006816 0.018735444
0001f0 c9 a6 80 3c b4 f0 32 3c 39 72 05 3b 02 13 9d bc
       0.01570453 0.010921646 0.0020362271 -0.019174103
000200 11 b4 b5 bc de c7 fb 3c de 9c 74 3c fd ec c0 3b
       -0.022180589 0.030734953 0.014929978 0.005887626
000210 10 18 01 3b b4 04 4d bc 95 9f 0f bd 48 54 cf bb
       0.001969818 -0.012513328 -0.0350643 -0.006327186
000220 48 a5 ca bc 66 b3 f0 3c c5 5e da 3b d1 80 e3 3a
       -0.024737015 0.029382419 0.0066641294 0.0017357116
000230 cf f5 1d 3c 18 31 32 bb 93 ca 14 bd c0 a2 48 3c
       0.009641125 -0.0027189907 -0.036326002 0.012245834
000240 c1 3d cc 3b 2d 8d 98 3c 92 f3 22 bd d7 4b 89 bd
       0.0062329476 0.018622005 -0.039783068 -0.067039184
000250 42 c5 84 bc aa e2 8b 3d e3 85 0f 3d 5c 96 01 3c
       -0.016207341 0.06830342 0.035039794 0.007909384
000260 72 ee fe 3c 04 36 c7 3a 19 65 77 bd e5 a8 5c bb
       0.031119559 0.0015198593 -0.06039915 -0.0033670005
000270 d6 df db 3c 19 f4 94 3c 6a 38 08 3d d1 75 63 3d
       0.026840132 0.018182801 0.033256926 0.05553228
000280 fb 99 0d 3c 39 b6 53 bd c5 36 80 3c 20 33 da bc
       0.008642669 -0.051687453 0.015651116 -0.026635706
000290 8b a0 d4 3c 44 da 03 bd 6c 9b 3f 3c bd b8 48 bb
       0.02595546 -0.032190576 0.01169477 -0.003062769
0002a0 ed 31 84 bc 5d 2e 0e bd e2 4c 6e bd 41 bd 4b bc
       -0.016137088 -0.034712184 -0.05817879 -0.012435258
0002b0 d7 a8 fa bc 38 07 9a bc d9 6c 28 bd 80 5f 9f bd
       -0.030598087 -0.01880227 -0.04111943 -0.07781887
0002c0 97 5a 79 bd 63 14 b0 bc 42 46 19 bd 0c 64 4a bc
       -0.06087741 -0.021494096 -0.03742052 -0.012352955
0002d0 58 7c 72 bd 90 57 60 bd 36 a3 8b bc 59 33 b4 bc
       -0.059200615 -0.054771006 -0.017045598 -0.02199714
0002e0 17 30 c8 bb 75 9c db 3c e1 fc 03 3d 67 60 0d bc
       -0.0061092484 0.026808003 0.032223586 -0.008628941
0002f0 15 39 ca bc 9d a2 1c bb cd bf d7 bb f0 00 5d bc
       -0.024685422 -0.0023900636 -0.0065841437 -0.013488993
000300 05 1a 12 bd 2b 6b 44 3c 56 8d be bc fa c6 1f 3c
       -0.035669345 0.011988441 -0.023260754 0.00975203
000310 52 3e ed bc 9b 16 cb bc 5e a0 17 bc df c7 6a bc
       -0.02896038 -0.024791053 -0.009254543 -0.01432988
000320 6b 0f a5 bc fb 70 04 bc 82 b7 00 bd 93 ec c7 bb
       -0.020148953 -0.008083577 -0.031425007 -0.0061012
000330 13 1f ef 3c f8 04 92 3b 7c 76 c3 bc bb 40 43 3a
       0.029189622 0.0044561587 -0.023860209 0.0007448305
000340 79 bd 31 3c 83 10 9f 3c fd ab b2 bb ed 67 00 3d
       0.010848396 0.019417053 -0.0054526315 0.03134911
000350 07 bc 3a 3c 25 e3 f0 b8 1a 04 03 bc 83 8d b8 3c
       0.011397368 -0.00011486401 -0.007996583 0.022528416
000360 29 0d f5 bb f5 c3 f9 bc be d8 8d bc d5 c8 e7 bc
       -0.0074783755 -0.030488947 -0.017315265 -0.028294006
000370 74 46 26 bd f5 1e 8f bc 7e e4 9d 3c b5 49 61 3c
       -0.040594533 -0.017470816 0.019273993 0.013750483
000380 ed 30 07 3a a7 d6 99 bb 38 39 4f bd 53 dd 8d bd
       0.0005157132 -0.004694778 -0.050591677 -0.0692698
000390 75 bb 96 3c 46 89 1f 3c 8d 48 b9 3c 6c d3 d3 bb
       0.018399933 0.009737318 0.022617603 -0.0064644124
0003a0 03 c7 55 3b 71 c6 9f bc 8c e7 d1 bd 6a b3 31 bc
       0.003261984 -0.019503804 -0.10249242 -0.010845998
0003b0 d7 49 84 3c 46 ad 3c bb 9d b7 36 bd 9f 8e d5 bb
       0.01614849 -0.0028789802 -0.0446087 -0.006517246
0003c0 40 2f 2c bd 4b e0 af bc f5 d3 a6 3c dd b3 6a 3a
       -0.04203725 -0.021469256 0.02036474 0.00089531933
0003d0 50 d3 01 bb ba c4 f4 3c 25 7b b6 3c a4 4b ab bc
       -0.001980979 0.029878963 0.022275517 -0.020910092
0003e0 77 a7 9d bc 6b 53 58 3c 89 a2 3b bc 0f 73 8d bc
       -0.019244893 0.013203482 -0.011452326 -0.017266778
0003f0 ec d3 51 3d 9f c6 44 3d 09 b8 b5 bb 65 8e b5 ba
       0.051227495 0.048040982 -0.0055456203 -0.0013851641

actor.mu.model.0.bias f4 [3]
000000 ea a5 2e bd fc 2c 9a 3d 79 b4 af bd
       -0.042638697 0.07528111 -0.08579344

critic.preprocess.net.0.weight f4 [32, 4, 8, 8]
000000 fa 86 c9 3c 68 d4 39 3d 8d 0a 4a 3d 6b 7e 43 bd
       0.024600495 0.045368582 0.04932647 -0.047727983
000010 c7 e6 95 3d 82 fa eb bc 97 c1 f1 3c c5 3e eb bc
       0.07319408 -0.028805975 0.029511256 -0.028716454
000020 cc 55 95 3c 78 b8 66 3d b8 93 b1 3d 5e cf 65 b9
       0.018229388 0.056328267 0.08670753 -0.00021916392
000030 b6 27 35 3d 93 b9 a2 3d d1 09 0c bc 19 b4 ea 3c
       0.044227324 0.07945552 -0.008547262 0.02865033
000040 d8 67 29 3c e9 30 9a bc 5d c7 15 ba 44 8d e9 bc
       0.0103397 -0.01882215 -0.00057136064 -0.028509744
000050 d4 ac 0c 3d 94 ed 24 3d 6e bc 39 3c a3 a4 07 3d
       0.03434451 0.040265635 0.011336429 0.033115994
000060 fb d7 0f bd 06 27 d4 38 00 a3 32 bd a5 9a b5 bc
       -0.035118084 0.000101162164 -0.04361248 -0.022168467
000070 be d3 aa 3c aa e6 9a 3d ca 4d 40 bc 81 40 76 3d
       0.02085292 0.07563527 -0.011737296 0.06012011
000080 c0 d7 11 3d b3 4d 70 3d dd 14 33 bc 19 f3 9c bd
       0.035606146 0.05866785 -0.010930267 -0.07663555
000090 de 6e 1d bc 1a cb f0 bc 58 72 82 3d 12 64 d7 3c
       -0.009608952 -0.029393721 0.063694656 0.026292834
0000a0 35 98 ac bb 2b 73 7e 3d e8 bd 21 3c b9 a9 27 3d
       -0.005267168 0.06212155 0.009871937 0.040933345
0000b0 03 f7 1f 3d 0d aa d8 bc 44 a1 1f 3c be 13 c3 3c
       0.039053928 -0.026448274 0.009743039 0.023813125
0000c0 47 fb 81 3b 2f bf 0e bc bb dc 00 ba ce 52 ab bc
       0.003966722 -0.008712574 -0.0004915704 -0.020913508
0000d0 91 cc fd bb c2 fb 2a bd 9c cd 5d 3c 96 eb a3 3d
       -0.0077453335 -0.041744 0.013537791 0.08003919
0000e0 f0 e8 fa 3c 49 17 2e bd ab 77 83 bd d7 e8 aa 3d
       0.030628651 -0.042502675 -0.06419309 0.08345192
0000f0 6a 73 6f 3d 88 ad 92 bb a0 39 3e bd 0e 91 79 3d
       0.058459677 -0.004476253 -0.046441674 0.06092935
000100 78 ed 6a 3b c8 31 c7 bb a9 ec ce 3b fc 1b f9 bc
       0.0035847109 -0.0060789324 0.006314833 -0.030408852
000110 c3 28 66 3d 76 09 cd 3d 49 6f a2 3d f8 4e 1f 3d
       0.056191217 0.1001157 0.07931382 0.03889367
000120 85 0e d9 3d 96 e2 8d 3d 3f 5b 81 bb dc 15 40 bd
       0.105984725 0.069279835 -0.003947645 -0.046895847
000130 57 63 98 bb 8f 37 ce bb 5c 97 b4 bb 1b 7d 6a bd
       -0.004650514 -0.006293244 -0.0055112075 -0.057248216
000140 dd b0 92 bc 6a ab c1 bc e8 f8 27 bd 13 c6 80 3c
       -0.0179066 -0.023641307 -0.04100886 0.01571945
000150 77 c5 94 bc 26 4a 2d 3d 53 57 da 3c cf f7 78 3c
       -0.018160565 0.04230704 0.026652968 0.015195801
000160 66 12 27 bc 9f c5 29 bd 99 d3 12 3d 36 7d 55 3c
       -0.010197258 -0.04144823 0.035846327 0.013030341
000170 c2 62 4d 3b 3a bf 25 3c e7 81 0f 3d a5 2a 8c 3d
       0.0031339382 0.010116393 0.035035994 0.06844071
000180 94 e5 91 3d b9 84 3c 3d b5 9c 0f 3c 58 d9 f5 3b
       0.07123867 0.04602501 0.008765389 0.007502716
000190 6b d6 4f 3d 07 04 e4 bb d2 4a e4 bc e8 b9 e7 3c
       0.050741594 -0.006958488 -0.027867708 0.02828689
0001a0 c1 b6 35 3c bc 3a f8 bc af 77 1b bd a2 68 c5 3c
       0.011090935 -0.030301444 -0.037955936 0.024097744
0001b0 54 4d ce 3d fe b5 c0 3c 5c 78 13 3d ea 05 3f bd
       0.10073343 0.02352428 0.036003456 -0.0466365
0001c0 e5 73 41 bc 29 24 9b 3d e1 a1 26 b9 f1 ca 1a 3e
       -0.011807417 0.075752564 -0.00015891298 0.15116479
0001d0 98 9a 96 bc 1b 49 98 bc 17 cd 16 3d 98 7f ad 3d
       -0.018384263 -0.018589547 0.036816683 0.08471602
0001e0 9b 0a ba bc 79 74 96 bb 66 49 90 3c a8 69 97 3c
       -0.022710135 -0.0045915213 0.017613124 0.018482998
0001f0 95 9a 0b bd 08 d0 30 3d d9 c9 92 3d 22 fc d1 ba
       -0.034082968 0.043167144 0.07167406 -0.0016020576
000200 b7 8d 90 bd 66 65 8a 3c 70 a0 14 bd 8f 66 92 3d
       -0.0705828 0.016894054 -0.036285818 0.07148468
000210 c7 84 de bc 7b 5f e9 3c e1 6d b5 3c a5 9c b9 3d
       -0.027162923 0.028487911 0.02214712 0.09063081
000220 8c 75 eb 3c 83 56 8c 3d 1d 2e cc 3c e0 ac 0a be
       0.028742574 0.06852438 0.024924332 -0.13542509
000230 ad d9 5e 3d c9 d0 b5 3d 06 bb 1f bd 4f 17 03 be
       0.05440681 0.08877713 -0.03899672 -0.1280186
000240 90 45 f8 3b 8a e0 31 bd ba 77 df 3d 9b 00 93 3d
       0.007576652 -0.043427028 0.10911508 0.0717785
000250 1b 5b 95 bd 3f fe 64 bd 95 ad 09 bc 02 39 97 3d
       -0.072927676 -0.05590653 -0.008403202 0.0738392
000260 da 57 85 bd bf 4b 85 3d 73 53 a2 bc fa 0b 8b 3d
       -0.06510897 0.06508588 -0.019815182 0.06789394
000270 1c ed be bd 3e 97 94 3d 6d cc 3f bb f5 1a 04 3d
       -0.09322569 0.0725541 -0.0029266134 0.03225227
000280 ae 4a ab bd 03 45 e8 bc 7f 29 be bc ff 44 eb 3d
       -0.083638534 -0.02835322 -0.023213146 0.11487769
000290 0d 49 77 3a 55 ce b7 bb 8e b6 8a 3d 0b 7c 69 3d
       0.00094331877 -0.0056093135 0.06773101 0.057003062
0002a0 6a 12 33 3d ac 73 6f 3d ee 73 6a bc 99 ed 51 be
       0.043718733 0.058459923 -0.014309866 -0.20500793
0002b0 76 ce 91 3d 13 a1 b1 3d 96 61 da bc 27 ae 04 be
       0.071194574 0.086733006 -0.02665786 -0.12957059
0002c0 00 48 23 3d 04 a7 28 3d d6 ae a5 3d 7e 79 9d 3d
       0.039863586 0.041174904 0.08089988 0.076891884
0002d0 c0 d6 3f bd ec 6b 93 3d 1e 37 b3 3d 7a 71 66 3d
       -0.04683566 0.07198319 0.08750747 0.056260563
0002e0 ec a6 f4 3b 88 1b 92 3d 58 ed 7a 3c 5e 17 03 3e
       0.0074661877 0.071341574 0.015315376 0.12801883
0002f0 6d 30 58 bd 09 fe 20 bd ff e3 79 3d ed 5c 33 bb
       -0.052780557 -0.039304767 0.06100845 -0.002736862
000300 10 27 92 bb ee 63 a0 bd 36 b5 22 3d c8 9c 08 3e
       -0.004460223 -0.0783156 0.039723597 0.13341057
000310 04 f7 48 bc 07 b5 38 3d f7 25 0e 3d d9 79 51 3e
       -0.012265924 0.045094516 0.034704175 0.20456637
000320 f1 22 1c 3c e1 45 6d bc ea a0 6f 3c b9 ac 5d bd
       0.009529815 -0.014481992 0.014625767 -0.0541198
000330 e3 ea d2 bc f6 5c 5b bd 89 a4 7d bd 7c 80 ef bc
       -0.025746768 -0.05355545 -0.06192449 -0.02923607
000340 54 da 73 bd 56 78 96 3d 65 ed 91 bc d5 c6 05 3e
       -0.059534386 0.07347171 -0.017813394 0.1306413
000350 d5 5b f6 bc e2 be e8 3d ae 24 66 3d 8a 3c 94 3d
       -0.030073086 0.11364533 0.056187324 0.072381094
000360 de b1 59 bd 98 b2 7a bd ca 11 52 3c bf 96 ef 3c
       -0.053148143 -0.061205477 0.012821624 0.029246686
000370 b2 c6 03 3d db d3 18 bd d8 20 ac bc 6a dc 16 3d
       0.032171912 -0.037311416 -0.021011755 0.036831297
000380 dd 2f ac bd cb 1d 5a bd 44 aa 9c 3d 44 23 0e 3e
       -0.08407567 -0.05325107 0.07649663 0.1388064
000390 e1 00 a5 bd e5 52 85 3c b6 c5 16 3d fb 05 30 3e
       -0.08056808 0.016274879 0.036809646 0.17189781
0003a0 49 a2 44 bd 1f 6d a5 bd 02 93 81 bd d7 d5 34 3c
       -0.04800633 -0.08077454 -0.06326868 0.0110373115
0003b0 c2 6d c5 bd 7e 74 98 bd 52 70 aa bd a6 be c9 bd
       -0.09640075 -0.07444094 -0.08322205 -0.098508164
0003c0 5c 24 6a bc 4c 08 53 3d eb 52 73 bc e3 2d 83 bb
       -0.014290895 0.051521584 -0.014851312 -0.004003273
0003d0 f7 96 c4 bb 31 3a d6 3b 5f f3 de 3d 8c c1 81 3d
       -0.0059994417 0.0065376987 0.10886263 0.06335744
0003e0 cb e3 23 bc 7a 86 0d 3c 69 ab d5 3d 82 c5 a3 3d
       -0.010003041 0.008638019 0.104330845 0.07996656
0003f0 11 b7 c8 bc 54 61 f5 bc 73 50 b0 3d a8 7b ef 3d
       -0.024501355 -0.029953636 0.086090945 0.116935074

critic.preprocess.net.0.bias f4 [32]
000000 a0 eb 50 bd 26 b3 88 3c cf 8d 46 bd fc 7d 86 bd
       -0.05100596 0.016686987 -0.048475083 -0.06566998
000010 d1 cd a0 bc 82 cd db bd e5 a8 86 3d dd fe b8 3c
       -0.01962939 -0.10732557 0.06575183 0.022582466
000020 f4 49 d4 bc 0c 81 19 bc cf 4c 0e bd f4 ee f8 3c
       -0.02591417 -0.009369146 -0.03474122 0.03038738
000030 52 8f 01 3c c2 d6 5c bd 57 55 0a bb 2f 70 88 bc
       0.007907705 -0.053915747 -0.0021107995 -0.016655056
000040 0b 4c 4c bd 9c 77 33 bc 41 d2 54 bd 8a b3 d8 bc
       -0.049877208 -0.01095381 -0.051958326 -0.026452798
000050 21 e5 d9 bb 0c 24 61 bc 51 dc 88 bc 4a e0 78 bd
       -0.0066496287 -0.013741504 -0.016706618 -0.060760774
000060 b5 de 14 bd 75 29 a2 bd 91 ed 95 bd d4 43 67 3d
       -0.036345202 -0.079180636 -0.07320703 0.05646117
000070 e4 7e 38 bc 0d 3b fb bc 31 a1 d6 3c ee 09 5a bc
       -0.011260722 -0.030667806 0.026199909 -0.0133080315

critic.preprocess.net.2.weight f4 [64, 32, 4, 4]
000000 90 e7 03 be 40 6c 2d be 84 aa 0c be 4c 0c 2a be
       -0.12881303 -0.16935825 -0.13736922 -0.16606253
000010 de a7 72 bd 87 e5 ea bd 69 13 d8 bd 3e 5a 41 be
       -0.059242122 -0.1146956 -0.10550577 -0.18882081
000020 30 2f eb bd 2c 5e 14 be c3 c7 e7 bd 7f 33 17 be
       -0.1148361 -0.14489049 -0.113173984 -0.14765738
000030 b2 02 0c be ea 85 29 be 47 53 37 be 1a d9 52 be
       -0.13672903 -0.1655499 -0.17902862 -0.2059063
000040 c8 a1 50 bd e3 52 e0 bc 93 aa 6f bc 78 d2 8f bd
       -0.050935537 -0.027383273 -0.01462807 -0.070225656
000050 ee 0c 8d bb 49 d6 5b bc ba 5e 98 3b 9c a7 55 bc
       -0.00430452 -0.013417789 0.004649964 -0.0130404495
000060 2b 66 09 3c 4e 25 13 bc 25 58 56 3c c8 80 27 bc
       0.008386175 -0.008981062 0.013082539 -0.010223575
000070 e2 c6 00 3d db d2 aa bc 37 96 df 3c 99 e0 d9 bd
       0.03143967 -0.020852497 0.027293308 -0.10638542
000080 4f 22 eb 3c 80 20 93 3c fd 3c 2a bd ad 20 05 bd
       0.028702883 0.017959833 -0.04156207 -0.032501865
000090 37 80 e7 bb 89 0d 64 3b e9 cd 51 bd 40 c6 cd bc
       -0.007064845 0.0034798107 -0.05122176 -0.025118947
0000a0 86 d9 f8 3c 88 b8 f7 bc 0d f5 b5 bc ce 84 65 3c
       0.03037716 -0.030239359 -0.022211576 0.014008714
0000b0 4a 67 0b 3c be 38 31 bb d4 a1 41 bd 7c e3 8b bc
       0.008508513 -0.0027041878 -0.047273472 -0.017076246
0000c0 e1 19 5e 3d 91 31 95 3d b8 2b 90 3b 66 27 9b 3d
       0.0542239 0.07284845 0.004399743 0.07575874
0000d0 13 d6 15 3d d2 6c 02 3c 92 27 49 3d ae ff dd 3d
       0.03658111 0.007960515 0.049110003 0.10839783
0000e0 f7 11 81 3c 7a ff 81 3d 2e d1 2b 3d 87 01 b8 3d
       0.015755637 0.063475564 0.041947536 0.08984666
0000f0 e9 40 2b 3d 60 f9 9b 3c c0 d8 0b bb 8a f2 de 3d
       0.04180995 0.01903981 -0.002133891 0.108861044
000100 3a 5a bf 3b 49 c0 84 bc b8 49 d7 bd a8 df 74 bc
       0.0058396133 -0.01620497 -0.105121076 -0.014945902
000110 c7 a5 cb bd 52 95 0f bd 22 16 a2 bd 8a 31 99 bd
       -0.09943729 -0.035054512 -0.07914378 -0.07480152
000120 e0 a5 dd bd 65 bf 10 bd 08 b9 b9 bd 6a 6a 88 bd
       -0.10822654 -0.035338778 -0.09068495 -0.06660922
000130 f6 d2 0d be fc 09 8f bd d2 a0 91 bd 5a 09 b1 bd
       -0.13850006 -0.06984326 -0.07110752 -0.08644362
000140 03 ea 61 bd 91 af 72 bd bf 6e 95 bd 3b 92 01 be
       -0.05515481 -0.059249464 -0.07296514 -0.12653439
000150 72 ed a0 bd 55 b8 8d bd 58 fa a1 bd 4a 5e e7 bd
       -0.07857789 -0.06919924 -0.079090774 -0.11297281
000160 96 c4 11 bd 47 c1 be bb 1c 88 3e bd fe 2f bf bd
       -0.03558787 -0.0058213803 -0.046516523 -0.09335326
000170 f8 14 4e bd 76 e2 b9 bd d8 38 5d bd 1b 83 92 bd
       -0.050312966 -0.09076397 -0.05400929 -0.07153913
000180 ec 9d 75 3c ca 9e ab bc 25 74 2b bc 40 e0 75 bd
       0.014991265 -0.02094974 -0.010464703 -0.060028315
000190 bd c7 96 3c 23 ca 36 bc 3c ba 99 3c 44 4d a0 bd
       0.01840579 -0.011156592 0.018765561 -0.07827237
0001a0 40 fb c5 ba eb 3e 33 bd 85 16 51 3c 51 dc a8 bd
       -0.0015104786 -0.043761175 0.012761717 -0.08245147
0001b0 b2 a6 6f 3d 05 ea 5c bd 47 22 51 bd 1b 68 69 bd
       0.058508582 -0.053934116 -0.05105808 -0.05698405
0001c0 d7 d8 f7 3d 70 ff cb 3d b7 e0 48 3c 36 6f d2 3d
       0.12101906 0.0996083 0.012260607 0.10275118
0001d0 f9 96 91 3d c2 24 ea 3c 7c d0 89 3d 10 c8 9c 3d
       0.07108874 0.02858198 0.06729218 0.076553464
0001e0 91 34 59 3d eb 97 da 3c 4f 01 90 bc ed 9c c3 3c
       0.053028647 0.026683768 -0.017578749 0.023878539
0001f0 2b fe 3b 3d 6b 4a 50 3d ac 73 8d 3c bd 5f ff bb
       0.04589669 0.05085222 0.01726707 -0.0077933953
000200 7b 06 eb bc 8c f4 cc bc 32 30 13 bd f4 96 83 bd
       -0.028689614 -0.025018953 -0.035934635 -0.064252764
000210 50 55 e7 3b 53 fb 8e bc bf 7e a0 39 66 fb 90 bd
       0.0070597306 -0.017453825 0.0003061201 -0.070792004
000220 a5 68 a7 bc 64 f2 b0 bd 5a a7 f7 bb 23 d1 8a bd
       -0.02043564 -0.08639982 -0.0075577917 -0.06778171
000230 5f c3 b1 bd 8e 94 6a bd f0 44 8c bc 0c b8 44 bd
       -0.08679842 -0.05727058 -0.017122716 -0.048027083
000240 bc 7c e6 bc 96 00 95 3c d6 51 bd bc 8b 25 c2 3c
       -0.02813565 0.018188756 -0.023110311 0.023699543
000250 a5 dd 64 bd 12 12 a4 3d 37 b9 11 bd 36 23 81 3c
       -0.05587544 0.08011259 -0.035577025 0.01576386
000260 b0 d4 03 bc 8e 54 56 3d ae 5d 1f bd 1a 0e ef 3c
       -0.008046314 0.05232673 -0.0389077 0.029181529
000270 ef f9 9a bc 51 14 b0 3d 9c 19 54 bd e0 75 b2 3c
       -0.018918006 0.08597625 -0.051782236 0.021784723
000280 8e 42 e2 3c 94 28 1c bc 84 e5 08 bd f5 20 92 3d
       0.027619626 -0.009531159 -0.03342201 0.07135192
000290 03 d3 8a bc 46 0b c7 bc e2 22 88 bc 09 14 cc 3d
       -0.016946321 -0.024297368 -0.016618196 0.09964759
0002a0 44 f7 31 bd 3d 23 87 3c d8 eb a3 bc 64 ec 03 3d
       -0.0434487 0.016496295 -0.02000992 0.03220786
0002b0 cc 7c 75 3c 3e 80 65 bd dc ff 22 3c 3d d4 80 3c
       0.014983367 -0.056030504 0.009948697 0.015726203
0002c0 7d 66 2c bd fc f9 be 3b ca a0 08 bd 83 a3 90 bd
       -0.042089928 0.0058281403 -0.033356465 -0.070624374
0002d0 de 9e 20 bd 6c 04 52 bd b8 fd 3f bd b3 e0 eb bc
       -0.039214008 -0.05127375 -0.046872824 -0.028793668
0002e0 50 35 8a bd 89 8f 75 bd 75 1c c8 bd 8a 80 ce bd
       -0.0674845 -0.05995134 -0.09771053 -0.10083111
0002f0 2b 55 b0 bd 6c 5d c1 bd 37 14 b3 bd a0 21 94 bd
       -0.086099945 -0.09441647 -0.0874409 -0.07232976
000300 11 42 97 3c 0e ec 80 3d 74 0f 94 3d d3 71 23 3e
       0.01846412 0.06295024 0.0722951 0.15961389
000310 9e dd 82 bb fd 95 4e 3d cc 12 45 3d d0 c7 3d 3e
       -0.003993704 0.05043601 0.04811363 0.18533254
000320 b5 dd 17 3d 16 e4 6c 3d b7 10 91 3d 4c b4 d9 3d
       0.03707667 0.057834707 0.07083266 0.10630092
000330 cc a4 80 3c ee dd 6a 3d a2 ae 4d bb da 22 1c 3e
       0.015703581 0.057340555 -0.0031384607 0.1524767
000340 8b 5d d5 bc 89 bc cd 3c 62 7a 15 3c a7 69 28 3c
       -0.026045581 0.025114315 0.009123417 0.010279096
000350 f2 f5 e3 3c 86 db 16 bd a6 92 13 3a db bb 13 3d
       0.027827237 -0.036830448 0.00056294573 0.036067825
000360 2f d4 5a 3d cc 66 29 3d c7 cb 83 3d a2 80 60 3c
       0.05342501 0.0413578 0.06435352 0.013702543
000370 c1 62 0e 3d 30 23 71 3d 0b 22 ad 3c 3e b8 86 3d
       0.034762148 0.058871448 0.021134397 0.0657811
000380 da b4 7b 3d 4d b9 4b 3d ee 63 27 bb 98 00 17 3b
       0.06145177 0.049737263 -0.002554174 0.0023041125
000390 1d 81 82 3d 48 f4 a9 3c e8 e7 99 3d 23 e1 b9 bc
       0.06372283 0.020746365 0.07514936 -0.022690361
0003a0 ca a8 4c 3d 2b 5e ad 3d c4 ab 03 bb aa 56 64 3b
       0.049965657 0.08465227 -0.0020091394 0.0034841695
0003b0 15 15 a2 3d 16 ed 64 3d a8 78 ed bb 2e eb 0f bd
       0.07914177 0.055890165 -0.0072470494 -0.035136394
0003c0 e4 6a 49 bd 64 71 75 3d d0 08 5c 3d 67 a6 1e 3d
       -0.049174204 0.05992259 0.05371934 0.038732912
0003d0 11 f4 85 bd 8c 0b 1d 3d be 38 09 3d 3e e5 5d 3d
       -0.065406926 0.03834109 0.03350138 0.0541737
0003e0 e8 a7 5c 3c 73 ef 60 3d ec 8a 88 b8 0f 56 07 3d
       0.013467766 0.054915857 -6.5108616e-05 0.033041056
0003f0 74 5c 48 bd 87 9e 6e 3d d3 8e 25 ba c7 17 23 3c
       -0.048916295 0.058256652 -0.0006315533 0.009954399
